saves/lenet5/cifar10/new_run/logs_lt_pp90x2_seed2_co2False_cifar10.pt (torch, 761419 bytes, 30 tensors)

conv1.weight f4 [6, 3, 5, 5]
0.002106348 -0.05446975 0.066492185 -0.0032094752 0.021759667 0.003710988 -0.16808653 -0.03854836
-0.012458663 -0.05316631 0.10752237 0.012928036 0.14819677 -0.009658011 0.038019005 0.012038433
-0.0121721355 0.014627861 -0.15867352 0.08990291 0.0032025562 -0.07042635 -0.018188346 0.17182373
0.0762338 -0.19164975 -0.06573411 0.12917852 0.027189944 -0.025926558 -0.16063178 0.12144476
-0.028470112 -0.09089923 -0.044546243 0.1672237 -0.14029029 -0.052403554 0.059844654 -0.009349278
0.08857081 0.0003577647 -0.0067581097 0.074167825 -0.057385895 -0.11346365 0.0071083964 -0.009068307
0.03187861 0.034909178 0.07467074 0.03984478 -0.085952304 -0.09739159 0.1347064 0.028253017
-0.061255988 0.11848737 0.067844585 -0.075151734 0.022388656 0.13397728 0.1735646 -0.082157165
0.047815233 0.039643463 0.038262587 0.12547873 -0.08867848 -0.010986527 -0.083659306 -0.19494073
-0.035566386 -0.09179499 0.036555268 0.15875039 0.119741865 0.013810063 -0.09847142 -0.118039116
0.15590113 0.06373325 0.062661305 -0.1004121 0.0178686 -0.018404316 0.076841146 0.034932323
-0.00075355853 -0.118330985 -0.12140225 0.04685089 0.13474737 -0.0013508981 0.053477485 -0.07011808
-0.010128541 -0.11946706 -0.15853427 0.041495506 -0.028765572 0.0069354596 0.20002942 -0.05817095
0.052880578 0.07944928 -0.040467836 -0.06753053 -0.07456943 -0.0010465328 -0.21908686 -0.05938231
-0.018591922 0.055427484 0.075704634 -0.061054297 -0.1409931 0.13182223 0.13240959 0.06094961
-0.0712817 -0.108309604 -0.0757793 -0.07240612 0.04081847 0.071638554 0.06483491 0.115905374
-0.05753548 -0.1469042 0.060275692 0.055795576 0.09124222 -0.2197911 0.134004 -0.003038018
0.022076156 -0.19119735 -0.099754825 0.06197037 0.036222644 -0.25448844 -0.077387966 -0.02829829
-0.08143341 0.12998044 -0.12726937 0.13157387 0.02122342 -0.023942018 0.11708598 -0.054344136
-0.097416 0.03713197 0.16169946 0.14312318 0.115719974 -0.12523507 0.03660332 -0.0683883
-0.04817889 -0.047191292 -0.044539403 0.002464602 0.19218786 0.06529117 0.109238125 -0.03614456
0.092832096 -0.063964665 -0.005005076 0.026292734 0.12855527 0.15686218 -0.01571134 -0.07257757
0.106598586 0.05726517 0.031660147 0.032998074 0.15298136 0.22151966 0.04660382 0.05622366
-0.27199504 0.18771395 -0.05943944 0.09562568 -0.13392824 0.087110005 -0.11166365 0.03970894
-0.053220183 -0.046583563 0.019074587 0.06984093 0.06460132 0.011351722 0.11472217 0.088658236
-0.0048530214 -0.03375939 -0.18065514 0.15986994 -0.028455105 0.008452904 -0.08592115 0.11399233
-0.16216096 0.0784972 0.018906059 0.034428198 -0.20530769 -0.1533786 0.054316595 0.09331693
-0.09637774 -0.045557484 -0.042819228 -0.07930689 -0.027554534 -0.019790247 0.021165699 -0.15404887
-0.07195152 0.099795364 -0.058551475 0.08756376 0.06508788 -0.083024465 -0.023084322 0.099341296
0.065714546 0.0014977707 0.13408469 -0.13481532 -0.0044306335 0.02495056 0.13875051 0.08281648
0.0007265533 0.058675822 -0.0017213399 -0.18970297 -0.06416219 -0.005582318 0.01324154 -0.12681931
0.05637995 -0.04679765 0.0245426 0.21204087 0.026990183 0.010032028 -0.073492385 0.122207485
00000000: a80a 0a3b ac1b 5fbd 0e2d 883d 0f56 52bb
00000010: 5441 b23c 0c34 733b e01e 2cbe e3e4 1dbd
00000020: 6c1f 4cbc ebc4 59bd b034 dc3d 1dd0 533c
00000030: e5c0 173e a23c 1ebc d1b9 1b3d d93c 453c
00000040: a36d 47bc b2a9 6f3c 507b 22be 041f b83d
00000050: fae1 513b b13b 90bd baff 94bc 8ff2 2f3e
00000060: 7720 9c3d d53f 44be 9b9f 86bd 6047 043e
00000070: 72bd de3c ef63 d4bc a87c 24be 08b8 f83d
00000080: 273a e9bc 6029 babd 1f76 36bd b13c 2b3e
00000090: 42a8 0fbe 1ca5 56bd ab1f 753d b72d 19bc
000000a0: 9d64 b53d 5d92 bb39 2273 ddbb 4de5 973d
000000b0: 790d 6bbd a15f e8bd 8ded e83b 3c93 14bc
000000c0: 2593 023d edfc 0e3d f9ec 983d 4834 233d
000000d0: c307 b0bd 3e75 c7bd 79f0 093e df72 e73c
000000e0: 8fe7 7abd 82a9 f23d 1af2 8a3d 27e9 99bd
000000f0: 6a68 b73c 5731 093e ebba 313e 0442 a8bd
00000100: e8d9 433d 2f61 223d 3bb9 1c3d 7f7d 003e
00000110: 109d b5bd d600 34bc 9255 abbd 8b9e 47be
00000120: 0fae 11bd 03ff bbbd faba 153d 768f 223e
00000130: 393b f53d 9a43 623c 62ab c9bd 7ebe f1bd
00000140: 8ca4 1f3e 9486 823d 9254 803d dca4 cdbd
00000150: 2c61 923c a6c4 96bc e45e 9d3d 3215 0f3d
00000160: 758a 45ba 8457 f2bd bea1 f8bd b8e6 3f3d
00000170: 37fb 093e 9e10 b1ba 350b 5b3d 119a 8fbd
00000180: 2ef2 25bc 25ab f4bd cf56 22be 31f7 293d
00000190: c7a5 ebbc da42 e33b 83d4 4c3e a944 6ebd
000001a0: 4e99 583d 4eb6 a23d 9ac1 25bd 724d 8abd
000001b0: dbb7 98bd d02b 89ba 4e58 60be dd3a 73bd
000001c0: 164e 98bc ee07 633d 080b 9b3d 1214 7abd
000001d0: 7f60 10be 68fc 063e 6196 073e 4ca6 793d
000001e0: 24fc 91bd 6dd1 ddbd 2d32 9bbd a949 94bd
000001f0: 4531 273d 3cb7 923d 2ac8 843d cc5f ed3d
00000200: 53aa 6bbd 0e6e 16be a5e3 763d e789 643d
00000210: 33dd ba3d eb10 61be 5838 093e 7c19 47bb
00000220: 0ed9 b43c 3dc9 43be 424c ccbd a5d4 7d3d
00000230: 325e 143d 4f4c 82be 957d 9ebd d1d1 e7bc
00000240: 8fc6 a6bd 9819 053e e752 02be 4dbb 063e
00000250: bddc ad3c 0d22 c4bc c6ca ef3d f597 5ebd
00000260: 0a82 c7bd b117 183d 8b94 253e e28e 123e
00000270: 98fe ec3d 9f3d 00be 5ded 153d 2a0f 8cbd
00000280: 3a57 45bd a84b 41bd f36e 36bd 2985 213b
00000290: e5cc 443e 60b7 853d 3db8 df3d 510c 14bd
000002a0: c11e be3d e8ff 82bd 9f01 a4bb dc63 d73c
000002b0: fea3 033e 7ba0 203e 11b5 80bc 8da3 94bd
000002c0: 5c50 da3d e28e 6a3d 12ae 013d fd28 073d
000002d0: 25a7 1c3e 0dd6 623e a6e3 3e3d c84a 663d
000002e0: ef42 8bbe 1638 403e c576 73bd 66d7 c33d
000002f0: 7c24 09be bb66 b23d e9af e4bd d7a5 223d
00000300: 68fd 59bd 68ce 3ebd 4f42 9c3c c308 8f3d
00000310: b24d 843d 93fc 393c 75f3 ea3d 7392 b53d
00000320: 1806 9fbb 4947 0abd a9fd 38be f2b4 233e
00000330: ae1a e9bc 0d7e 0a3c 6ef7 afbd d074 e93d
00000340: 860d 26be 24c3 a03d e1e0 9a3c 9504 0d3d
00000350: 2e3c 52be 480f 1dbe 147b 5e3d f21c bf3d
00000360: b161 c5bd 7c9a 3abd 3763 2fbd a76b a2bd
00000370: 0cba e1bc 281f a2bc b063 ad3c fdbe 1dbe
00000380: 525b 93bd 8361 cc3d acd3 6fbd a154 b33d
00000390: cb4c 853d bb08 aabd 551b bdbc 7373 cb3d
000003a0: 5995 863d d850 c43a 7f4d 093e 070d 0abe
000003b0: d92e 91bb 1e65 cc3c 9d14 0e3e b09b a93d
000003c0: 2b76 3e3a 0f56 703d 959e e1ba 7f41 42be
000003d0: 7767 83bd e1eb b6bb 0bf3 583c ecdc 01be
000003e0: aaee 663d e5ae 3fbd 900d c93c 3e21 593e
000003f0: 841a dd3c 605d 243c 2d83 96bd eb47 fa3d

conv1.bias f4 [6]
-0.60637987 -0.14995393 -8.523438e-21 -0.015582478 -0.6369895 -0.0061196093
00000000: b63b 1bbf 868d 19be d100 219e a64d 7fbc
00000010: be11 23bf 0187 c8bb

conv2.weight f4 [16, 6, 5, 5]
-0.011002219 0.10303923 0.011111806 -0.039611906 0.0624351 0.0022101498 -0.11440542 -0.09686927
-0.028397124 0.07773856 0.11634776 -0.014763105 -0.029360069 -0.056114364 0.014132543 0.019960843
0.04695371 -0.04844043 0.00828675 -0.031762853 0.09274407 -0.0055537443 -0.06875179 -0.16795978
-0.047622763 -0.019580891 -0.051488396 0.084127165 -0.13388301 0.0068962467 -0.08758237 0.0026953025
-0.057565663 0.006787205 -0.05523973 0.031160552 -0.045109402 -0.010224453 0.008908334 0.06844476
0.034609325 0.026134891 0.01730191 0.025476484 -0.12667891 0.043605953 -0.012046113 -0.10095793
0.049925752 0.010374528 -0.07363601 0.05616985 -0.01821762 0.1499252 0.017732937 0.025701787
0.0021012255 -0.013927303 0.07535818 0.06650297 0.03947634 0.05894821 0.069160305 -0.08962386
0.09421108 0.06928468 0.012699179 -0.042262837 -0.027410531 -0.06721685 0.024515249 0.14167368
0.014974003 -0.038214255 0.039250307 0.01460859 0.003276666 -0.0128630465 0.033533387 0.08585216
0.0123730125 -0.05802123 0.11958831 -0.06582338 -0.029135324 0.05081347 -0.0041741948 -0.027944658
-0.020271517 -0.031482145 -0.026697224 0.09341285 0.0019844868 0.0017566211 -0.044183612 0.054190286
0.022771414 0.00774547 -0.05685286 0.04514102 -0.03805213 0.026777675 0.0013931153 -0.027523778
0.049770754 -0.09498328 -0.096663006 -0.062104665 0.036339436 0.052414533 0.092697665 0.07395597
0.0008336234 -0.023538545 -0.04585384 -0.035725083 0.027365932 -0.0629708 -0.016727364 0.035607576
-0.00028720658 0.027100934 -0.060846914 0.080107175 0.028011981 0.047273416 -0.034626655 -0.07299764
-0.08355317 0.0302018 -0.08860416 0.06439453 0.10195276 -0.017129159 -0.04155878 0.02045938
-0.084304266 -0.07489929 -0.009170388 0.09094079 -0.00666882 0.014622455 0.07477438 -0.047180038
-0.0022250877 0.0021909166 0.036178626 -0.031611543 -0.019197019 0.10003582 0.022427559 -0.040187944
-0.04888431 -0.03310451 0.09903906 -0.07348168 0.02541814 0.006492731 -0.10134338 -0.029127643
0.08737884 -0.029526435 -0.09641394 0.049615547 -0.0083657475 -0.03357108 -0.03456382 -0.07651314
-0.08546962 -0.11862416 0.013658813 0.03735604 -0.00071602 -0.12207682 -0.0342131 0.12967268
0.017448094 0.0021364074 -0.016620992 -0.093878746 -0.008834529 -0.0035498615 -0.08954304 0.09016515
0.006829675 0.0016095965 -0.016563253 -0.02149411 -0.01982536 -0.012672958 0.009194946 -0.030938022
-0.011891496 0.031526513 0.045490243 -0.012235663 0.079030156 -0.0444507 0.016353609 -0.06228908
-0.10021747 0.00038651816 0.19790281 -0.02831905 0.04822619 0.052943666 -0.13095902 0.023690395
0.082434386 -0.037827335 -0.016981998 0.0137539795 0.06443348 -0.076148435 0.017379757 0.035158493
0.06850937 0.095915794 -0.06748687 -0.017410247 -0.0210435 -0.021456359 0.028565876 0.13504899
-0.051360928 -0.046848074 -0.0152178295 -0.06911774 -0.05988839 -0.0008915524 -0.017751621 -0.104215436
-0.102780044 0.11200926 0.014339341 0.038157992 0.063078746 0.0058193407 0.039326757 0.040524367
0.00991733 0.06807325 -0.014511822 -0.07619854 -0.034983054 0.0018905866 0.040451873 -0.017737111
0.033661056 -0.029932106 0.04356985 0.018758005 -0.022310346 -0.026673011 -0.023593089 0.050615065
00000000: a742 34bc 3b06 d33d 4b0e 363c 1840 22bd
00000010: f3bb 7f3d 29d8 103b 644d eabd 6563 c6bd
00000020: 16a1 e8bc 6535 9f3d bc47 ee3d f3e0 71bc
00000030: 8784 f0bc 2dd8 65bd 2e8c 673c ec84 a33c
00000040: 8952 403d 7969 46bd 26c5 073c c419 02bd
00000050: 9af0 bd3d 2ffc b5bb bdcd 8cbd a6fd 2bbe
00000060: 1610 43bd 1b68 a0bc 7fe5 52bd dd4a ac3d
00000070: a118 09be e9f9 e13b 635e b3bd aca3 303b
00000080: f9c9 6bbd 3467 de3b 0e43 62bd 6a44 ff3c
00000090: a3c4 38bd 7784 27bc 43f4 113c c42c 8c3d
000000a0: 82c2 0d3d d718 d63c bcbc 8d3c 0fb4 d03c
000000b0: 1eb8 01be 289c 323d 0f5d 45bc 08c3 cebd
000000c0: f27e 4c3d edf9 293c 7ace 96bd 5b12 663d
000000d0: 1e3d 95bc fe85 193e aa44 913c 8e8c d23c
000000e0: b7b4 093b 582f 64bc 6455 9a3d b632 883d
000000f0: f1b1 213d ae73 713d eba3 8d3d b78c b7bd
00000100: bdf1 c03d 20e5 8d3d 3810 503c cc1b 2dbd
00000110: 0d8c e0bc fda8 89bd 34d4 c83c e812 113e
00000120: 8555 753c 8d86 1cbd eec4 203d de58 6f3c
00000130: 55bd 563b 87bf 52bc 4e5a 093d 42d3 af3d
00000140: 2db8 4a3c aba7 6dbd b7ea f43d 69ce 86bd
00000150: 34ad eebc c921 503d afc7 88bb 32ec e4bc
00000160: 7410 a6bc 6cf3 00bd 23b4 dabc 3c4f bf3d
00000170: 2a0e 023b 6c3e e63a e0f9 34bd a2f6 5d3d
00000180: 1e8b ba3c b6cd fd3b 8bde 68bd cae5 383d
00000190: 8ddc 1bbd db5c db3c 3199 b63a 8c79 e1bc
000001a0: 6bdc 4b3d 9886 c2bd 41f7 c5bd 7661 7ebd
000001b0: a9d8 143d 9fb0 563d 46d8 bd3d 3a76 973d
000001c0: 8587 5a3a e8d3 c0bc 3cd1 3bbd 7754 12bd
000001d0: 852e e03c d6f6 80bd d307 89bc 40d9 113d
000001e0: 3794 96b9 c702 de3c 9d3a 79bd 3b0f a43d
000001f0: 6279 e53c c5a1 413d aed4 0dbd c97f 95bd
00000200: ed1d abbd c469 f73c 1976 b5bd 48e1 833d
00000210: 9ccc d03d 7352 8cbc 8a39 2abd 6e9a a73c
00000220: b7a7 acbd cd64 99bd 653f 16bc 2a3f ba3d
00000230: 1e86 dabb 0693 6f3c 4f23 993d db3f 41bd
00000240: c7d2 11bb 7b95 0f3b 0a30 143d 1b7b 01bd
00000250: 1143 9dbc 94df cc3d 00ba b73c 1d9c 24bd
00000260: ea3a 48bd 9898 07bd fed4 ca3d 907d 96bd
00000270: b439 d03c fac0 d43b 1e8d cfbd 189d eebc
00000280: adf3 b23d 6ce1 f1bc ac74 c5bd ac39 4b3d
00000290: 7d10 09bc d481 09bd cb92 0dbd ecb2 9cbd
000002a0: b20a afbd 39f1 f2bd 37c9 5f3c a602 193d
000002b0: 4ab3 3bba 6903 fabd 0923 0cbd eac8 043e
000002c0: 4eef 8e3c f802 0c3b bf28 88bc 8043 c0bd
000002d0: b3be 10bc cba4 68bb 5762 b7bd 82a8 b83d
000002e0: 77cb df3b 19f9 d23a a9af 87bc 6a14 b0bc
000002f0: cb68 a2bc 3da2 4fbc 66a6 163c bc71 fdbc
00000300: 8dd4 42bc f221 013d fa53 3a3d 1778 48bc
00000310: 90da a13d f011 36bd 01f8 853c d622 7fbd
00000320: d13e cdbd 97a5 ca39 09a7 4a3e 5afd e7bc
00000330: d388 453d 75db 583d 1f1a 06be 5c12 c23c
00000340: 5cd3 a83d d6f0 1abd d51d 8bbc 5f58 613c
00000350: b3f5 833d b6f3 9bbd fe5f 8e3c 5a02 103d
00000360: a44e 8c3d 806f c43d 8e36 8abd ef9f 8ebc
00000370: 6b63 acbc 3fc5 afbc fc02 ea3c 484a 0a3e
00000380: d65f 52bd c4e3 3fbd 3454 79bc 9a8d 8dbd
00000390: 874d 75bd 12b7 69ba d96b 91bc e76e d5bd
000003a0: 587e d2bd 1c65 e53d 8eef 6a3c 8e4b 1c3d
000003b0: 6e2f 813d 2bb0 be3b 1815 213d e1fc 253d
000003c0: 4c7c 223c fd69 8b3d fec2 6dbc fb0d 9cbd
000003d0: 644a 0fbd 8fcd f73a ddb0 253d 6b4d 91bc
000003e0: 2de0 093d 2d34 f5bc 4d76 323d 63aa 993c
000003f0: 30c4 b6bc 5c81 dabc 4b46 c1bc be51 4f3d

conv2.bias f4 [16]
-1.0187222e-06 -2.2664339e-05 -0.32557717 -0.82393944 -0.65327036 -0.729547 -1.1965293 -2.0234559
-9.648388e-08 -1.756773 -2.3876034e-08 3.990326e-06 -3.6843693e-07 -1.2731179e-05 -2.0067656 -1.04332365e-07
00000000: 07bb 88b5 4c1f beb7 0db2 a6be b2ed 52bf
00000010: ba3c 27bf 98c3 3abf df27 99bf 4d80 01c0
00000020: 9332 cfb3 f0dd e0bf f417 cdb2 a4e4 8536
00000030: 96cd c5b4 ff97 55b7 d96e 00c0 530d e0b3

fc1.weight f4 [120, 400]
0.025374526 0.014293628 0.03623983 -0.0087924 0.024351625 0.03197141 0.0021553356 -0.02953428
0.06752041 -0.023640674 -0.024401294 -0.05528796 0.065363295 0.039331816 0.121445954 0.04540849
8.68522e-05 0.013511647 -0.082037926 -0.010232916 0.011621132 -0.09213943 -0.0799167 0.053921815
-0.012562721 0.089253165 0.064207286 -0.07104647 -0.053721197 0.03931546 -0.0137093 -0.11148241
-0.087600596 -0.05871231 0.1239275 0.013049862 -0.07698142 -0.10893009 -0.112441264 -0.009381423
-0.072197035 0.01432569 0.06318944 0.013376679 0.029449718 -0.048507236 -0.03364175 0.06335588
0.0105252545 -0.050618857 0.003735811 -0.011563045 -0.060171504 0.09903014 -0.023395378 0.12091453
-0.01700534 0.0590835 -0.001146358 0.043628942 -0.050287884 0.027564425 -0.13819987 0.009517112
-0.077482246 0.018930908 0.021180673 0.12464986 0.07510048 -0.055872396 0.0027560631 0.0036038205
-0.058053613 0.011766594 -0.0028306204 -0.047457136 0.025226012 0.040099036 -0.04054935 0.04295472
0.02002628 0.048902944 -0.035023388 0.039524052 0.06813716 0.023422668 0.07170876 -0.04094368
0.040926766 0.046852164 -0.0063772732 -0.055403378 0.030165548 -0.007135746 -0.08579058 0.05349388
-0.016635275 0.031946655 0.1528447 0.011701621 -0.012089968 0.027827041 -0.16409004 -0.012088566
0.03904008 -0.05249629 -0.061459597 0.058090482 0.11955421 -0.1047579 -0.09012982 -0.04758771
-0.017755346 0.057803165 0.011691214 0.069463186 -0.050004803 -0.09144088 -0.07330844 0.005798579
-0.023462618 0.020626316 0.066704586 0.073346145 -0.0012228552 0.029009687 0.079830915 0.018423846
-0.08059997 -0.05572951 -0.06364163 0.05683503 -0.03301225 -0.033461105 0.00067923 -0.0018052146
-0.01611439 0.047700584 0.00907003 0.036672495 0.016434643 -0.0550393 -0.01828661 -0.006467694
-0.01417125 0.06944083 0.11785245 0.038681317 -0.065949224 -0.009590691 0.07290124 0.013493659
-0.043594986 0.0068792882 0.02576872 -0.05810124 -0.10378894 0.037094817 -0.050581377 -0.024407098
0.011594606 -0.056650534 0.067880526 0.03992602 0.1090746 0.011342586 0.0067009083 -0.046265416
0.08707415 0.022331951 -0.028628225 0.03958289 0.055047326 -0.06807389 0.0972987 0.0169197
-0.04638657 0.056960903 0.015005495 -0.021557726 0.025122024 0.06441813 0.08344095 0.1423532
0.068057105 0.027238669 -0.033290744 -0.011350459 0.025449691 0.011093321 -0.018708797 -0.015175863
-0.03964042 -0.053189978 -0.013457909 0.023466634 0.06426753 -0.044705246 0.16047543 -0.06650962
-0.024887336 -0.08310251 0.09127069 0.10306534 -0.026970953 -0.039672792 0.15275246 -0.1295638
0.034386523 -0.09100567 0.058599915 -0.06345162 -0.04287467 0.06493087 0.09522503 -0.027324568
0.046820175 0.0734661 0.007827004 0.08668546 0.05133429 0.025618596 -0.003539784 0.1227154
-0.012207127 0.08290738 -0.082832806 0.0020010169 0.07384112 -0.03326301 0.095607705 -0.04230137
0.015927836 0.0011404286 -0.079312086 0.027987774 -0.003321504 -0.07753284 -0.049718324 -0.04285516
0.11278443 0.05530417 -0.073345795 -0.034595095 -0.012797665 -0.065786324 -0.10300217 0.117990695
0.06709582 0.013400769 0.015235249 0.02647238 -0.010808468 -0.054407373 0.05018817 -0.006064833
00000000: 3dde cf3c d22f 6a3c 3770 143d 000e 10bc
00000010: 0f7d c73c 74f4 023d 8840 0d3b e0f1 f1bc
00000020: 2448 8a3d 16aa c1bc 39e5 c7bc a175 62bd
00000030: 31dd 853d 661a 213d a8b8 f83d 41fe 393d
00000040: 6b24 b638 f45f 5d3c 8003 a8bd f6a7 27bc
00000050: 8f66 3e3c 99b3 bcbd 5eab a3bd 1fdd 5c3d
00000060: dfd3 4dbc 5dca b63d 1c7f 833d d080 91bd
00000070: c20a 5cbd 3f09 213d f99c 60bc e450 e4bd
00000080: f167 b3bd 527c 70bd b3cd fd3d 17cf 553c
00000090: 6fa8 9dbd bd16 dfbd 9b47 e6bd 8ab4 19bc
000000a0: 0adc 93bd 4db6 6a3c 7769 813d dc29 5b3c
000000b0: 8940 f13c 86af 46bd efcb 09bd bac0 813d
000000c0: 1e72 2c3c b855 4fbd 82d4 743b ed72 3dbc
000000d0: 6576 76bd 50d0 ca3d aaa7 bfbc 09a2 f73d
000000e0: c84e 8bbc 8a01 723d 6441 96ba 43b4 323d
000000f0: abfa 4dbd cace e13c 4484 0dbe a9ed 1b3c
00000100: 03af 9ebd fe14 9b3c 1783 ad3c 6d48 ff3d
00000110: 48ce 993d 74da 64bd 119f 343b 132e 6c3b
00000120: a0c9 6dbd acc8 403c ee81 39bb 6a62 42bd
00000130: c8a6 ce3c e33e 243d 1317 26bd 4af1 2f3d
00000140: 270e a43c 744e 483d af74 0fbd f9e3 213d
00000150: 7f8b 8b3d e5e0 bf3c 0bdc 923d 8fb4 27bd
00000160: d3a2 273d 0ee8 3f3d 72f8 d0bb a7ee 62bd
00000170: bd1d f73c fad2 e9bb f9b2 afbd 661c 5b3d
00000180: b346 88bc 7fda 023d 5283 1c3e 28b8 3f3c
00000190: 0015 46bc 89f5 e33c 3807 28be 1f0f 46bc
000001a0: 7ee8 1f3d 5a06 57bd 0fbd 7bbd 49f0 6d3d
000001b0: d6d8 f43d 4f8b d6bd fc95 b8bd 55eb 42bd
000001c0: a973 91bc 03c3 6c3d 818c 3f3c b742 8e3d
000001d0: d6d1 4cbd 5b45 bbbd bc22 96bd 0202 be3b
000001e0: ad34 c0bc 85f8 a83c 6a9c 883d 8136 963d
000001f0: 3648 a0ba b9a5 ed3c 647e a33d 9bed 963c
00000200: 9911 a5bd a044 64bd 8b56 82bd d9cb 683d
00000210: da37 07bd 830e 09bd 5b0e 323a f39c ecba
00000220: 5302 84bc b061 433d 779a 143c e635 163d
00000230: f2a1 863c e470 61bd cdcd 95bc f3ee d3bb
00000240: 882e 68bc fe36 8e3d a05c f13d 4d70 1e3d
00000250: 6310 87bd 4622 1dbc 3f4d 953d 8214 5d3c
00000260: a890 32bd a76b e13b ec18 d33c 91fb 6dbd
00000270: 4c8f d4bd bcf0 173d 6b2e 4fbd 65f1 c7bc
00000280: 4df7 3d3c 640a 68bd f204 8b3d 7789 233d
00000290: 8162 df3d 41d6 393c 4b93 db3b ce80 3dbd
000002a0: ef53 b23d 7ff1 b63c bd85 eabc ab21 223d
000002b0: 4e79 613d 536a 8bbd 8a44 c73d 2f9b 8a3c
000002c0: d8ff 3dbd d64f 693d 9cd9 753c d499 b0bc
000002d0: b4cc cd3c a7ed 833d 17e3 aa3d 0ac5 113e
000002e0: 8661 8b3d a123 df3c e05b 08bd 47f7 39bc
000002f0: df7b d03c c3c0 353c 3143 99bc 2fa4 78bc
00000300: fe5d 22bd bcdd 59bd 907e 5cbc 193d c03c
00000310: b29e 833d d91c 37bd ac53 243e 3236 88bd
00000320: 87e0 cbbc a631 aabd 21ec ba3d ec13 d33d
00000330: 30f2 dcbc f07f 22bd 246b 1c3e 5fac 04be
00000340: e2d8 0c3d 2e61 babd 7706 703d ecf2 81bd
00000350: 5a9d 2fbd 7afa 843d 5705 c33d c6d7 dfbc
00000360: 83c6 3f3d 6575 963d d63c 003c 2588 b13d
00000370: e843 523d 17de d13c b9fb 67bb 3652 fb3d
00000380: 6700 48bc 58cb a93d 3fa4 a9bd 7e23 033b
00000390: 033a 973d cb3e 08bd f9cd c33d 3444 2dbd
000003a0: 187b 823c 6f7a 953a 606e a2bd 9e46 e53c
000003b0: 97ad 59bb 8ac9 9ebd 71a5 4bbd e488 2fbd
000003c0: 86fb e63d a086 623d 5236 96bd 96b3 0dbd
000003d0: 4cad 51bc fbba 86bd cdf2 d2bd 1ba5 f13d
000003e0: 8969 893d e68e 5b3c 449d 793c 9bdc d83c
000003f0: 0016 31bc 44da 5ebd 1c92 4d3d 82bb c6bb

fc1.bias f4 [120]
-0.07986527 -0.08107902 2.5470172e-05 -0.33749896 -4.7724e-41 -0.05635059 4.1467807e-10 -3.5629372e-13
3.3938284e-07 -0.12249418 0.022599578 -0.14172193 0.007892567 -3.19216e-05 0.20596728 -0.043076936
1.8672835e-12 1.6673094e-12 9.36366e-22 -0.044620916 -0.11597966 -0.04426904 -0.1365614 -0.051966313
0.00852503 -3.6467613e-05 -0.13078603 0.03800279 7.2393285e-16 0.0011329199 -0.031775743 1.9898339e-09
-0.046622045 -0.14562464 -0.13208155 -0.02602909 -0.0016796675 6.383508e-08 0.021332087 0.0051742853
-0.18445118 0.01666512 -0.24789922 1.3236573e-06 -0.6643029 3.5102574e-09 -1.5828784e-11 -4.3842734e-14
-5.8263e-41 -0.5317259 -0.040543146 -3.791243e-15 -5.16064e-07 -0.09608604 -4.2202714e-07 -0.11957733
0.007802691 1.0976159e-10 -7.659732e-17 -1.5368223e-06 0.014124075 4.5404153e-08 1.08020384e-10 3.085468e-13
5.8752e-41 1.7760946e-07 -0.09390475 -1.3467795e-17 -0.063064635 1.1431646e-11 -0.0070994347 4.8256847e-13
-4.5496172e-14 -0.00562976 -1.3594829e-08 -0.17325917 8.5683235e-13 -0.0014358239 -5.458593e-35 -0.06805324
-6.0628464e-12 0.05321226 1.7949217e-12 -0.094437666 2.2482023e-11 3.16939e-40 4.1485664e-06 -0.016166361
0.05154367 2.620188e-05 7.027611e-10 1.8551067e-26 -0.0343933 0.008059083 -0.0008684707 2.4820356e-06
-0.07610914 -0.18501708 -0.055171143 -2.5469616e-12 1.8967137e-05 -0.0007219446 -0.000118283664 1.7090456e-21
-2.5499982e-09 7.436274e-06 0.003699152 -0.1344211 3.862311e-36 -6.155272e-13 2.7421008e-14 -0.10000548
-1.1862413e-12 0.016169352 -0.18170097 -0.0602471 -1.3595253e-36 -1.09994e-40 -6.4425874e-11 -0.17050911
00000000: 6790 a3bd c20c a6bd c7a8 d537 aacc acbe
00000010: 0985 0080 e0cf 66bd c0f8 e32f 5693 c8aa
00000020: 6c34 b634 3bde fabd c022 b93c 8e1f 11be
00000030: d34f 013c 8fe3 05b8 16e9 523e 7171 30bd
00000040: fd65 032c 27a7 ea2b e87f 8d1c 6cc4 36bd
00000050: be86 edbd 7453 35bd c0d6 0bbe a1da 54bd
00000060: 91ac 0b3c cdf4 18b8 c6ec 05be d0a8 1b3d
00000070: d1a8 5026 7c7e 943a 4827 02bd 87bd 0831
00000080: c2f6 3ebd a01e 15be 6340 07be f53a d5bc
00000090: 4a28 dcba b515 8933 a1c0 ae3c 0d8d a93b
000000a0: c5e0 3cbe 4a85 883c 4bd9 7dbe 85a8 b135
000000b0: c10f 2abf 1a39 7131 413b 8bad 3b73 45a9
000000c0: 6aa2 0080 301f 08bf 9210 26bd 0b98 88a7
000000d0: a687 0ab5 c2c8 c4bd f892 e2b4 f6e4 f4bd
000000e0: b7ad ff3b 485e f12e 149f b0a4 d044 ceb5
000000f0: aa68 673c 6502 4333 128a ed2e 48b2 ad2a
00000100: c7a3 0000 ebb4 3e34 2251 c0bd dd6f 78a3
00000110: 0828 81bd 8f1b 492d 60a2 e8bb b9d4 072b
00000120: 84e5 4ca9 da79 b8bb b18e 69b2 da6a 31be
00000130: 472d 712b 4132 bcba 421d 9186 7f5f 8bbd
00000140: 4451 d5ac 19f5 593d df9c fc2b 8968 c1bd
00000150: 04c1 c52d 7f73 0300 ea33 8b36 516f 84bc
00000160: 751f 533d 1ccc db37 6b2c 4130 8bb8 b714
00000170: fddf 0cbd 3e0a 043c 15aa 63ba 0c91 2636
00000180: 1cdf 9bbd 1e75 3dbe 23fb 61bd fb39 33ac
00000190: 9e1b 9f37 e240 3dba 0f0f f8b8 c021 011d
000001a0: 0b3c 2fb1 1b85 f936 796d 723b afa5 09be
000001b0: d848 a404 6941 2dab 8afc f628 accf ccbd
000001c0: d9f2 a6ab 9775 843c d20f 3abe aac5 76bd
000001d0: ae4f e783 9e32 0180 8bac 8dae f199 2ebe

fc2.weight f4 [84, 120]
0.27892464 0.08168688 -0.06390796 0.06027608 0.12357413 0.0088959215 -0.24816436 -0.08003623
-0.07697813 -0.06858555 0.12682673 -0.016075227 -0.11150076 0.10814687 -0.08848151 -0.16728288
-0.12703367 -0.029965455 0.0055315634 0.19730166 -0.12117325 0.14495865 -0.049080305 0.035811424
-0.06343906 -0.0632624 -0.012281075 -0.056562714 -0.08235636 0.105276614 0.016416963 -0.029033262
-0.042352602 0.039466772 -0.11427 0.29147175 0.1894709 -0.044612944 -0.10185363 0.100994706
0.004839963 0.10540774 0.066986695 0.0012810354 -0.13886641 -0.10194803 0.14644235 -0.005752784
-0.085071996 -0.055441763 0.03108307 -0.030185448 0.03228624 -0.015905876 -0.0778223 -0.0861396
0.03819625 0.120091856 -0.14844552 0.10906358 0.13051896 -0.04681651 -0.2277603 -0.08601348
-0.04587304 0.016334772 -0.15918823 -0.0061771446 0.010592499 0.117506966 -0.104397446 -0.15894438
0.08765654 0.09290926 -0.03287424 -0.078154266 0.14357392 -0.013964659 -0.010112021 0.076282986
0.07831511 -0.05001179 -0.0426096 -0.07821935 0.050034955 0.035602562 -0.099894136 -0.08401933
0.07571098 -0.14109959 -0.04276918 0.16564938 0.0024632842 0.2602189 0.00054664 0.062716775
0.011262732 -0.06453961 -0.015990436 0.112225406 0.14980209 -0.00065046444 -0.025590653 -0.012099407
-0.17726797 0.013685604 -0.037145987 -0.036581345 0.037870526 0.018334638 0.056067992 0.058012385
0.013410289 -0.09906294 -0.09377192 0.015002256 0.093127675 0.14478788 -0.02698374 -0.12779604
0.017205482 -0.05592433 -0.029443298 -0.103763245 -0.09248119 -0.031691708 -0.031368382 -0.17034
-0.014748036 -0.016499335 -0.010377689 0.07257442 0.048734043 0.06792022 -0.09670962 -0.099103585
0.13273358 0.10837909 -0.015061111 -0.14446422 -0.14599434 0.08785974 0.073470466 -0.004223837
-0.19459018 0.085757375 -0.022596095 0.004203915 0.09391464 0.024197835 -0.057382684 0.037590906
-0.14936347 0.00031645692 -0.087336585 -0.15809198 -0.01689928 -0.04307727 0.0052104844 0.07336715
-0.024267275 -0.07150965 0.024022797 0.10773178 -0.05538584 0.09356752 -0.18793887 -0.09639982
0.19835016 -0.053125832 -0.024909077 -0.08367785 -0.12112196 0.009762393 0.09519268 -0.018981393
0.061115395 0.21230558 0.087333165 0.11284381 -0.022948701 -0.08980817 -0.07461048 -0.049219385
0.049954455 0.04631 -0.07862905 -0.014246697 -0.15801594 0.1765332 -0.02279411 -0.08857381
-0.03850114 -0.17214903 -0.008520699 0.06351723 -0.055125814 0.051995553 -0.21810383 -0.019237794
0.04549077 0.03807702 0.077910736 -0.00047745765 -0.071116835 -0.15809236 -0.066982664 -0.07539909
0.038270265 0.037306506 -0.0023121936 -0.071532264 -0.09932033 -0.071549736 -0.005008437 -0.082085386
0.23148406 0.029205903 0.031327117 0.103483915 0.092667945 0.07272991 0.0043482385 -0.15761882
-0.025224334 -0.014262284 -0.0062560323 -0.042785276 0.07320986 -0.09237055 0.018467063 -0.003028267
-0.01285974 0.0030957207 0.014935856 -0.050227985 -0.12622456 0.15681393 0.16100988 0.0057934793
0.07199545 0.028092198 0.16530888 -0.039220642 -0.14937909 0.034905158 -0.120661825 -0.08788793
0.019812183 0.24244703 0.27428454 -0.037547052 -0.030022379 -0.13013206 0.14753847 0.19396098
00000000: 36cf 8e3e 734b a73d 2de2 82bd 0de4 763d
00000010: 6f14 fd3d 33c0 113c cc1e 7ebe 09ea a3bd
00000020: b6a6 9dbd 9576 8cbd dede 013e 32b0 83bc
00000030: 835a e4bd 1b7c dd3d cb35 b5bd 344c 2bbe
00000040: 1d15 02be 1d7a f5bc 1e42 b53b 7209 4a3e
00000050: ae29 f8bd 0a70 143e 6e08 49bd 00af 123d
00000060: 56ec 81bd b88f 81bd 9036 49bc 4eae 67bd
00000070: 74aa a8bd 449b d73d de7c 863c 2ad7 edbc
00000080: ec79 2dbd e9a7 213d 6406 eabd c93b 953e
00000090: a904 423e 10bc 36bd a398 d0bd 50d6 ce3d
000000a0: 8d98 9e3b 03e0 d73d 5230 893d 6ae8 a73a
000000b0: ff32 0ebe 21ca d0bd fcf4 153e da81 bcbb
000000c0: 3a3a aebd e716 63bd eca1 fe3c 7947 f7bc
000000d0: 943e 043d 0a4d 82bc 4c61 9fbd f569 b0bd
000000e0: ac73 1c3d b8f2 f53d 1a02 18be ba5c df3d
000000f0: c3a6 053e abc2 3fbd ff39 69be d627 b0bd
00000100: 5ee5 3bbd 80d0 853c 3d02 23be a569 cabb
00000110: 298c 2d3c 7ea7 f03d 54ce d5bd 51c2 22be
00000120: 4685 b33d 3647 be3d 24a7 06bd 580f a0bd
00000130: 0b05 133e 06cc 64bc e4ac 25bc 413a 9c3d
00000140: ac63 a03d 2ad9 4cbd 6787 2ebd 7731 a0bd
00000150: 74f1 4c3d fed3 113d 4c95 ccbd 5412 acbd
00000160: 5c0e 9b3d 697c 10be bc2e 2fbd fe9f 293e
00000170: 0d6f 213b 693b 853e 644c 0f3a a771 803d
00000180: 5287 383c 582d 84bd 60fe 82bc 6fd6 e53d
00000190: b865 193e ee83 2aba 7da3 d1bc 973c 46bc
000001a0: bc85 35be 9539 603c 6426 18bd 52d6 15bd
000001b0: 201e 1b3d 8632 963c 8da7 653d 659e 6d3d
000001c0: d4b6 5b3c 83e1 cabd 7e0b c0bd 06cc 753c
000001d0: b9b9 be3d 4643 143e 010d ddbc f7dc 02be
000001e0: 83f2 8c3c e910 65bd 1233 f1bc d381 d4bd
000001f0: c766 bdbd 2acf 01bd 227c 00bd 9c6d 2ebe
00000200: bfa1 71bc 9d29 87bc 2f07 2abc e6a1 943d
00000210: 599d 473d c219 8b3d b10f c6bd d2f6 cabd
00000220: 50eb 073e dbf5 dd3d e1c2 76bc 6eee 13be
00000230: 8a7f 15be cfef b33d af77 963d 1d68 8abb
00000240: a642 47be 90a1 af3d 721b b9bc ffc0 893b
00000250: 5256 c03d 8a3a c63c 1b0a 6bbd ecf8 193d
00000260: bdf2 18be 21ea a539 86dd b2bd dde2 21be
00000270: 5c70 8abc cb71 30bd b6bc aa3b 8441 963d
00000280: 2acc c6bc a773 92bd 75cb c43c 7ba2 dc3d
00000290: 43dc 62bd 54a0 bf3d 0c73 40be 456d c5bd
000002a0: 4e1c 4b3e 799a 59bd 1f0e ccbc 4b5f abbd
000002b0: ca0e f8bd 72f2 1f3c 61f4 c23d de7e 9bbc
000002c0: 2354 7a3d a266 593e bbdb b23d a81a e73d
000002d0: eafe bbbc 59ed b7bd 61cd 98bd 449a 49bd
000002e0: 0b9d 4c3d 8eaf 3d3d 4408 a1bd fa6a 69bc
000002f0: eece 21be 1fc5 343e b7ba babc 3066 b5bd
00000300: 5fb3 1dbd d647 30be 679a 0bbc 5215 823d
00000310: 9bcb 61bd 4af9 543d 9c56 5fbe 9498 9dbc
00000320: 8854 3a3d a6f6 1b3d aa8f 9f3d 4853 fab9
00000330: b4a5 91bd f7e2 21be 352e 89bd d76a 9abd
00000340: 48c1 1c3d b5ce 183d 2c88 17bb 827f 92bd
00000350: 7568 cbbd ab88 92bd d11d a4bb 621c a8bd
00000360: 280a 6d3e 3841 ef3c dd50 003d 60ef d33d
00000370: b1c8 bd3d 6bf3 943d ab7b 8e3b d466 21be
00000380: 43a3 cebc 5bac 69bc 67ff ccbb 9d3f 2fbd
00000390: 0def 953d c52c bdbd 3d48 973c e475 46bb
000003a0: a9b1 52bc 93e1 4a3b 85b5 743c dcbb 4dbd
000003b0: 0341 01be d593 203e c6df 243e 3ad7 bd3b
000003c0: 5a72 933d 9c21 e63c bb46 293e d3a5 20bd
000003d0: d5f6 18be b6f8 0e3d 8c1d f7bd 96fe b3bd
000003e0: 294d a23c 0944 783e 066f 8c3e f0ca 19bd
000003f0: 7ef1 f5bc 5741 05be 5314 173e b59d 463e

fc2.bias f4 [84]
0.23405935 8.8080355e-08 1.8146896e-09 0.12224579 0.41712692 0.13448355 -0.05644272 -0.11713031
-8.123809e-14 3.2427218e-07 -4.425651e-11 -2.9538097e-07 0.08148333 7.837247e-12 0.0359295 -6.219782e-11
-0.19292633 0.056292836 -6.084112e-12 2.45081e-40 0.07552004 -0.12746121 -0.1123713 -0.079699345
-3.0245406e-05 -8.1160523e-13 -9.703365e-13 1.3584984e-05 3.7540897e-08 -2.5554e-41 -2.790467e-10 -0.011682577
0.05336721 1.436362e-10 3.3976e-41 0.48662168 2.3395976e-05 0.022906873 -0.0006112684 0.104035795
-0.04848209 -5.9927e-41 -2.1317318e-11 0.10680206 -0.27925628 -1.0039568e-09 0.20154828 0.026915941
2.8696407e-12 3.1011266e-11 -2.0486195e-05 1.2333e-41 4.7714502e-11 0.043593135 8.7403e-41 -1.8347504e-07
-0.0015698145 -0.09889144 0.32368878 -1.970674e-08 0.01790413 0.06433593 -0.3611363 -0.101217285
-0.20294492 -0.11031662 -0.1329213 -0.05729518 -3.6956356e-14 -9.5157e-41 0.100188285 7.481523e-05
9.0803656e-11 1.1812474e-12 -2.0109771e-06 6.689242e-13 -8.061379e-09 -0.1735126 -0.007775633 2.5521558e-05
-0.02500412 1.9162895e-13 -0.020070132 -1.4877678e-13
00000000: 41ad 6f3e b026 bd33 b768 f930 005c fa3d
00000010: a991 d53e 0eb6 093e 7b30 67bd 04e2 efbd
00000020: 92ee b6a9 a117 ae34 67a4 42ae da94 9eb4
00000030: bbe0 a63d d3df 092d d02a 133d 43c6 88ae
00000040: 7b8e 45be 5193 663d cf10 d6ac 30ab 0200
00000050: 40aa 9a3d 3185 02be ed22 e6bd 6939 a3bd
00000060: 84b7 fdb7 5272 64ab 0f90 88ab 10eb 6337
00000070: a73c 2133 3c47 0080 5568 99af 4868 3fbc
00000080: 9397 5a3d ffed 1d2f b65e 0000 7a26 f93e
00000090: 7a42 c437 32a7 bb3c 873d 20ba b810 d53d
000000a0: 2895 46bd 0da7 0080 5582 bbad 0abb da3d
000000b0: aefa 8ebe 97fb 89b0 ac62 4e3e d27e dc3c
000000c0: daee 492c 9563 082e c5d9 abb7 6122 0000
000000d0: c1d9 512e b78e 323d a5f3 0000 3c01 45b4
000000e0: 3cc2 cdba 9887 cabd 89ba a53e 9447 a9b2
000000f0: afab 923c 8ec2 833d dbe6 b8be 024b cfbd
00000100: cbd0 4fbe aeed e1bd 851c 08be 5aae 6abd
00000110: c76f 26a9 4209 0180 842f cd3d 1fe6 9c38
00000120: eaad c72e ec3e a62b 53f4 06b6 1249 3c2b
00000130: 527e 0ab2 49ad 31be bdca febb 2117 d637
00000140: 71d5 ccbc 49c1 572a 1e6a a4bc fd81 27aa

fc3.weight f4 [10, 84]
-0.089808546 0.096629426 0.1692646 0.09726632 0.15531208 0.012879762 -0.031231256 0.44996884
0.08420161 -0.12222135 -0.038820397 -0.03911524 -0.023914399 -0.10869484 -0.12281244 0.061420918
-0.024258118 0.08886274 -0.0936236 -0.05893283 0.01926925 0.032737944 0.084868886 -0.01434594
0.10356747 0.20361553 0.08082918 0.16064075 0.13919722 -0.06832635 0.0472381 0.20714328
0.10620512 -0.21159634 -0.0025380773 -0.056317978 -0.21544191 -0.07466901 0.1539668 0.18268056
-0.05387142 -0.089075044 0.13863327 -0.015968204 -0.19347376 -0.11488952 -0.024290137 0.30561677
0.0005037623 -0.11357255 -0.03646089 -0.020415176 0.11400082 -0.2893597 0.105066046 -0.059074078
0.047274906 0.20166408 -0.061669268 -0.043067206 0.043593753 -0.29532185 0.29125637 0.017351605
-0.1598745 -0.105691046 0.1654958 -0.048076328 0.29426697 -0.17714119 -0.1017324 -0.29414365
-0.00948095 -0.109886564 0.11073765 0.27643427 0.049524736 0.109464094 0.15233928 -0.12194097
-0.14839192 -0.1440681 -0.068500735 -0.15721044 0.030498551 0.0843485 0.028928658 0.18230952
-0.056980155 -0.16727667 0.08098412 0.031128513 0.03882776 -0.009620615 0.18553571 0.040365476
0.14889339 -0.036642898 -0.14746006 -0.043234095 -0.00805068 0.19748087 0.19493686 -0.1357657
-0.06496657 0.0934809 -0.09344296 0.26837343 -0.088812806 -0.18573141 0.14278165 0.009453683
-0.06083187 0.06624064 0.19563287 -0.11847498 -0.03504422 -0.006781116 0.021693181 0.14825138
0.16461657 -0.17692842 -0.15108997 0.2230119 -0.04703015 0.22275561 -0.10623494 -0.08577672
0.18096736 -0.2143087 -0.07254432 -0.11281648 0.08309651 0.10616607 0.08303526 0.1445416
0.0706378 0.14711478 0.25494203 0.14032103 -0.11788754 -0.016385052 0.27704182 -0.01977232
-0.19231151 0.11047974 -0.09331148 0.10990866 -0.06918964 -0.2900953 -0.2296255 0.14367557
0.2132749 -0.18478352 -0.19598451 -0.17913681 -0.18947628 -0.06487937 0.05589378 -0.19828048
0.025239214 0.009845906 0.19808921 0.11288591 0.26244986 0.05406833 0.0038258394 -0.109755345
0.29614565 -0.056042287 -0.0853959 0.14953345 0.27867016 -0.11907938 -0.040276565 -0.05793785
0.09534776 -0.13893989 -0.037994858 0.034429517 0.10524678 -0.36432987 -0.092585586 0.21029398
0.029062046 -0.019307276 -0.05038283 0.0051413453 -0.16549808 -0.040545158 -0.06620589 0.042916004
0.23857431 0.12248258 -0.09593527 0.12894134 -0.059688285 0.0059876014 -0.3122569 -0.027427804
0.06622718 -0.09905241 0.20768681 0.37855822 0.11376551 0.15319188 -0.113188684 -0.062182937
-0.015797257 -0.0020164861 0.15901874 0.09280588 0.060725708 -0.27796024 0.13427469 0.13411534
-0.03555808 -0.21234842 -0.022967422 -0.10152631 -0.038307063 0.16831324 0.15333128 0.045138944
-0.09070592 -0.09320747 -0.014823951 -0.020343333 -0.0020645875 -0.07438575 0.16659991 -0.13608982
-0.06026994 -0.3019128 0.070585094 0.0026502064 -0.095613666 0.057877094 -0.1066322 0.06387485
0.037701335 -0.09731452 -0.16764195 -0.08918772 0.057689123 0.05879408 0.21241058 -0.050035935
0.039601326 -0.04293752 -0.09154661 0.093528226 0.034093544 0.032021742 -0.0806883 -0.2361592
00000000: 8bed b7bd a6e5 c53d b353 2d3e 9033 c73d
00000010: 210a 1f3e a305 533c b1d8 ffbc 5162 e63e
00000020: e571 ac3d 304f fabd 2302 1fbd 4d37 20bd
00000030: 21e8 c3bc 669b debd 1785 fbbd 8094 7b3d
00000040: f6b8 c6bc abfd b53d bbbd bfbd 8d63 71bd
00000050: 8cda 9d3c 3918 063d bdcf ad3d 3c0b 6bbc
00000060: 2f1b d43d 9780 503e c589 a53d 027f 243e
00000070: b789 0e3e afee 8bbd bd7c 413d 5e1d 543e
00000080: 1282 d93d b6ac 58be df55 26bb aead 66bd
00000090: ce9c 5cbe 11ec 98bd 79a9 1d3e 9d10 3b3e
000000a0: 47a8 5cbd fa6c b6bd e1f5 0d3e c0cf 82bc
000000b0: fc1d 46be 324b ebbd 1cfc c6bc cd79 9c3e
000000c0: ea0e 043a ba98 e8bd 0458 15bd ba3d a7bc
000000d0: 4379 e93d f426 94be de2c d73d a9f7 71bd
000000e0: 55a3 413d 0781 4e3e ea98 7cbd 3d67 30bd
000000f0: 5d8f 323d 6d34 97be 8e1f 953e f424 8e3c
00000100: 24b6 23be 8c74 d8bd bb77 293e afeb 44bd
00000110: 29aa 963e 8064 35be 1459 d0bd ff99 96be
00000120: fd55 1bbc 350c e1bd 6cca e23d cb88 8d3e
00000130: 73da 4a3d b62e e03d d4fe 1b3e 30bc f9bd
00000140: 0df4 17be 9786 13be 1d4a 8cbd c6fb 20be
00000150: 19d8 f93c e8be ac3d cbfb ec3c 59af 3a3e
00000160: 0664 69bd 934a 2bbe 01db a53d 3901 ff3c
00000170: db09 1f3d c99f 1dbc 13fd 3d3e 4556 253d
00000180: 8277 183e dd16 16bd c5ff 16be 3c16 31bd
00000190: 00e7 03bc 6d38 4a3e 879d 473e 2a06 0bbe
000001a0: 310d 85bd ea72 bf3d 065f bfbd 3e68 893e
000001b0: 7de3 b5bd 6030 3ebe 5a35 123e 9fe3 1a3c
000001c0: d72a 79bd 2ca9 873d fc53 483e 03a3 f2bd
000001d0: 878a 0fbd 2034 debb e6b5 b13c 36cf 173e
000001e0: 3f91 283e b92c 35be 54b7 1abe 3b5d 643e
000001f0: b0a2 40bd 0c1a 643e b491 d9bd b4ab afbd
00000200: 824f 393e bd73 5bbe 1e92 94bd 540c e7bd
00000210: 812e aa3d 996d d93d 640e aa3d b702 143e
00000220: 8daa 903d 42a5 163e c387 823e 51b0 0f3e
00000230: 066f f1bd f239 86bc 6dd8 8d3e 8ff9 a1bc
00000240: 4fed 44be 3443 e23d 171a bfbd cb17 e13d
00000250: 4cb3 8dbd 5f87 94be f222 6bbe b01f 133e
00000260: bc64 5a3e e437 3dbe 2ab0 48be a46f 37be
00000270: 1206 42be 7adf 84bd e0f0 643d 0a0a 4bbe
00000280: 78c2 ce3c b950 213c e6d7 4a3e ba30 e73d
00000290: d45f 863e c176 5d3d efba 7a3b 69c7 e0bd
000002a0: 67a0 973e 998c 65bd 0ce4 aebd 4c1f 193e
000002b0: dbad 8e3e e4df f3bd 0af9 24bd 3d50 6dbd
000002c0: b045 c33d 4246 0ebe 7fa0 1bbd f705 0d3d
000002d0: a08b d73d 7289 babe 839d bdbd 4e57 573e
000002e0: 8713 ee3c 4b2a 9ebc 3a5e 4ebd bb78 a83b
000002f0: 5478 29be ae12 26bd f496 87bd b1c8 2f3d
00000300: d34c 743e 26d8 fa3d b679 c4bd 3309 043e
00000310: b47b 74bd a433 c43b 23e0 9fbe 46b0 e0bc
00000320: 1ea2 873d fddb cabd daab 543e 62d2 c13e
00000330: e4fd e83d 55de 1c3e 78cf e7bd 89b3 7ebd
00000340: 4069 81bc 0627 04bb cfd5 223e 0211 be3d
00000350: 85bb 783d ce50 8ebe 4e7f 093e 8855 093e
00000360: 59a5 11bd dd71 59be 2d26 bcbc 07ed cfbd
00000370: dee7 1cbd 4e5a 2c3e e002 1d3e 9de3 383d
00000380: 06c4 b9bd 8fe3 bebd 28e0 72bc 10a7 a6bc
00000390: 084e 07bb 8e57 98bd 2b99 2a3e 215b 0bbe
000003a0: 9ddd 76bd 5194 9abe eb8e 903d 16af 2d3b
000003b0: 19d1 c3bd 8810 6d3d fc61 dabd d1d0 823d
000003c0: b76c 1a3d d64c c7bd 55aa 2bbe 0da8 b6bd
000003d0: 6e4b 6c3d 10d2 703d 2982 593e 7bf2 4cbd
000003e0: 0035 223d 41df 2fbd ca7c bbbd ba8b bf3d
000003f0: aca5 0b3d 3b29 033d e83f a5bd b8d3 71be

fc3.bias f4 [10]
-0.33344933 0.3763292 -0.6192517 0.21766093 -0.38604358 -0.41295958 -0.29084155 -0.3809253
-0.7057502 0.028324544
00000000: dfb9 aabe 39ae c03e 4887 1ebf 82e2 5e3e
00000010: 81a7 c5be 706f d3be 2fe9 94be a408 c3be
00000020: 0cac 34bf e008 e83c

conv1.weight f4 [6, 3, 5, 5]
0.0 -0.0 0.0 -0.0 0.0 0.0 -0.0 -0.0
-0.0 -0.0 0.0 0.0 0.0 -0.0 0.0 0.0
-0.0 0.0 -0.0 0.0 0.0 -0.0 -0.0 0.0
0.0 -0.0 -0.0 0.0 0.0 -0.0 -0.0 0.0
-0.0 -0.0 -0.0 0.0 -0.0 -0.0 0.0 -0.0
0.0 0.0 -0.0 0.0 -0.0 -0.0 0.0 -0.0
0.0 0.0 0.013960533 0.0244911 -0.001045483 -0.0 0.11853466 0.42304587
-0.0 0.560439 0.54472184 -0.0 0.51542425 0.5200839 0.55317736 -0.0
0.5884503 0.0 0.0 0.0 -0.0 -0.0 -0.0 -0.0
-0.0 -0.0 0.0 -0.006587324 -0.0009016423 0.0 -0.0 -0.0
-5.949e-41 0.0 0.0 -0.0 0.0 -0.0 0.0 -9.550947e-26
1.707e-41 -0.0 -0.0 0.0 7.829e-42 -0.0 0.0 -0.0
-1.101e-42 -1.0602e-41 -4.7861e-41 0.0 -0.0 0.0 0.5725839 -0.0
0.0 0.0 -0.0 -0.0 -0.0 -0.0 -0.0 -0.0
-0.0 0.0 0.0 -0.0 -0.0 0.43161538 0.087559566 0.0
-0.0 -0.0 0.7256516 -0.0 0.0 0.0 0.0 0.0
-0.0 -0.0 0.0 0.0 -0.00046169796 -0.0 0.0 -0.0
0.0 -0.0 -0.0 0.0 0.0 -0.0 -0.0 -0.0
-0.0 0.0 -0.0 0.0 0.0 -0.0 0.0 -0.0
-0.0 0.0 0.0 -4.53e-43 -9.288e-42 -0.0 0.0 -0.0
-0.0 -0.0 -0.0 0.0 0.0 0.0 0.0 -0.0
0.0 -0.0 -0.0 0.0 0.0 0.0 -0.0 -0.0
0.0 0.0 0.0 0.0 0.0 0.0 0.0 0.0
-0.0 0.0 -0.0 0.0 -0.0 0.0 -0.0 0.0
-0.0 -0.0 0.0 0.0 0.0 0.0 0.0 0.0
-0.0 -0.0 -0.0 0.0 -0.0 0.0 -0.0 0.0
-0.0 0.0 0.0 0.0 -0.0 -0.0 0.0 0.0
-0.0 -0.0 -0.0 -0.0 -0.0 -0.0 0.0 -0.0
-0.0 0.0 -0.0 0.0 0.0 -0.0 -0.0 0.0
0.0 0.0 0.0 -0.0 -0.0 0.0 0.0 0.0
0.0 0.0 -0.0 -0.0 -0.0 -0.0 0.0 -0.0
0.0 -0.0 0.0 0.0 0.0 0.0 -0.0 0.0
00000000: 0000 0000 0000 0080 0000 0000 0000 0080
00000010: 0000 0000 0000 0000 0000 0080 0000 0080
00000020: 0000 0080 0000 0080 0000 0000 0000 0000
00000030: 0000 0000 0000 0080 0000 0000 0000 0000
00000040: 0000 0080 0000 0000 0000 0080 0000 0000
00000050: 0000 0000 0000 0080 0000 0080 0000 0000
00000060: 0000 0000 0000 0080 0000 0080 0000 0000
00000070: 0000 0000 0000 0080 0000 0080 0000 0000
00000080: 0000 0080 0000 0080 0000 0080 0000 0000
00000090: 0000 0080 0000 0080 0000 0000 0000 0080
000000a0: 0000 0000 0000 0000 0000 0080 0000 0000
000000b0: 0000 0080 0000 0080 0000 0000 0000 0080
000000c0: 0000 0000 0000 0000 b8ba 643c 8fa1 c83c
000000d0: 9708 89ba 0000 0080 4dc2 f23d 7899 d83e
000000e0: 0000 0080 ee78 0f3f e472 0b3f 0000 0080
000000f0: d8f2 033f 3824 053f 089d 0d3f 0000 0080
00000100: aea4 163f 0000 0000 0000 0000 0000 0000
00000110: 0000 0080 0000 0080 0000 0080 0000 0080
00000120: 0000 0080 0000 0080 0000 0000 7bda d7bb
00000130: 315c 6cba 0000 0000 0000 0080 0000 0080
00000140: d5a5 0080 0000 0000 0000 0000 0000 0080
00000150: 0000 0000 0000 0080 0000 0000 5278 ec95
00000160: 962f 0000 0000 0080 0000 0080 0000 0000
00000170: d315 0000 0000 0080 0000 0000 0000 0080
00000180: 1203 0080 8e1d 0080 6b85 0080 0000 0000
00000190: 0000 0080 0000 0000 dc94 123f 0000 0080
000001a0: 0000 0000 0000 0000 0000 0080 0000 0080
000001b0: 0000 0080 0000 0080 0000 0080 0000 0080
000001c0: 0000 0080 0000 0000 0000 0000 0000 0080
000001d0: 0000 0080 b1fc dc3e 6e52 b33d 0000 0000
000001e0: 0000 0080 0000 0080 4ec4 393f 0000 0080
000001f0: 0000 0000 0000 0000 0000 0000 0000 0000
00000200: 0000 0080 0000 0080 0000 0000 0000 0000
00000210: 0d10 f2b9 0000 0080 0000 0000 0000 0080
00000220: 0000 0000 0000 0080 0000 0080 0000 0000
00000230: 0000 0000 0000 0080 0000 0080 0000 0080
00000240: 0000 0080 0000 0000 0000 0080 0000 0000
00000250: 0000 0000 0000 0080 0000 0000 0000 0080
00000260: 0000 0080 0000 0000 0000 0000 4301 0080
00000270: e419 0080 0000 0080 0000 0000 0000 0080
00000280: 0000 0080 0000 0080 0000 0080 0000 0000
00000290: 0000 0000 0000 0000 0000 0000 0000 0080
000002a0: 0000 0000 0000 0080 0000 0080 0000 0000
000002b0: 0000 0000 0000 0000 0000 0080 0000 0080
000002c0: 0000 0000 0000 0000 0000 0000 0000 0000
000002d0: 0000 0000 0000 0000 0000 0000 0000 0000
000002e0: 0000 0080 0000 0000 0000 0080 0000 0000
000002f0: 0000 0080 0000 0000 0000 0080 0000 0000
00000300: 0000 0080 0000 0080 0000 0000 0000 0000
00000310: 0000 0000 0000 0000 0000 0000 0000 0000
00000320: 0000 0080 0000 0080 0000 0080 0000 0000
00000330: 0000 0080 0000 0000 0000 0080 0000 0000
00000340: 0000 0080 0000 0000 0000 0000 0000 0000
00000350: 0000 0080 0000 0080 0000 0000 0000 0000
00000360: 0000 0080 0000 0080 0000 0080 0000 0080
00000370: 0000 0080 0000 0080 0000 0000 0000 0080
00000380: 0000 0080 0000 0000 0000 0080 0000 0000
00000390: 0000 0000 0000 0080 0000 0080 0000 0000
000003a0: 0000 0000 0000 0000 0000 0000 0000 0080
000003b0: 0000 0080 0000 0000 0000 0000 0000 0000
000003c0: 0000 0000 0000 0000 0000 0080 0000 0080
000003d0: 0000 0080 0000 0080 0000 0000 0000 0080
000003e0: 0000 0000 0000 0080 0000 0000 0000 0000
000003f0: 0000 0000 0000 0000 0000 0080 0000 0000

conv1.bias f4 [6]
-0.5014991 -0.14606434 -9.1351474e-05 -1.8260478e-16 -0.52433 -1.5547819e-07
00000000: 3f62 00bf e491 15be f393 bfb8 6b87 52a5
00000010: 7e3a 06bf 85f1 26b4

conv2.weight f4 [16, 6, 5, 5]
-0.0 6.901e-42 0.0 -0.0 -6.055e-42 0.0 -0.0 -0.0
-0.0 -7.5414e-41 0.0 -0.0 -0.0 -0.0 0.0 0.0
0.0 -0.0 0.0 -0.0 -1.5538203e-28 -0.0 -0.00018267022 1.513608e-39
-0.0 -0.0 -0.0 0.0 -0.0 0.0 -0.0 0.0
-0.0 0.0 -0.0 0.0 -0.0 -0.0 0.0 0.0
0.0 0.0 0.0 0.0 -0.0 0.0 1.7623e-41 -0.0
0.0 0.0 -0.0 0.0 -0.0 0.0 0.0 0.0
0.0 -0.0 0.0 0.0 0.0 0.0 0.0 -5.764998e-06
0.0 0.0 0.0 -0.0 -0.0 -0.0 0.0 0.0
4.9532e-41 -0.0 0.0 0.0 0.0 -0.0 0.0 0.0
0.0 -0.0 0.0 -0.0 -0.0 -3.4210006e-09 1.1682249e-13 -0.0
-0.0 -0.0 3.466308e-11 0.0 0.0 0.0 -0.0 0.0
0.0 0.0 -0.0 0.0 -0.0 0.0 0.0 -0.0
0.0 -0.0 -0.0 -0.0 0.0 0.0 0.0 0.0
0.0 -0.0 -0.0 -0.0 0.0 -0.0 -0.0 0.0
-0.0 0.0 -0.0 0.0 0.0 0.0 -0.0 -7.212309e-08
-2.8282989e-06 0.0 -1.284015e-10 0.0 0.0 1.7906978e-11 -0.0 0.0
-0.0 -0.0 -0.0 1.8201191e-12 -0.0 0.0 0.0 -0.0
-0.0 -1.1301887e-06 0.0 -0.0 -1.4457726e-07 8.746809e-11 0.0 -0.0
-0.0 -0.0 0.0 -0.0 0.0 0.0 1.317134e-39 -0.0
0.0 -0.0 -0.0 0.0 -0.0 -0.0 -0.0 -0.0
-0.0 -4.128618e-18 0.0 0.0 -0.0 -0.0 -0.0 0.0
0.0 0.0 -0.0 -0.0 -0.0 -0.0 -0.0 0.0
0.0 0.0 -0.0 -0.0 -0.0 -0.0 0.0 -0.0
-0.0 0.0 0.0 -4.153e-42 0.0 -0.0 0.0 -0.0
-0.0 0.0 0.0 -0.0 0.0 0.0 -0.0 0.0
0.0 -3.734691e-09 -0.0 0.0 0.0 -0.0 0.0 0.0
0.0 0.0 -0.0 -0.0 -0.0 -0.0 0.0 0.0
-0.0 2.3252193e-14 -0.0 -0.0 -0.0 -0.0 -0.0 -0.0
-0.0 0.0 0.0 0.0 0.0 0.0 0.0 0.0
0.0 0.0 -0.0 -0.0 -0.0 6.179599e-13 0.0 -0.0
0.0 -0.0 0.0 0.0 -0.0 -0.0 -0.0 0.0
00000000: 0000 0080 3d13 0000 0000 0000 0000 0080
00000010: e110 0080 0000 0000 0000 0080 0000 0080
00000020: 0000 0080 39d2 0080 0000 0000 0000 0080
00000030: 0000 0080 0000 0080 0000 0000 0000 0000
00000040: 0000 0000 0000 0080 0000 0000 0000 0080
00000050: 5af8 4491 0000 0080 2a8b 3fb9 537b 1000
00000060: 0000 0080 0000 0080 0000 0080 0000 0000
00000070: 0000 0080 0000 0000 0000 0080 0000 0000
00000080: 0000 0080 0000 0000 0000 0080 0000 0000
00000090: 0000 0080 0000 0080 0000 0000 0000 0000
000000a0: 0000 0000 0000 0000 0000 0000 0000 0000
000000b0: 0000 0080 0000 0000 2031 0000 0000 0080
000000c0: 0000 0000 0000 0000 0000 0080 0000 0000
000000d0: 0000 0080 0000 0000 0000 0000 0000 0000
000000e0: 0000 0000 0000 0080 0000 0000 0000 0000
000000f0: 0000 0000 0000 0000 0000 0000 f570 c1b6
00000100: 0000 0000 0000 0000 0000 0000 0000 0080
00000110: 0000 0080 0000 0080 0000 0000 0000 0000
00000120: 138a 0000 0000 0080 0000 0000 0000 0000
00000130: 0000 0000 0000 0080 0000 0000 0000 0000
00000140: 0000 0000 0000 0080 0000 0000 0000 0080
00000150: 0000 0080 e116 6bb1 ca87 032a 0000 0080
00000160: 0000 0080 0000 0080 2973 182e 0000 0000
00000170: 0000 0000 0000 0000 0000 0080 0000 0000
00000180: 0000 0000 0000 0000 0000 0080 0000 0000
00000190: 0000 0080 0000 0000 0000 0000 0000 0080
000001a0: 0000 0000 0000 0080 0000 0080 0000 0080
000001b0: 0000 0000 0000 0000 0000 0000 0000 0000
000001c0: 0000 0000 0000 0080 0000 0080 0000 0080
000001d0: 0000 0000 0000 0080 0000 0080 0000 0000
000001e0: 0000 0080 0000 0000 0000 0080 0000 0000
000001f0: 0000 0000 0000 0000 0000 0080 17e2 9ab3
00000200: cecd 3db6 0000 0000 cf2d 0daf 0000 0000
00000210: 0000 0000 ee82 9d2d 0000 0080 0000 0000
00000220: 0000 0080 0000 0080 0000 0080 5a14 002c
00000230: 0000 0080 0000 0000 0000 0000 0000 0080
00000240: 0000 0080 fdb0 97b5 0000 0000 0000 0080
00000250: 183d 1bb4 2858 c02e 0000 0000 0000 0080
00000260: 0000 0080 0000 0080 0000 0000 0000 0080
00000270: 0000 0000 0000 0000 a257 0e00 0000 0080
00000280: 0000 0000 0000 0080 0000 0080 0000 0000
00000290: 0000 0080 0000 0080 0000 0080 0000 0080
000002a0: 0000 0080 b251 98a2 0000 0000 0000 0000
000002b0: 0000 0080 0000 0080 0000 0080 0000 0000
000002c0: 0000 0000 0000 0000 0000 0080 0000 0080
000002d0: 0000 0080 0000 0080 0000 0080 0000 0000
000002e0: 0000 0000 0000 0000 0000 0080 0000 0080
000002f0: 0000 0080 0000 0080 0000 0000 0000 0080
00000300: 0000 0080 0000 0000 0000 0000 940b 0080
00000310: 0000 0000 0000 0080 0000 0000 0000 0080
00000320: 0000 0080 0000 0000 0000 0000 0000 0080
00000330: 0000 0000 0000 0000 0000 0080 0000 0000
00000340: 0000 0000 b052 80b1 0000 0080 0000 0000
00000350: 0000 0000 0000 0080 0000 0000 0000 0000
00000360: 0000 0000 0000 0000 0000 0080 0000 0080
00000370: 0000 0080 0000 0080 0000 0000 0000 0000
00000380: 0000 0080 e86f d128 0000 0080 0000 0080
00000390: 0000 0080 0000 0080 0000 0080 0000 0080
000003a0: 0000 0080 0000 0000 0000 0000 0000 0000
000003b0: 0000 0000 0000 0000 0000 0000 0000 0000
000003c0: 0000 0000 0000 0000 0000 0080 0000 0080
000003d0: 0000 0080 b4f0 2d2b 0000 0000 0000 0080
000003e0: 0000 0000 0000 0080 0000 0000 0000 0000
000003f0: 0000 0080 0000 0080 0000 0080 0000 0000

conv2.bias f4 [16]
-1.9175351e-13 -4.249218e-11 -0.3424998 -0.8420238 -0.58665764 -0.71576 -0.9768225 -2.0333743
-0.002447265 -1.7583811 -1.1308542e-15 2.5700137e-06 -3.6980223e-19 -5.044652e-08 -1.9903246 -8.429815e-06
00000000: 30e5 57aa f1e1 3aae 225c afbe df8e 57bf
00000010: 322f 16bf 0c3c 37bf 0a11 7abf ce22 02c0
00000020: 4b62 20bb a212 e1bf 28f9 a2a6 8078 2c36
00000030: ef4a daa0 89aa 58b3 f5c2 febf c86d 0db7
