saves/lenet5/cifar10/new_run/logs_regular_pp0x1_seed3_co2True_cifar10.pt (torch, 757547 bytes, 30 tensors)

conv1.weight f4 [6, 3, 5, 5]
00000000: b9a4 243d ac1f 91bd ab41 e5bd f473 073e
00000010: 9495 1dbd 009e b03b 83ca ebba 5942 23be
00000020: a87a 2abd f434 193e 3baa fcbd d593 9d3d
00000030: 5f53 c3bc fe72 0ebd 22ac 52bd e7ea 223d
00000040: e7e2 81bd 6894 b83d e59b ff3c 90c1 dbbb
00000050: c153 1f3e 0889 f7bc 80d0 8cbd ba1b 273d
00000060: d842 9dbc cfae e13c 65f1 48bd f969 363d
00000070: 2ad1 0fbd 7fb5 003a 7d79 af3c 2000 573d
00000080: f58b 033c 0585 80bd 621e 313e 6bd4 123e
00000090: c7c4 25bd 5323 60bd 7ffe b9bd 0716 5e3d
000000a0: a6a7 2ebe af02 e73d 0ef2 debc 5c96 253b
000000b0: a961 5abe db18 61bc 73f0 2c3e f470 b03c
000000c0: 0a27 243c 2744 4d3d cdc8 e4bc f905 4c3d
000000d0: 8d8f 9ebc f269 f9bc a57d 55bd 5689 71bd
000000e0: c4e7 a23a 7815 cebd f9c5 bfbd 7bcb 943d
000000f0: f189 c6bc 1fd5 bd3b 7087 cabd e685 bbbd
00000100: 7e23 843c ca1f 00bd 8d19 c63d 1410 00bc
00000110: 4ad7 5bbd dfe8 1bbd 2885 60be f64c be3d
00000120: 4b21 423d 958e d0bd f27b 73bd 9672 4dbd
00000130: b185 6f3d a51d 2bbc 6fcd edbd 2fe9 c1bd
00000140: e92c 873d 6efb f8bd 1782 64bc c1ba fa3d
00000150: 6b68 123e e84f 9b3d 437c 873d 32a8 13be
00000160: 375f 0abe 96ef b63d a381 90be 82df cabd
00000170: b8a8 343c b7b4 14bd 11a1 173e 6911 373c
00000180: 84a7 9d3d 78a6 b0bc 9570 07be ab77 e13c
00000190: 4aa6 463c 8c24 283d 4e7e 4abe 1576 b33d
000001a0: 5059 a4bd fa53 593c 9f70 64bb 2b56 bb3b
000001b0: 341a 4a3b 3823 eebc 29f6 6f3e 39b7 023d
000001c0: 541f 5a3d 99b1 04be ea6b d73b f4d2 a63d
000001d0: 105f 7fbd 51d8 19bc ff22 5fbe abd7 d8bc
000001e0: ebd3 f1bd b1a7 863d 73f5 5f3e 03f8 6fbd
000001f0: 5098 d43a f903 563c ef06 cc3d 6908 d43d
00000200: 9772 a6bd 54bc 68bc aa29 8fbc df19 d23c
00000210: ebcd c9bc 970e a13d 0b27 c23c eef7 21bd
00000220: 26e7 bebc ada1 0bbd 1eb1 363c 69fd 0d3d
00000230: 4a53 1e3e 7887 5d3c 4b4c fdbd 1a9d d63c
00000240: b71f 40bd 57c3 a8bd c4c3 35bd eee4 c23d
00000250: 760d 33bd ab06 0dbe d7f7 6cbd dcd1 52bc
00000260: e6fc a73d 5c3d 3fbe 8516 a1bd c37c 65be
00000270: 5b5d 7dbd 2793 5dbd c768 2b3d 9ed6 14be
00000280: d528 21bd d7b0 fc3d 4e39 27be 0cd4 dfbd
00000290: 8c91 25be 0535 233d eafd 4abd d23a 50bd
000002a0: 145b b1bc 9d14 573e a17b 47bd 885f 893c
000002b0: c20b 443e 34d6 85bd 7538 463e 416e fbbb
000002c0: 1628 60bd 32f7 44be acd0 bcbd 2bbe 57bc
000002d0: 0109 eabd 6ddf c73d 5622 3fbd e00d c13d
000002e0: 13b9 853d 8748 5f3d 7b0e ebbd 3077 c83d
000002f0: b1ee 80bd a7f6 bdbd 287a 82bd f269 b13d
00000300: d0c9 3abc 0946 543c 13e1 cb3c 21c5 80bd
00000310: 94bd 163d 4880 453d 9175 22bc 1939 2c3e
00000320: 50a8 c13b dfa0 083d c05f 3abd 15c7 1dbd
00000330: da6d cc3d 7a2e 43bd 81dc bdbd 4235 563c
00000340: d6d5 07bd 35cd 883e 832e 41bd 5670 69bd
00000350: 1dfe 833c 6442 883d 5d91 85be d587 123d
00000360: af83 36bc 3b13 923b 57dd 7fbd c2c1 45be
00000370: fc95 b0bd b098 3c3d 7ab0 74bc f9d6 edb9
00000380: f013 bf3d 73de ddbd e65d d33c 282c abbd
00000390: 08eb 37bd b5bd b9bd ea3f 4dbd 3e3a 553d
000003a0: b44b 73bd 8e02 4f3d 9d12 b23b 8182 77bd
000003b0: d353 d1bd 3cf6 0b3e 354f a5bd 3c88 32be
000003c0: f441 ee3c 0b5f b2bd 751d 713d 7fee 56ba
000003d0: f44c 44bd 7178 ee3d 1255 92bd 373c 4bbe
000003e0: 145b 923c e45d dbbd f413 6f3c 4f0b 1b3d
000003f0: f87c 60bd b236 723d 6fa0 b93d 4f3b 98bd
0.040196154 -0.07086119 -0.11194166 0.13227826 -0.038472727 0.005389929 -0.001798943 -0.15943278
-0.04162088 0.14961606 -0.123371564 0.07694212 -0.023843465 -0.034777634 -0.05143369 0.0397748
-0.06342106 0.09012681 0.031202266 -0.006706424 0.15559293 -0.030216709 -0.06875706 0.040797926
-0.019196913 0.027549176 -0.049058337 0.044534657 -0.035111584 0.00049098575 0.021420235 0.052490354
0.008028974 -0.062753715 0.17296746 0.14338844 -0.040470865 -0.054721188 -0.090817444 0.054220226
-0.1705614 0.11279809 -0.02721503 0.0025266623 -0.21326317 -0.013738836 0.16888599 0.021538235
0.010019073 0.050113823 -0.02792778 0.049810383 -0.01935556 -0.030446026 -0.052121777 -0.058968864
0.0012428691 -0.100626886 -0.09363932 0.07265373 -0.024235697 0.0057932283 -0.09889114 -0.091563985
0.016130205 -0.031280316 0.09672842 -0.007816333 -0.053672113 -0.03806388 -0.21925795 0.09292023
0.047395032 -0.10183445 -0.059444375 -0.050158106 0.058477107 -0.0104440795 -0.11611449 -0.09468304
0.06600363 -0.121573314 -0.013947031 0.12242652 0.14297645 0.075836 0.06615498 -0.1441963
-0.13512884 0.08932416 -0.28223905 -0.09905912 0.011026554 -0.036305156 0.14807536 0.0111735845
0.07697967 -0.021563753 -0.1322654 0.027522882 0.012124607 0.04105048 -0.19774744 0.08762757
-0.080248475 0.0132646505 -0.0034857166 0.005717059 0.0030838372 -0.029069528 0.23433746 0.031913016
0.053252533 -0.12958373 0.0065741437 0.08145705 -0.062346518 -0.009389953 -0.21790694 -0.026470026
-0.11807998 0.06574953 0.21870975 -0.05858613 0.0016219709 0.013062471 0.0996226 0.103531666
-0.08127325 -0.014205057 -0.017475922 0.025647102 -0.024634322 0.07864111 0.023700258 -0.039543085
-0.02330358 -0.034089733 0.0111506265 0.0346655 0.1546146 0.013521068 -0.12368067 0.026197959
-0.046905246 -0.08240383 -0.04437615 0.09516321 -0.04371401 -0.13772075 -0.057853546 -0.012867417
0.082025334 -0.1867575 -0.078656234 -0.22410874 -0.06185661 -0.054095414 0.04184797 -0.14534995
-0.03934558 0.12338417 -0.16330454 -0.109291166 -0.16168803 0.039845485 -0.049558558 -0.050837345
-0.021649875 0.21003957 -0.048701886 0.016769186 0.1914511 -0.06534997 0.19357474 -0.0076730554
-0.05472573 -0.19234923 -0.092194885 -0.013167898 -0.114274986 0.09759412 -0.046663605 0.094264746
0.06529441 0.054512527 -0.11477371 0.09788358 -0.06295527 -0.09275561 -0.06370956 0.086627856
-0.011400655 0.012956151 0.024887597 -0.06287599 0.03680189 0.04821804 -0.009915725 0.16818656
0.005909957 0.033356544 -0.04550147 -0.038519938 0.0998189 -0.047651745 -0.092705734 0.013074221
-0.033162914 0.2671906 -0.047163498 -0.056991898 0.016112382 0.06653288 -0.26087466 0.03577407
-0.011139794 0.004457859 -0.062466945 -0.19312194 -0.08622357 0.04604405 -0.014934653 -0.0004536433
0.09329975 -0.108334444 0.02580161 -0.083580315 -0.044901878 -0.09069387 -0.05010978 0.052057497
-0.059398368 0.050539546 0.005434348 -0.060427193 -0.10221066 0.1366815 -0.08071748 -0.17434782
0.029084183 -0.08709534 0.058865983 -0.0008198991 -0.04792495 0.11644066 -0.07145132 -0.19847189
0.017865695 -0.107112676 0.01459216 0.03785258 -0.05480668 0.059134193 0.090638034 -0.07433187

conv1.bias f4 [6]
00000000: f022 04bf 08f9 62be 2135 0fbf ccdc 0d3f
00000010: 2a9b 433e fbc3 b3bf
-0.5161581 -0.2216531 -0.55940443 0.55415034 0.19102159 -1.4044183

conv2.weight f4 [16, 6, 5, 5]
00000000: deeb 2ebd 7c69 02be 6d14 9f3c 72d1 6abd
00000010: 7e41 9abd 4020 a93c a006 1dbd ffc8 22bd
00000020: 9d75 8ebc fe05 b4bd c03f a3bd 57cc cbbd
00000030: 27f0 e9bd b776 a3bd 046c 9d3b 6001 1e3e
00000040: 6794 c53d 30fa b93c fa7c f73d d79d e6bd
00000050: 3a6e f23c d8b7 923c da2d 683d 2de6 0b3d
00000060: e452 ca3c 422a 10bd 40f3 b93c cb03 0c3b
00000070: f118 603d b0d9 883d 2b9f cb3d 80fc 5dbd
00000080: 3ba4 013d b25a b73c 20be 25bd a0f7 6bbd
00000090: 144d 61bb cb24 d93a c021 633c 17c8 a4b9
000000a0: e61f 96bd e775 c7ba 9972 20bd 2b03 adbb
000000b0: 9c18 d43d 836c a0bd 2d55 e4bd 5b4f 4a3c
000000c0: 8027 a7bd 1616 f73a ca07 8a3d 5fa5 f63b
000000d0: bdd2 b8bc 710f e43c 5acb cbbb 10f9 d0bc
000000e0: 4c55 6cbd 833d b33d 8e8a 0a3d 1dcd 88bd
000000f0: 1396 ac3b 21da c23c 3975 873d d8ff 88bd
00000100: 8f24 8dbd 5a68 323c 37a1 8a3d cf64 aebd
00000110: 6376 14be 0190 95bd 795d f1bd e405 753d
00000120: e8b9 c4bd e9a1 603d 097c 12bc ac70 133d
00000130: d5dd dc3d bcff d4bd d936 8c3d 84a2 1e3c
00000140: 07f6 b6bd c416 c7bd 7fd2 1dbd 2a71 a3bd
00000150: 72c7 0c3e 0f74 363d a9bd a1bc fd54 06bd
00000160: 64c9 84bd 3ad0 c53d 4826 953d f2c9 5ebc
00000170: 6695 6fbd 4183 1dbd 3f88 83bd cd01 0fbb
00000180: 3b99 88bc aa7f e4bc d88c ddbc 5b33 ecbc
00000190: 67be 59bd 8db2 93bd c497 6b3d 1b28 bcbc
000001a0: ede5 e3bd 94c9 2dbc 1077 9cbd 3286 a3bb
000001b0: 8341 eebc 4df5 b03b ae62 363d 7ed2 75bd
000001c0: 9592 3e3d 803f d33c 11bc 553d 0df9 de3c
000001d0: 05f8 96bd a305 97bb f479 bfbd 8bf4 8ebc
000001e0: 085c 01be 360c 993d d265 5e3d cd30 b73d
000001f0: 025c 963d d341 98bd 7847 233d e6f6 17be
00000200: 9c05 10bd 2f31 d1b9 19ef b9bc c1d0 833d
00000210: 71b6 3d3d 5e36 e73b ea2d 07be b6a3 87bc
00000220: 53f3 a13c 9e5b 83bb 65a3 cdbc 1675 2cbc
00000230: ce4c c9bc 4136 743d fb0c 98bd 7986 f93d
00000240: 8504 9eb8 efb7 0d3c d1d5 b6bd fd95 72bc
00000250: 3b22 cdbd b342 90bd 202b ec3c 4272 08be
00000260: 738b 71bc 3c4d ffbd 36f4 993b b1cf 2cbc
00000270: 850d abbc acc1 c23c d2ba 723d 48e4 e6bb
00000280: 93f4 2dbd 2690 173d 15e7 aa3d 2732 5d3d
00000290: 34aa 86bc f430 13bd e89e fa3d 9b41 af3d
000002a0: 149b 053e 45f3 8a3d 4065 86bc e9c2 943d
000002b0: b46b aa3b 79ad bebc a446 ff3d 8d71 0b3d
000002c0: 3a4c 0c3c fc0a 9a3d afd0 78bd 6d92 bebc
000002d0: b3db 9fbd 7781 5cbd 9317 e5bb 49d0 333d
000002e0: 7b26 ec3c 90bd 3cbd 81f8 603d cc05 fbbd
000002f0: 4716 c93d e5a1 cd3d 32a3 d73d 7669 01bd
00000300: 975a a3bd ba4c 103d 06b0 083d c9b9 633d
00000310: f348 7cbd d86a a4bd d708 0ebd 28cc 133d
00000320: 0b5c b23c 5e69 31bd 5297 2f3c 5023 283d
00000330: 8060 97bd c343 19bd a35b 90bd 5399 87bd
00000340: 5d56 8fbd dfbd 88bd e285 a83d 9834 17bd
00000350: 103b 69bd 70dd 3fbd dbf4 ae3d 427d adbd
00000360: 7ebd 2e3c 1114 d3bd 76d6 013e 8ff5 4cbd
00000370: 9b11 e83c e736 db3b 28d6 823c 5d90 ab3d
00000380: 3124 ecbc 60de dfbd 65ab 893d 074e a43d
00000390: 3446 85bd 286a c4bd 5800 083d 90a1 ad3d
000003a0: 706e 133d ffc9 0b3d f90c 823d d801 c73d
000003b0: 206a b13c 534c 5c3d c32c bebc 383c 583d
000003c0: 7237 34bd e8c8 3b3d c68b 663d dab0 66bb
000003d0: 669f 85bd c7cb 103d 0608 833c cd69 193c
000003e0: ae39 d83b 675b 03bd f9e2 613d d1bb 03bd
000003f0: 7c5d fc3d 2806 723c 6769 b33d 0eb1 8e3d
-0.04270541 -0.12735552 0.01941892 -0.05732865 -0.07532023 0.02064526 -0.038336396 -0.039742466
-0.017390067 -0.087902054 -0.07971144 -0.09951084 -0.114227585 -0.079816274 0.004804136 0.15430212
0.09647446 0.022702307 0.12084384 -0.11260574 0.029593576 0.01790993 0.056684352 0.03415506
0.024697728 -0.03519655 0.022698998 0.0021364565 0.054711286 0.066821456 0.09942468 -0.05419588
0.031650763 0.022382114 -0.04046452 -0.0576092 -0.0034378218 0.0016566751 0.013863027 -0.00031429596
-0.07330303 -0.0015217633 -0.03917179 -0.0052799187 0.10356256 -0.07833197 -0.111490585 0.012348021
-0.08161831 0.0018851187 0.06739767 0.007527038 -0.022561425 0.027839394 -0.0062193098 -0.025509387
-0.057698533 0.08751967 0.033823542 -0.06679747 0.0052669137 0.023785653 0.06614155 -0.06689423
-0.068917386 0.010889137 0.067690305 -0.085153215 -0.14498286 -0.07302857 -0.117854066 0.05982007
-0.09605771 0.05484191 -0.008940705 0.035996124 0.107844986 -0.1040034 0.06846399 0.009682301
-0.08933645 -0.09721139 -0.038530823 -0.07980569 0.13747957 0.044544276 -0.019743757 -0.032795895
-0.06483725 0.09658857 0.07282692 -0.013597952 -0.058492087 -0.03845525 -0.06422471 -0.0021821142
-0.016674628 -0.027892906 -0.027044699 -0.028833082 -0.053160097 -0.0721179 0.05751778 -0.022968343
-0.11127839 -0.010607142 -0.07639897 -0.0049903626 -0.029083973 0.005400336 0.044527702 -0.060015194
0.04652651 0.025787115 0.052181307 0.027218366 -0.07371525 -0.0046088262 -0.093494326 -0.017450592
-0.12632763 0.07473032 0.054296322 0.08944855 0.07341768 -0.0743443 0.03986308 -0.14840278
-0.0351616 -0.0003990023 -0.022697018 0.06436301 0.046316568 0.0070560416 -0.13201109 -0.016557556
0.019769346 -0.0040087244 -0.025102327 -0.010525962 -0.024572756 0.059622053 -0.07424351 0.12183852
-7.534869e-05 0.00864981 -0.08927501 -0.014806268 -0.100162946 -0.07043972 0.028829157 -0.13324836
-0.01474272 -0.12465903 0.0046983017 -0.010547564 -0.02088047 0.02377399 0.059260197 -0.007046256
-0.042469572 0.037002705 0.08344857 0.054002907 -0.016438581 -0.035935357 0.1223734 0.08557435
0.13047439 0.06784681 -0.016405702 0.07263739 0.0052008275 -0.023276078 0.124646455 0.034043837
0.008563096 0.07521626 -0.06074589 -0.02326318 -0.07805576 -0.053834405 -0.0069913357 0.043899808
0.028826943 -0.04607922 0.05492449 -0.12256965 0.09818702 0.100406446 0.10529174 -0.031594716
-0.07976263 0.035229422 0.033370994 0.0555971 -0.061593007 -0.08028191 -0.0346764 0.03608337
0.021772405 -0.043313377 0.01071723 0.0410493 -0.07391453 -0.03741814 -0.07048728 -0.06621041
-0.06998894 -0.0667684 0.08228661 -0.03691539 -0.056941092 -0.04684204 0.08542796 -0.08471157
0.010665296 -0.10306562 0.12679467 -0.05003887 0.028328707 0.0066898945 0.015971258 0.083771445
-0.028825851 -0.109310865 0.06722144 0.08022695 -0.06507531 -0.0959056 0.033203453 0.08478081
0.035993993 0.034128185 0.063501306 0.097171485 0.02165705 0.053783726 -0.023214703 0.052791804
-0.04399819 0.045845896 0.056285642 -0.0035200627 -0.065245435 0.035350587 0.015995037 0.009363604
0.006598673 -0.03206959 0.0551481 -0.032161538 0.12322518 0.014771976 0.08760338 0.06967364

conv2.bias f4 [16]
00000000: fcf8 d23f 04c2 87bf 2534 223f 17c7 c3be
00000010: 756e 2b3d 22c7 2dbf d8db cdbd 415d f43f
00000020: 5e6a 11bf 0a77 cebf b481 a4bf 90cb 913e
00000030: fc8c a23f dfce 57bf 7ed5 1f3f 8923 b33c
1.6482234 -1.0606084 0.63360816 -0.3823783 0.041853387 -0.6788198 -0.100516975 1.9090959
-0.5680293 -1.6130078 -1.2852082 0.28475618 1.2699275 -0.84300035 0.6243514 0.02186753

fc1.weight f4 [120, 400]
00000000: 7e37 3cbb 7c80 53ba fc7d 28bd 524c f73c
00000010: e35f 4b3c 8c88 82bd 4f2f 50bd 8a1f 8e3d
00000020: 5b6f 61bd 8f24 66bc e271 cb3c 60de 32bc
00000030: 51db 19bd 9d1e 96bc 762b 8b3d c563 4c3d
00000040: 7fda 4d3b f3e1 5e3d d4ab 9f3d 40ff ca3c
00000050: b797 303d 14bc 663d cae6 c8bc f09a 8dbc
00000060: 45cf 463c 013a 4e3d 1947 cfbd 2a6e 953c
00000070: 6017 28be ea62 a2bd 3291 e33d b7cd 76bd
00000080: 8a8a aebd 74df ad3c 0962 98bd cf1a dcbc
00000090: daea 7ebd 7e87 333b 9aa8 d83c 91b2 0cbe
000000a0: 4dca 91bd 0cd4 f539 1276 a53c 9353 92bd
000000b0: 2ae6 093b f9c3 30bb 99eb 783c 993d 3f3d
000000c0: 2a07 0a3d f9c6 423c ed0e c3bd 4f47 2abd
000000d0: 44ea 3cbd fab6 653c 688e 70bc dca4 103d
000000e0: 9aa9 963c aa3e 15bd 4d15 123d c58c f93d
000000f0: c2a3 80bd 6f1c 833d de8b 32ba 4b6e c5bd
00000100: f25a 15bd 5839 1dbd 804d dc3d cac6 de3d
00000110: 0b59 023e 7145 20bd 81cf 2c3d 4100 93bc
00000120: 877e bd3c 107b d43d b070 bcbc d406 1bbd
00000130: 4e16 a4bd 7415 f2bb 23ec 7abc 5693 c5bd
00000140: 05d7 8abc 8b12 be3c d803 373d 54a8 783d
00000150: 9a4b 9ebc fd90 a43d b0c9 12be d6f7 be3d
00000160: 4bdd 9b3d 2086 14bd 2729 c83b 4f55 fabd
00000170: 14ff fabc 97dc df3d fcdf da3c 1081 fabd
00000180: 59a6 5f3b 28af 8b3c c251 103d 7041 763d
00000190: 6c42 8f3d ec8b 12bd c105 cabd ac05 083d
000001a0: 2f80 a93d fec3 56bd 75a4 313c e9ae 973d
000001b0: f55f c13d bddb b53d c606 843d 54fb 07bd
000001c0: ef60 8c3c fa1b babc 4e44 c5bd c73f 033d
000001d0: 7302 e0bd c521 50bd 2cbf 6dbb c83b 353d
000001e0: 3beb 7c3d bf84 993b b633 083e 0695 a2bc
000001f0: 1c32 493d 9d56 e03d ccd5 6e3c 8335 c9bd
00000200: fa0c 7b3d b69f 25bc f743 82bc f3c8 a33d
00000210: dfa7 e93c 8e66 8ebd 923b 4a3c af4f 5ebd
00000220: 03e8 32bc 587e 743d 92fc 12bd eedc 453d
00000230: 2f48 6f3d 1a07 65bd c072 d23c b290 edbb
00000240: 0f75 ca3d 58c9 ed3b 1846 7a3c ed2b 8cbd
00000250: 10db 493d 4786 a03d 1965 4e3c 443b 5dbc
00000260: 5268 f73a 52bb abbc a3df 5e3d 4c4c b4bc
00000270: 3a59 a23d c115 873d 664c ed3c 8605 293c
00000280: dd50 80bd 98b7 30bd 2e50 0ebe dc4e 3ebc
00000290: a85f 863d 12ff 96bc 806f 643d b788 62bc
000002a0: 33c0 a73c a54c 72bd 8c3e d2bd fe6a ec3c
000002b0: 3e16 08bb b4d2 163d 4b68 37bd 679f 9c3a
000002c0: bbd0 b53c 71dc 90bd 6e6d 18bd ab52 08bd
000002d0: 6f42 0ebd 9f35 b5bd 963b aebd e70a aa3d
000002e0: cadf 27bd c640 b33d 541a 613b f57f 033d
000002f0: 0984 2b3d 1e56 60bd e277 033e dc4c 82bd
00000300: 6084 50bc 951c 28bc 3634 ffbc 138e efbc
00000310: 6960 adbd e267 b4bd 8e21 ef3c 337c 863d
00000320: 59de 14bd a2a0 9a3a 05ea 643b e065 9cbd
00000330: 23db 4dbd 716e 40bd cf43 9dbc 477e fabc
00000340: bb19 b83d 800d 9bbd d1ef 1e3d cbab 3c3c
00000350: 9d32 a0bc b80e 7ebd 95c6 a8bc c80e aa3b
00000360: cfe8 8abc 4c8c b9bd c420 edbb 4eaa 603c
00000370: 13d0 cabd 0079 22be 69d7 10bd 0302 f2bc
00000380: 6f5c 1ebc 3a3d d23c bb67 3e3b 3e08 ba3d
00000390: b16d 1ebd c958 0c3d 27ae bf3c b71f 7dbd
000003a0: d004 a5bc 6f4c 4f3c 4b9c 543d e99c 77bc
000003b0: 027e 1f3d e3a5 84bb 32d4 803c 7f94 a4bc
000003c0: ca6b 17be 2807 893c 7677 9dbd 3c01 eabd
000003d0: 0039 37bd 31b4 6c3d d01e 7cbd f57e 563d
000003e0: 1e10 2e3d e60d 0b3e abb7 86bd 5c2f c93d
000003f0: d0dd c33d ae2e 993d 18ab 3f3d 3993 843c
-0.00287196 -0.0008068157 -0.041135773 0.03018776 0.012412998 -0.063737005 -0.050826367 0.06939609
-0.055037837 -0.014046802 0.024834577 -0.010917276 -0.037562672 -0.018325144 0.06795399 0.049899835
0.0031410751 0.0544147 0.077964455 0.024779916 0.043113437 0.05633171 -0.024524111 -0.017285794
0.012134378 0.050348286 -0.10120983 0.018241007 -0.16415167 -0.079290226 0.11111678 -0.06025478
-0.08522518 0.021224715 -0.07440574 -0.026868252 -0.06223569 0.0027393992 0.026447583 -0.13739993
-0.07118664 0.0004688803 0.020197902 -0.07144847 0.002104173 -0.0026972278 0.01519289 0.046689603
0.03369824 0.011888259 -0.09524331 -0.04157191 -0.04612185 0.014020676 -0.01468239 0.035313472
0.01839142 -0.036436714 0.035664845 0.12185053 -0.06281234 0.06401908 -0.0006811003 -0.09640177
-0.036463685 -0.038384765 0.107569695 0.1087776 0.1272928 -0.039128724 0.04219008 -0.017944457
0.023131622 0.10375035 -0.023002952 -0.03784831 -0.08012067 -0.0073878113 -0.015315088 -0.09647243
-0.016948232 0.023202201 0.0446814 0.060707405 -0.019323159 0.08035467 -0.1433475 0.09324615
0.07610568 -0.036260724 0.0061084214 -0.122233026 -0.030639209 0.10930746 0.026718132 -0.12231648
0.003412625 0.017051294 0.03523422 0.060121 0.06995091 -0.03577797 -0.09864379 0.033208534
0.08276402 -0.052433006 0.010842432 0.07406408 0.094421305 0.088798024 0.064466044 -0.03319867
0.017136065 -0.022718418 -0.09632169 0.032043245 -0.10937967 -0.050813455 -0.0036277277 0.044246465
0.06174777 0.004685014 0.13300976 -0.01984645 0.049120054 0.1095402 0.01457734 -0.0982466
0.061291672 -0.010108879 -0.015901549 0.079973124 0.02852243 -0.069531545 0.012343304 -0.05427521
-0.010919574 0.059690803 -0.0358854 0.048306398 0.05841845 -0.055914976 0.025689483 -0.007249915
0.098856084 0.007256668 0.015275501 -0.06844316 0.04928118 0.07838111 0.012597346 -0.0135029
0.0018875694 -0.020963345 0.054412495 -0.022009037 0.07927175 0.06595946 0.028967094 0.010316258
-0.062654234 -0.04314384 -0.13897774 -0.011615481 0.06561214 -0.018432174 0.055770397 -0.013826541
0.02047739 -0.059155125 -0.10265836 0.028859612 -0.002076521 0.036822036 -0.044777196 0.0011949361
0.022194257 -0.07073296 -0.037213735 -0.033281963 -0.034731325 -0.08848118 -0.08507459 0.08302861
-0.040984906 0.08752589 0.0034347968 0.03210445 0.041873965 -0.054769628 0.128387 -0.06362316
-0.012726873 -0.010260721 -0.031152826 -0.029242551 -0.084656544 -0.088088766 0.029190805 0.06566658
-0.03634486 0.001179714 0.0034929526 -0.076366186 -0.050257813 -0.046980325 -0.019197373 -0.030577792
0.08989283 -0.07570934 0.038802925 0.011515568 -0.019555384 -0.062025756 -0.020602504 0.0051897503
-0.016956715 -0.09059963 -0.007236572 0.013712479 -0.09902968 -0.1586647 -0.03536168 -0.029541975
-0.009665593 0.02566396 0.0029053527 0.09083603 -0.03867883 0.03426436 0.023398472 -0.061797824
-0.020143896 0.0126525005 0.051906865 -0.015113094 0.03893853 -0.0040480956 0.015726183 -0.02009034
-0.14787212 0.016727045 -0.07688801 -0.11426017 -0.044732094 0.05778903 -0.061552823 0.05236717
0.04249584 0.1357952 -0.06578001 0.09823486 0.09563792 0.074796066 0.046794027 0.016183482

fc1.bias f4 [120]
00000000: adc9 763f d248 1a3f 5e73 a3bc 52a8 0340
00000010: 72fc a6be 7543 913f 0f8f 3cbd d992 0dc0
00000020: 3252 11bf 82d9 b1be ce5e 5fbf f3ab 9f3d
00000030: a249 57bf f472 9abf a2c9 e2be 055f 3e3f
00000040: 0640 453e 42cb a6bf 39b6 e53d 4276 00bf
00000050: c092 14bd c9c3 583f 3847 04bf 7559 2fbe
00000060: e212 80bf be7d 023f 3c4d 0540 6191 c13f
00000070: d9e9 003e fdc2 d2bf 46c6 b83f dd43 58be
00000080: 3578 47bf dfa5 e73e a7bc 003f c1e7 6fbf
00000090: 85cf 07bf 4b41 e2be cfa3 683e 0eb1 dcbf
000000a0: 35d7 a53c 6f05 4e3f f6e7 7a3e cb05 ca3e
000000b0: 433e b13f d9ab ac3f 1dbd dd3e fc75 15bf
000000c0: 9fb8 56bf eb0a 803f 6b1d fcbf 27cc 163f
000000d0: b9fd 4ebf 0d8c 513e c94d de3f 39a9 623e
000000e0: e11a 24be 3490 1d3f b06e 03c0 5909 75bf
000000f0: e773 34be 56c2 253e dd7e 31bf c0e5 32bf
00000100: 5c36 1bbf 053c cdbf 56b2 343f 210e 463f
00000110: ec4a b4bf a920 9bbf c395 7f3f 4d1c 293e
00000120: 067a bb3f d5b4 17bf 2432 303e 2526 44bf
00000130: 5592 a13f f3ec 68bf f43f b63a 42fb e83e
00000140: e66a 673f c55c 1bbf 3854 733f 9359 09bf
00000150: 698a b7bf af23 de3e 7098 1940 72c6 d73d
00000160: a342 a4bf 5a98 17bf 21ef 593f d736 ff3f
00000170: 8baf a83f bfbc 2c3e 740c 1b3f ed2d abbf
00000180: 6bef 573e de7c 96bf 4a60 843f 7baa a93f
00000190: 4150 2ac0 cfdf 8d3f c711 10bd 164b b4be
000001a0: b24b 61bf 4615 50bf f8e3 a93c fa4c 91bf
000001b0: 1185 95bf 0bbb 963e 8bf5 44bf b15e d6bf
000001c0: 2ba9 9d3f d47a 84be e055 1640 045e 1abf
000001d0: e207 debe 29d4 a53f 09fe 76be 0c77 04c0
0.9640148 0.60267365 -0.019952472 2.0571485 -0.32614475 1.1348711 -0.04603487 -2.2120879
-0.56766045 -0.34736258 -0.87254035 0.077964686 -0.8409673 -1.2066331 -0.4429446 0.7436374
0.19262704 -1.3030779 0.11216397 -0.5018045 -0.036272764 0.84673744 -0.5167117 -0.17123969
-1.0005763 0.5097312 2.082839 1.5122491 0.12589206 -1.6465756 1.4435508 -0.21119638
-0.77917796 0.45243737 0.5028786 -0.93713003 -0.53051025 -0.4419044 0.22718738 -1.7241533
0.02024422 0.8047704 0.24502549 0.39457545 1.3847126 1.3489944 0.43308344 -0.58383155
-0.8387546 1.0003332 -1.9696478 0.5890526 -0.808559 0.20463581 1.7367488 0.22134866
-0.16025878 0.6154816 -2.0536308 -0.9571739 -0.17622338 0.16187415 -0.69334203 -0.6988182
-0.6062982 -1.6033942 0.7058462 0.7736531 -1.4085364 -1.2119342 0.99837893 0.16514702
1.4646614 -0.592603 0.17206627 -0.76620704 1.2622782 -0.90986556 0.0013904558 0.45504194
0.9039749 -0.6068843 0.9505038 -0.53652304 -1.4339114 0.433866 2.399929 0.10535897
-1.2832836 -0.59216845 0.85130507 1.9938611 1.3178571 0.16868876 0.60565877 -1.337339
0.21087424 -1.1756856 1.0341885 1.3255152 -2.6611483 1.1083926 -0.035173204 -0.35213536
-0.88006127 -0.8128246 0.020738587 -1.1351616 -1.1681234 0.29439577 -0.7693717 -1.6747648
1.2317251 -0.2587496 2.3489914 -0.60299706 -0.4336539 1.2955371 -0.24120344 -2.069766

fc2.weight f4 [84, 120]
00000000: 664f 203d 42ee 083e 1be8 58bd dced 253d
00000010: 4457 6c3d ec79 383d f2e1 143d 2f7e 1fbe
00000020: 4276 853b 961e d43d 8e79 77bd 75d0 81bb
00000030: 28ae 383d 8789 beba 8e54 0dbe b547 f43d
00000040: 5ad3 44be 99c3 dd3d 3f19 01be f2d3 89bd
00000050: c4c7 64bd f3cf c2bc 8105 863d c340 7b3d
00000060: ff24 1c3e cb60 5c3d 9cf0 9abd 043f d7bd
00000070: 8306 f23c 740a 613d 2695 bfbd 07ef a03b
00000080: 6d9d bdbc 09a2 983d 07a4 ad3c 3623 15bd
00000090: eb33 263d 9657 babd 89f2 95be 316a 653e
000000a0: 97fa a73d 34ac f7bd b20a 593e b200 24be
000000b0: 1bd3 653e 4252 bc3c 7ebb 8abd 05d2 ddbc
000000c0: 5be2 0f3e cc02 86bc 05c4 09bd 13e2 5a3b
000000d0: f92a c2bd 13ee 133e b2ac 703d f9d8 533d
000000e0: 7418 eb3d f2e7 053e a0ba a0bd d487 ccbc
000000f0: 947c a2bd 907a 04bc ead8 69bc 59fc 28be
00000100: 5d0a 043d 95d4 dd3d 3eaa 083e 7e36 543d
00000110: 8555 213e b049 30be 0748 413e 11cb 0e3e
00000120: a489 11bc 40ef ab3c 4f73 003e 9ad9 eebd
00000130: a7cb 4dbd 15a5 2ebd 5cc7 593b c654 3e3d
00000140: 394a 96bd c1ce 123e 9485 a5bd a6b2 9dbe
00000150: c1f1 bcbb 78f6 31bc 796b 83bb 2626 75bd
00000160: 92f6 49be 5f77 1b3e 9176 003b 45c6 d93c
00000170: 39f1 a23c e76c cdbc c9da 9cbd e231 ce3d
00000180: 3b47 0b3e b974 823e 515d bb3d 9231 d13c
00000190: 13c9 95bd adbd a5bd 38ba 16be b119 c2bd
000001a0: 257c 71bd 3b89 06bd 2ecc e03b 693a 053c
000001b0: a0ae 863b 5d38 bd3d bbb3 c1bd f759 04bd
000001c0: b42c 323e ffd7 df3b 17da b33c aca1 b23c
000001d0: 12bb 93bd 4f04 903d d2cd 06be d438 c33d
000001e0: d685 57be f362 363d 7567 2cbe c767 d63c
000001f0: df4c 43bd b74d ebbd 29c8 c83d 72c5 5cbe
00000200: 4c41 7a3d d80f 0fbe b84d 39be 1038 66bd
00000210: bc6a 573d 0f01 a6bd d5ca 4fbc c6fd 103d
00000220: a25b c6bd b94a 563e a27f e0bd a09b 083e
00000230: d2d9 333d fb64 2c3c c70b 97bd 5aab 973d
00000240: ab1c 383e 7f64 933d a1dd 103d 1bc6 6d3b
00000250: 7b6b b43d 27d6 9a3d 4161 123e 758c d0bc
00000260: 42ea 47be 9361 6b3c a620 f6bd 5240 d73c
00000270: e794 973d 99f3 3abd cdf1 d83d 253d 9abe
00000280: 2983 7cbd 8e3d 033d 4d88 22be fc52 3cbd
00000290: 84da d13d f645 cf3d 4cf9 afbd 261f 523e
000002a0: ab50 85be 705b 32be 4292 0cbe 4684 163d
000002b0: c48c 083d 7cfb 1abe 62fb a2bd 4ac9 0d3d
000002c0: 3c45 05bd 47ce f5bd 0168 c6bd 2b40 be3d
000002d0: 8bb8 f03d 9262 32be 7b5d 2c3d d6d6 cb3d
000002e0: c2a7 37bd ca37 a13d d7d3 90bd a60d 733c
000002f0: bb36 a63d 2aa3 f4bd 0c0d a1bc e22c 673d
00000300: 1906 923d ce2f d8bc 8bb5 06be 1b8b 45bd
00000310: b215 4b3d 85ff 1a3e 1cb3 f13c 5c17 593c
00000320: 5cc1 ed3d ce03 553d 580f 0b3e 10cd 8eba
00000330: a6ca dbbd 9050 e2bc 19da 593d f1c1 a83d
00000340: 7f5f 07bd d9ae 193d b3d4 adbd 4682 e8bc
00000350: 4487 bfbd cf1b 323d 7bb7 0dbe 2bf8 04bd
00000360: 43e3 c9bd cdd1 16be 3615 3dbb 9901 393e
00000370: 66ef b9bd 245d fd3c 6b92 853d a7e6 aebc
00000380: 9fe5 22bc aeb4 3d3e 8a1f 2e3e a58c 363d
00000390: d136 233e e2a9 37be 7697 f8bd 8b01 f73c
000003a0: 069b a7ba 509c e63d e5cc 6e3d eba6 ad3c
000003b0: 2e2e 07be cfff 1ebd 6122 8f3c eb26 cbbc
000003c0: 263c bd3d 94bf 7c3d 108e 043d 5dfa b93d
000003d0: 6507 0f3e f822 f8bc 6218 123e f220 78bd
000003e0: 4818 03be 11f6 5bbd 36c7 243c 6bda 7f3c
000003f0: a074 e8bb ba6b 27bd a5f4 c83c 1038 513e
0.03913822 0.13372138 -0.052955728 0.040510044 0.05770041 0.04503815 0.03634829 -0.15575479
0.0040729353 0.10357396 -0.060418658 -0.0039616176 0.045087963 -0.0014536836 -0.13801786 0.119277395
-0.19221249 0.10828323 -0.12607287 -0.067298785 -0.055854574 -0.023780799 0.065440185 0.06134106
0.15248488 0.053803246 -0.07565424 -0.10510066 0.02954412 0.05494161 -0.0935462 0.004911307
-0.023146356 0.07452781 0.021196378 -0.036410533 0.040576857 -0.09098737 -0.29286602 0.2240379
0.08202093 -0.12093392 0.21195486 -0.1601589 0.22443812 0.022988442 -0.067740425 -0.027077684
0.14051192 -0.016358756 -0.033634204 0.003339891 -0.09480853 0.14446287 0.058758445 0.051720593
0.114792734 0.13076761 -0.07848096 -0.024967112 -0.07933918 -0.008085862 -0.014272908 -0.16502513
0.032236446 0.108315624 0.13346192 0.05180978 0.1575528 -0.1721561 0.18875133 0.13944651
-0.008882914 0.020988107 0.12543987 -0.11662598 -0.050243046 -0.042637903 0.00332304 0.046467565
-0.073383756 0.14336683 -0.08082119 -0.3080036 -0.005766124 -0.010861985 -0.0040106145 -0.059850834
-0.19722965 0.15182255 0.001960192 0.0265838 0.019890415 -0.025076343 -0.076589175 0.10068108
0.13601391 0.25479677 0.09148658 0.025536332 -0.073137425 -0.080928184 -0.14719474 -0.094775565
-0.058956284 -0.032845717 0.0068602776 0.008131602 0.0041101724 0.09239266 -0.09458109 -0.03231236
0.17399865 0.0068311687 0.02195458 0.021805607 -0.07213415 0.07032072 -0.13164452 0.095323235
-0.21047148 0.04452796 -0.1683634 0.026172532 -0.047680732 -0.11489432 0.098038025 -0.21559694
0.06109743 -0.13970888 -0.18096054 -0.05620581 0.052592024 -0.08105671 -0.012682636 0.035398267
-0.09685446 0.20926942 -0.10961844 0.13340616 0.0439089 0.0105221225 -0.07375293 0.074057296
0.17979686 0.071969025 0.03536761 0.003628141 0.08809563 0.075603776 0.14294912 -0.0254576
-0.19522956 0.014366525 -0.12017946 0.026275788 0.07401448 -0.04564247 0.10592995 -0.30124775
-0.06164852 0.032041125 -0.15872307 -0.045977578 0.10246757 0.10120766 -0.085924715 0.20519695
-0.26038107 -0.17417693 -0.13727668 0.03674724 0.03333737 -0.15134996 -0.07958104 0.034615792
-0.03253673 -0.12002235 -0.09687806 0.09289583 0.11753949 -0.17420414 0.042081337 0.09953086
-0.04483772 0.07871969 -0.07071655 0.014834797 0.08115908 -0.119451836 -0.019659542 0.056439288
0.07130069 -0.026389983 -0.1315519 -0.048228364 0.049581237 0.15136535 0.029504351 0.013250198
0.11609146 0.05200558 0.13580072 -0.0010894854 -0.107320115 -0.027626306 0.05318651 0.082401164
-0.033050057 0.037520263 -0.08487835 -0.028382432 -0.09351972 0.04348355 -0.13839523 -0.032463234
-0.098578 -0.1472847 -0.0028851754 0.18067016 -0.09078865 0.030928202 0.06522068 -0.021350218
-0.009942441 0.18525955 0.17004219 0.044567723 0.1593888 -0.17935899 -0.12138264 0.030152103
-0.001278729 0.11260283 0.05830087 0.021197757 -0.1320121 -0.038818177 0.017472448 -0.024798831
0.09239988 0.06170614 0.032362044 0.09080956 0.13967665 -0.030290112 0.14267114 -0.060578294
-0.12802231 -0.053701464 0.010057261 0.01561604 -0.007093981 -0.04087422 0.024530718 0.20431542

fc2.bias f4 [84]
00000000: f51d c93e 49f1 cebe 53d0 9c3f e976 563f
00000010: 3415 0b3e 5223 1d3e 31ec 8fbf 5dd6 243f
00000020: 4ddd 79be 65fa 92be 830c acbe b961 b93e
00000030: b321 27bf 0226 82bf 9e36 5abe 7209 c8bf
00000040: d943 47bf f059 e7be 54fb 3a3f 9534 bf3f
00000050: e02c 60bf 3ea2 15bf ab10 19be 84cc 1f3f
00000060: b5a9 0d3f eb1f f53e 7cd3 bf3e 1129 debf
00000070: 5cc9 a7bf fc15 4f3f 16d7 9cbf 8738 2cbd
00000080: 41c5 653f 3722 9b3e 1255 9a3f 2a9d 7ebf
00000090: da17 7b3f 8c34 3bbf 9ec8 543f 0e5a 39be
000000a0: f48d 4bbf cb91 033f 9b3e 66bf ff1c b1bf
000000b0: f7cc 643e 5409 4ebe 0c7a 81bc 93ba b23e
000000c0: acb9 05c0 e348 e3bd 6e27 9c3f cf52 9e3e
000000d0: 6089 ab3f 53f3 b33f 5470 53bf d271 023f
000000e0: ff29 943d 5bcd a7be 92fa 3d3f a98b 333f
000000f0: dd19 2a3d a43f 96bf 0068 cc3e 4fa5 77be
00000100: 14a7 05c0 f773 0c3f 3816 5c3f 29b4 71be
00000110: 6ea5 863f 83ee 853f f852 383f 5bba 613e
00000120: baa9 923e c6cd 5e3f 5fca 05bf 9edf 41be
00000130: 4fee a43f c4b9 2d3e ff52 10be 29ac 893f
00000140: abf1 07c0 0655 a0be 3211 ca3e 86d3 a3bd
0.39280668 -0.4041846 1.2251076 0.8377519 0.13582307 0.15345505 -1.1243955 0.6438959
-0.24400826 -0.2870666 -0.33603296 0.3620737 -0.65285796 -1.0167849 -0.21309897 -1.5627882
-0.778379 -0.45185804 0.73039746 1.4937922 -0.87568474 -0.58450687 -0.14947765 0.6242144
0.5533708 0.47875914 0.37466037 -1.7356282 -1.3108325 0.8089292 -1.2253139 -0.042046096
0.8975411 0.3029954 1.2057211 -0.99458563 0.9808327 -0.73127055 0.8311862 -0.1810076
-0.7951348 0.5139434 -0.8993928 -1.3836974 0.22343813 -0.20120746 -0.015805267 0.3490797
-2.0894575 -0.110978864 1.2199533 0.30922553 1.3401299 1.4058632 -0.82593274 0.50954926
0.072345726 -0.3277386 0.74210465 0.7013498 0.04152857 -1.1738172 0.39923096 -0.24184154
-2.0883226 0.5486445 0.85971403 -0.23603882 1.0519235 1.0463413 0.720016 0.22043745
0.28645116 0.87032735 -0.5226192 -0.1893296 1.2885226 0.16965395 -0.1409416 1.0755664
-2.1241252 -0.31314868 0.39466244 -0.07999329

fc3.weight f4 [10, 84]
00000000: 75d3 333d d0ae 583d e180 b9bd 82ec 043e
00000010: d010 79bc 576d adbd 8f22 343e 5952 693d
00000020: 755b 7cbd d690 b8bd 558d 0d3d e356 8ebd
00000030: f095 993d d086 993d 9cd9 73be cc23 aabd
00000040: a287 903e 3ed9 493e 61d9 483e ae2a 603d
00000050: cff1 0cbb 2580 18be 462f 32be 9ded 45bd
00000060: 8501 e8bc 989c 9c3b a3c0 8ebd e185 a43d
00000070: bfc6 52be b400 d03d 8525 c9bd 49bd f4bc
00000080: b242 51bd fd6d 8fbd 5216 4c3e 5d26 4b3d
00000090: e5da f13d 65dd 823d 2781 27be 8b52 96bd
000000a0: 6b07 31be 82e5 87be 8789 03be bf2a 033e
000000b0: 77d7 793d b498 153e 7440 80be 55d3 fc3d
000000c0: 5ccb 75bd de52 7a3e 0cf9 99bc 41d7 d53d
000000d0: 03fa 0abd 9b7a 0a3e cf87 93be b0c7 d8bc
000000e0: 6bf4 063e 53bc 1b3e 0dae 963c f141 32be
000000f0: 9224 85bd 9b86 cbbc 9f43 b8bd c294 c03d
00000100: d0e5 043c 2c2c 0b3e 7f94 83be 264c d33c
00000110: 3586 c1bd 766a b23d 60ea 4dbe b5b4 78be
00000120: 1600 793d ca5e 84bd 5985 2e3e 1d32 9f3c
00000130: 02e2 22bd 1eda 353d c73c d63c fe8e 2b3d
00000140: b7b7 b2be 2fef 03be 03fa 8abe d60f 563e
00000150: 7ca7 e8bc e39f 803c f8af 3b3e 8c68 253e
00000160: a960 6fbe 0c1a 6eb9 3b47 bd3d f6ca b53d
00000170: 26b7 433d 0912 023e 060c 42bd d4a2 663b
00000180: b222 00be eaba ab3d 3b28 66be 18d0 00be
00000190: 1c1a 093e da4a 933e 40fd 19be 7c4d 993d
000001a0: f42f 163e ad32 19be 1179 8f3e 79f1 24bd
000001b0: 7f7e d73c 5fad ebbd e706 cf3c 576d 80bd
000001c0: d445 5f3e c978 b3bd 827e 3b3e 3e00 0a3d
000001d0: d5b2 06be 99fa 84be 2898 563d 280b 94bd
000001e0: 4d26 e9bd 8ebd 35be e09b 33be a324 4dbc
000001f0: 9403 ec3a b8ae 093e 486d 393d 6b98 403e
00000200: afa1 80bd 33c2 4a3e 6139 04bd 5592 95bd
00000210: 56de 8a3d 8263 8ebc 6857 89bb d6a8 f0ba
00000220: b468 c3bc 37d6 db3c 422c bdbe 675c b03b
00000230: fc94 e3bd bbd7 b03d f197 fb3d 3fdd 93bd
00000240: f461 583d a48f 59be 94fc f23d 9a16 4c3e
00000250: 85d0 293d 38f6 103e 8da2 ccbc 02ae 553e
00000260: a128 1ebd 5b5b 863d ee7f eb3c 8a9a 02be
00000270: 26df ca3a 66af 6d3e e564 c7bc 4f22 37be
00000280: 86ea 3e3b 51d8 363e 489f fc3d 71e1 fc3c
00000290: 8906 e83c 978f 43be 67a2 fdbb 9251 1f3e
000002a0: 27ba e33d 58db 04be b681 013e e672 ec3d
000002b0: 01e7 3bbe c0db 28be 9219 d2bc ccd7 073d
000002c0: a7da 6fbd 96f7 dfbd 65a6 313e 3fde 543c
000002d0: a998 4e3e 306a 46bc e488 1f3e 9ed1 1c3e
000002e0: 95c1 c13d a8cf 203c e0ab f43d c8a5 6abe
000002f0: b4ec f7bd f64c 4abe 2b8e 453e a649 393e
00000300: 53a2 19be 56e6 ae3d 286d 1bbd 61ec 87bd
00000310: 1b03 4c3d 0966 093d 8ab5 243e e5b0 773d
00000320: adbc 003e 9d82 b63c 009f a53d c60c 51bd
00000330: f06d 823d b04f ad3c 17c7 ed3d 88f8 403a
00000340: 966d 3dbd 3693 e33d 0bdb 243e 14e6 21be
00000350: 5793 61bd 1756 d83c b21e 49be 47bc 463e
00000360: 2045 c2be 2b67 ef3c 1ed2 eabd 39af 113d
00000370: a388 923d fba0 513e 6ac0 80be 49a2 0b3c
00000380: 6509 9abc 9d11 003d 0805 8b3b 4885 febd
00000390: 04b3 483d ed85 98bd 6da7 afbd 83e6 303e
000003a0: b871 343e ddf7 0f3e 71f8 893c 660b a93e
000003b0: 4c65 88be 0ab9 c5bd 42e8 01bd 9f0b 35be
000003c0: cc33 fdbc f242 d6be 7d40 9e3d b8b3 a0bd
000003d0: ef37 893e 4620 973e 4a7e 733c d6a0 74be
000003e0: 157f edbc 3212 4bbc fa32 08bd 22f2 efbb
000003f0: 3cac 083e 6859 473e 8b4e 0d3e 7c67 0bbd
0.043902833 0.05290109 -0.09057785 0.12980846 -0.015201762 -0.084681205 0.17591308 0.0569633
-0.061610658 -0.09012 0.034558613 -0.06950166 0.074993014 0.074964166 -0.2381348 -0.08307609
0.2822848 0.19711778 0.19614173 0.054728203 -0.0021506434 -0.14892633 -0.17400846 -0.04832231
-0.028321037 0.0047794096 -0.06970336 0.08033348 -0.20583628 0.10156384 -0.098216094 -0.029875414
-0.051088996 -0.070034005 0.1993039 0.049597133 0.11809329 0.06389884 -0.16357861 -0.073399626
-0.17287986 -0.26542288 -0.12845431 0.12809275 0.0609965 0.14609033 -0.25049174 0.12344996
-0.06000839 0.24445674 -0.018795513 0.10441447 -0.033929836 0.13523333 -0.2881455 -0.026462406
0.13179176 0.15208559 0.01839354 -0.17407967 -0.06501116 -0.024844458 -0.08997273 0.09403373
0.008111432 0.13591069 -0.2569923 0.025793146 -0.09449426 0.08711712 -0.20108938 -0.24287684
0.060791098 -0.06463392 0.17043056 0.019433076 -0.03976632 0.044397466 0.026152028 0.041884415
-0.34905788 -0.1288421 -0.2714387 0.20904478 -0.028400175 0.01570124 0.18328846 0.16153163
-0.23376717 -0.00022707152 0.09242102 0.08876602 0.047782086 0.12702192 -0.047374748 0.0035192268
-0.12513235 0.083852604 -0.22476284 -0.12579381 0.13388866 0.28768045 -0.15038013 0.07485482
0.1466673 -0.14960738 0.28022054 -0.04026935 0.026305435 -0.11507677 0.025271846 -0.06270855
0.21803981 -0.08763272 0.18309978 0.033691637 -0.13154157 -0.2597244 0.0523912 -0.072286904
-0.113842584 -0.1774809 -0.1753993 -0.012520942 0.0018006437 0.13445556 0.045270234 0.18808143
-0.06280839 0.19800644 -0.032281283 -0.07303301 0.067806885 -0.017381433 -0.004191328 -0.0018360864
-0.023853637 0.026835544 -0.3694783 0.005382109 -0.11112401 0.08634897 0.1228484 -0.07219934
0.05282779 -0.21246201 0.11864582 0.19930497 0.041458625 0.14156425 -0.024979854 0.2086716
-0.038612965 0.065603934 0.028747525 -0.12754264 0.001547788 0.2321144 -0.024340102 -0.17884181
0.0029131486 0.17855956 0.12335068 0.030869218 0.028323429 -0.19097744 -0.007740307 0.1555846
0.1111949 -0.12974298 0.12647137 0.11545353 -0.1834984 -0.16490078 -0.025646959 0.033164784
-0.058558132 -0.10935895 0.1734863 0.012992441 0.20175423 -0.012110278 0.15579563 0.15314338
0.09460751 0.009815134 0.11946845 -0.22914803 -0.121056944 -0.19755921 0.19292514 0.18094501
-0.15003328 0.08540027 -0.037945896 -0.066368826 0.04980765 0.033544574 0.16084877 0.060471434
0.12571974 0.022279078 0.080869675 -0.051037572 0.06368625 0.021156162 0.11610239 0.0007361253
-0.046247087 0.11112063 0.16099183 -0.15810424 -0.055072155 0.026408238 -0.19640616 0.1940776
-0.37943363 0.029223999 -0.11465858 0.035567496 0.07154968 0.20471565 -0.251468 0.0085225785
-0.018803308 0.031266797 0.004242543 -0.12427765 0.048998848 -0.07447419 -0.08576856 0.17275433
0.17621505 0.14059396 0.016842099 0.3301651 -0.26639783 -0.09654434 -0.03171564 -0.17680214
-0.030908488 -0.4184795 0.07727144 -0.07846779 0.26800486 0.2951681 0.014861653 -0.23889479
-0.028991261 -0.012394475 -0.03325174 -0.0073225657 0.13346952 0.194677 0.13799493 -0.034034237

fc3.bias f4 [10]
00000000: 14f4 973f 4063 86bf de52 193f 621f 91be
00000010: acbf bfbd d709 e1be ec42 5e40 cdfa 01bf
00000020: bd73 ae3f b4dd da3e
1.1871362 -1.0499039 0.5989207 -0.28344256 -0.093627304 -0.4395282 3.4728346 -0.50773317
1.362907 0.4274727

conv1.weight f4 [6, 3, 5, 5]
00000000: 24e3 a33c 8b0c 53be 1724 fabd 490e 953e
00000010: eaf1 07be 2694 f73d a059 45bc 4570 eebe
00000020: cc40 53bd 17cc a23e a3e6 ecbc c001 a53e
00000030: 36a2 dfbd 969a a9be 2e8f d43a 5654 2cbd
00000040: c4c1 b83d 85fa 993e 782a 723d 8995 90bd
00000050: 0d1d 403d e6e4 b7bd 69d8 4fbb 0b00 143e
00000060: 9154 e73d f6db de3c 0f78 30be 6beb 423d
00000070: c459 8c3e 2540 663d f0ff 3d3e 33da a93d
00000080: df3e 9cbe 59df 9e3b a05d e83e 04f8 683e
00000090: 7116 943e a82f 9fbd 59f8 b8be 1745 1b3e
000000a0: d095 5cbe 0c85 8f3e 4eba 853e fc3d 933d
000000b0: 3ddd 42be 2ff2 c3bd 7a10 923d 23be 9b3d
000000c0: 4791 0c3e 7848 503e 2dae 2dbd baf6 0dbe
000000d0: fea8 52bd eb09 543e 8406 f3bd 12ab a63d
000000e0: 0a30 36bd 4654 fdbe bfad 18be 877e 493e
000000f0: 5e77 b63d 7b3b 823e 42b7 61be a47a 13bf
00000100: 5ebf e8bd 45f6 30bd 2986 6a3e 11f4 3d3e
00000110: cb95 29be df43 b1be fb44 1ebe 241a aa3c
00000120: 2234 e33c 0780 c6bd 65e2 fbbd c550 b3bd
00000130: 5317 e13d 68de f2bc e992 b5bd 7366 423d
00000140: 8137 da3c 07fe ba3d a028 8ebe 921a ccbd
00000150: 57ec 963e 6abf 0c3d fc3a 973e 69c7 dcbe
00000160: 47b4 a0be 9327 d83e d7a8 1bbe fbed 2d3e
00000170: 7a09 1bbe 2b0a 82be 62b3 d03e 2440 d13c
00000180: 7f6b e73d c311 15bd c9e3 4cbe d90a 4e3e
00000190: 8274 833d 090f 3a3e 49a6 5dbe 6577 06bd
000001a0: ad97 403c ac31 c93d ef66 9a3e 1710 a8be
000001b0: 2b14 9ebe f5ae 0f3e 23e1 613e 0317 ac3e
000001c0: 5ed3 cabe 081d e9be c3ac a63e 7fff 113e
000001d0: d1ab 5c3e 3f04 89be 9193 09bf 4ec0 633e
000001e0: 88f7 12bd e592 0d3e db72 a03d 305c 9cbe
000001f0: 0941 953d cd08 70bd 1175 0f3e 9b3c 8ebc
00000200: a19d 25be 2235 fb3c 73ca 41bc 681d a23e
00000210: cccc 98be f966 2dbe 4c5f 673e 0362 43bd
00000220: 7ee7 b13e 5d96 cdbe 1d28 91be a993 d13e
00000230: dfd6 f83d 934d a83e 2c1d 91be 9f14 a5be
00000240: 9cca 8e3e 026c c5bd 4268 bb3d 1fba 8f3d
00000250: b509 67be 2d00 653d 1717 143d b2f7 ef3d
00000260: eac6 173e 4941 a0bd 68d2 833d e306 33be
00000270: a4c1 383c bf2b c83c f6f9 3a3e a6cb 75bd
00000280: 220d b4bc 6538 92bd 8dbe dcbe 8896 f1be
00000290: 1d3a 0fbf 57c5 503e 29b7 123c 2167 f5bb
000002a0: d38a f8bc 4554 a43e 606b 113d d7de df3d
000002b0: d380 af3e 5b63 113e 92ef dc3e 88d4 ff3c
000002c0: d305 673d 40ce ebbd 45ba 3cbd 1204 803d
000002d0: 89e4 a8bd 2c47 4c3e 5dcd cd3d 70ac 923e
000002e0: e008 f23d d00c 533c 520d 7dbe 0490 3abe
000002f0: 609e d6be f7e4 09bf de44 093c 9e75 5f3d
00000300: 9abe f9bc cc40 91bd e70c b03d 410e 0bbe
00000310: 91d1 9a3c 20e0 053e 93ff d33d a266 a33e
00000320: d7d0 9abc e666 893d 4cb8 3ebd 7aa2 f2bc
00000330: f642 033e 2afd a5bc e8bf af3d c3db 593e
00000340: 40c1 8f3e 342e b03e f659 15bd dd35 33be
00000350: 9044 41be 8c9e 69be ba50 21bf 5d99 e33d
00000360: 75b0 08bd b3cd b3bc ae61 08be 65c1 e9bd
00000370: 6573 e1bd 39f1 363d 0d1e b63d d554 d73d
00000380: 7440 773e f60c 87be 29ed 6bbd bb11 8bba
00000390: 49bc af3d 1469 89bd e7f6 c5bd d5c4 773d
000003a0: c26f cb3d 32da 403e 9b16 b53c c5b7 ee3d
000003b0: 2d51 5f3d dede 0a3e 2b1c 1fbd 9cc1 c2bb
000003c0: 83fd 7e3e e926 d03d 3375 82bc 808e d6bd
000003d0: 7d04 783d 7c27 983e 99c5 353e 7473 6ebc
000003e0: 8b66 8cbc a24f 57be f603 bebd 970a 3f3d
000003f0: 7882 d43d 486e 4b3e 1974 f13c a458 31be
0.02000577 -0.20610254 -0.12213915 0.2911246 -0.13275877 0.12088804 -0.012045294 -0.4657003
-0.051575467 0.31796333 -0.02891857 0.32227898 -0.10919611 -0.33125752 0.0016216987 -0.042072617
0.09021333 0.30073944 0.059122533 -0.070597716 0.046902705 -0.08979206 -0.0031714684 0.14453141
0.11295427 0.027204495 -0.17233299 0.047587793 0.27412236 0.056213517 0.18554664 0.08293571
-0.30516717 0.0048484025 0.4538393 0.2275086 0.2892337 -0.077727616 -0.36126974 0.15163074
-0.21541524 0.28031194 0.26118702 0.07189557 -0.19029708 -0.09567677 0.07132049 0.07604625
0.13727294 0.20340145 -0.042402435 -0.1386365 -0.051430695 0.20706908 -0.11866477 0.08138098
-0.044479407 -0.49478358 -0.14910029 0.19677173 0.08909486 0.25436005 -0.22042564 -0.5760901
-0.113646254 -0.04320361 0.2290274 0.18550135 -0.16561048 -0.34622094 -0.15456001 0.020764418
0.02773482 -0.09692388 -0.12299041 -0.0875564 0.10990777 -0.029647067 -0.088659115 0.047460984
0.026637794 0.09130483 -0.2776537 -0.099660054 0.29477188 0.034362234 0.2953719 -0.43120888
-0.3138754 0.42217693 -0.15201126 0.16985314 -0.15140334 -0.25398383 0.40761858 0.02554328
0.112998 -0.036393892 -0.20008768 0.20121326 0.064187065 0.18169798 -0.21645464 -0.032828707
0.011754912 0.09823927 0.30156657 -0.32824776 -0.30874762 0.14031585 0.22058539 0.33611307
-0.39614385 -0.45529962 0.32553682 0.1425762 0.21549918 -0.26761052 -0.53740793 0.22241327
-0.035880595 0.13825567 0.07834407 -0.30539083 0.07287795 -0.058602143 0.14009501 -0.017362883
-0.16173412 0.030664984 -0.011828053 0.3166306 -0.29843748 -0.16933812 0.22594947 -0.047700893
0.34746927 -0.4015378 -0.28350917 0.40932968 0.121503584 0.32871684 -0.2834257 -0.32242295
0.27888954 -0.096397415 0.09150745 0.07017922 -0.22562297 0.05590837 0.036154833 0.11717166
0.14821973 -0.07824952 0.06436616 -0.17483096 0.011276636 0.024434922 0.18259415 -0.060008667
-0.021978918 -0.07139663 -0.4311413 -0.4718516 -0.5594805 0.20387779 0.008954802 -0.0074891006
-0.030339634 0.32095543 0.03550279 0.10931175 0.34277973 0.14198057 0.43151528 0.031229272
0.05640204 -0.115139484 -0.046076078 0.06250776 -0.082467146 0.19949025 0.100489356 0.28647184
0.11818099 0.012881473 -0.24712113 -0.18219 -0.41917706 -0.53865 0.008378236 0.054555528
-0.030486394 -0.07092437 0.08596211 -0.13579656 0.018898757 0.13073778 0.10351481 0.3191424
-0.01889841 0.067090794 -0.046562478 -0.02961849 0.12818512 -0.02026232 0.08581525 0.21275239
0.28077126 0.3441025 -0.036462747 -0.17501016 -0.18873811 -0.22814387 -0.63013804 0.11113236
-0.033371408 -0.021948671 -0.13318512 -0.1141384 -0.11008338 0.04466364 0.088924505 0.10514227
0.2414568 -0.26377076 -0.05759922 -0.0010610142 0.085808344 -0.06709495 -0.096662335 0.060490448
0.099334255 0.18833235 0.022105506 0.11656145 0.054520775 0.1356158 -0.038845222 -0.00594349
0.24901395 0.101636715 -0.015925026 -0.104763985 0.060551155 0.29717624 0.17751159 -0.014553893
-0.01713874 -0.21026471 -0.09278099 0.04664096 0.103764474 0.19866288 0.029474305 -0.1731897

conv1.bias f4 [6]
00000000: f3b1 59be 4baf a1bd 86c9 1bbe 26b5 323f
00000010: cd03 b23e c6c8 84bf
-0.21259288 -0.078947626 -0.15213594 0.6980766 0.34768525 -1.0373771

conv2.weight f4 [16, 6, 5, 5]
00000000: 8018 8b3c 8ef6 77bc 431a 1cbe afb6 72be
00000010: f41e 9bbe d982 8b3d 7785 08be 34bb 70be
00000020: 3b5b 5abe 7b43 5bbe 7415 5f3e 7947 913b
00000030: 3811 87be c092 8cbe b74c aebe 879f 023f
00000040: ab74 9f3e 4e81 8d3d a322 7dbe d0ce bbbe
00000050: caa5 ad3e 374f ba3d 887b 4ebd 8d4b 82be
00000060: 80ba 39bc a19e 56bc f670 06bd f21d 78bd
00000070: 5037 92bc 92e2 5cbe 8731 253e 4178 34be
00000080: 1cb4 72be 0f55 8cbe 357d 973d 78c0 b3ba
00000090: 3dff 9fbd 39b2 c8bd a50c 8bbe 375e 8c3e
000000a0: 4cdd 71bd 7b1c eabd f550 02be 63cf 1d3e
000000b0: 59e7 993e aec5 dcbb 4518 2ebe e024 40bd
000000c0: 625c 333e 5a28 60bd d654 b2be 1e4a 17bd
000000d0: 38d6 96bd aca9 cebd f5d8 7bbd 4916 f6bd
000000e0: 972c 1dbe c31b 07be 075e 80be d8ae 0e3e
000000f0: 9009 02be 7afd 8e3d d90e 26bd 5187 16bd
00000100: 96cf 0b3d 8084 eabd d451 1d3e 845c 09bd
00000110: 398f ffbd e03a 43bb 93d0 aabd ad58 efbc
00000120: c592 0dbe 6a53 0d3e c994 e23c 6a52 223d
00000130: 381c f23d 85c6 293e 86e5 b53d edbd f53d
00000140: 1213 6c3e c5de 34bd 6e83 053c 7f46 b5bd
00000150: c375 7d3e 034b 4e3e 8fe0 183e 4bca 9bbc
00000160: 7a97 073e e93e 4a3e 61a0 933d a4db 2c3e
00000170: f549 083e 3c68 4c3e 8ede 19be 58bb fdbd
00000180: 8564 903e 2c1b b63e 72cc 38be 12cc 98be
00000190: 0ca8 debd 2298 3cbe 9ec8 9bbe f9f3 22be
000001a0: 53a3 48bd 491e 5e3d d18b 4dbe bf57 79be
000001b0: 5cf8 a9bd 31b9 603d f436 903e a67b c73d
000001c0: dbc4 9dbc dac2 14bd 5118 f33c d371 9c3e
000001d0: 54dd 123e 6550 39bd 7483 0ebe 3bfb adbd
000001e0: 513d 9bbb 4733 6bbd 0cd1 4ebe c37d 90be
000001f0: 29ac 3bbc b622 d2bd fbab 80bd bcd8 09be
00000200: 9ed0 89bd 06ca ea3a 90be 98bd 0092 94bc
00000210: e6cf 26bd 6308 ebbc b0cc 1ebe bd1d b5bd
00000220: 364b 003e 0a80 e43d 1035 1a3a 627f dbbd
00000230: dc18 86bc 973c 713e 6b0f 063e 3433 333d
00000240: cd52 9abc 1c71 303d cfac b33d 92ac 2e3e
00000250: d20c febc 15ed 543e 6fd2 20bb eb4c 7fbb
00000260: 321c 95bb a897 99bb 4de8 4ebb 6ae5 7bbb
00000270: 66cb 58bb 9ccc 80bb 93d1 83bb 7a54 3abb
00000280: 8a77 6cbb d177 9fbb e8df 7ebb dfb9 5cbb
00000290: e46f 5abb 52e0 28bb ef3e 28bb ef66 8ebb
000002a0: 6f90 cbba 6856 87bb 93ea 48bb f005 31bb
000002b0: 831c 76bb eef3 efba 3d5e 8bbb e0e1 cbbb
000002c0: 95fb fbbb 5653 a9bb 4968 b0bb 3dc2 7ebb
000002d0: 651f cabb 65e9 03bc 90fe 9fbb b041 01bb
000002e0: a1c3 a0ba 0612 90bb e348 e6bb c245 c3bb
000002f0: d846 cf3a 0ddf 6dbb 7e62 89bb a9e7 60bb
00000300: 8ae2 00bc 47bc 133b 2ff7 8bbb b65c 9bbb
00000310: 974d 99bb 83a9 00bc 3944 8cba 7f4d cd37
00000320: f976 62bb bbda 27bb 1877 44bb 6ec3 47bb
00000330: cfbf 8cbb 0d33 7abb 5dc5 41bb cc6a 23bb
00000340: 576e 57bb cc11 87bb b2fb 53ba 923d 3eba
00000350: 0a59 c4ba 7eb8 3cbb 6704 caba 7810 693a
00000360: 9ce7 d23a 525e 3d3a 13a2 5538 fdd7 c638
00000370: 50c1 13ba e4cc 04ba c3b9 6bba 6a11 b7ba
00000380: 6427 8bbb e99b e0b9 1bf4 0fb9 dc01 efb9
00000390: 8846 ccba bbae afba 5480 83b9 51b7 3db8
000003a0: 394d 8db8 a910 07ba 7f03 37ba 695c 6eb9
000003b0: 4714 13b7 97e4 2eb8 24c9 91b8 f69e 42ba
000003c0: 77cf 5ab9 197d 37b9 2e08 a8b9 09a2 92b9
000003d0: 492b 8aba e05d fbb9 a421 97b9 879f 50b9
000003e0: e8bd 87b9 affc dab9 08c2 1dbc 23a2 d9bb
000003f0: c3e6 c5bb 43e9 b6bb 4b3f d5bb 16ab 29bc
0.016979456 -0.015134467 -0.15244393 -0.23702501 -0.30297053 0.068120666 -0.13332163 -0.23508912
-0.21323864 -0.2141246 0.21785527 0.004433569 -0.26380324 -0.2745571 -0.34042904 0.5102467
0.31143698 0.069094285 -0.24720244 -0.36681223 0.3391555 0.0909714 -0.050410777 -0.25448266
-0.011335969 -0.0130993435 -0.03282257 -0.060575433 -0.01784864 -0.21570805 0.16132174 -0.17623998
-0.23701519 -0.27408645 0.07396928 -0.0013713976 -0.07812355 -0.09799618 -0.27158085 0.2741563
-0.059048936 -0.114312135 -0.12726195 0.15411143 0.30059317 -0.0067374324 -0.17001446 -0.046910167
0.1751571 -0.054725982 -0.3483035 -0.036935918 -0.07365078 -0.10090956 -0.061486203 -0.12015969
-0.15349041 -0.13194184 -0.25071737 0.13933885 -0.1269896 0.069819406 -0.040541504 -0.03675014
0.034133516 -0.114510536 0.15363246 -0.033535495 -0.124784894 -0.002978973 -0.083405636 -0.029217089
-0.1382552 0.13801351 0.027658837 0.039629377 0.118217885 0.16579635 0.08881669 0.11999116
0.2305415 -0.044157762 0.008149011 -0.08851337 0.24751954 0.20145802 0.14929412 -0.01901736
0.13241377 0.19750561 0.07208324 0.16880661 0.13309462 0.19961637 -0.15026304 -0.123892486
0.2820169 0.35567605 -0.1804674 -0.29843193 -0.10871896 -0.18417409 -0.30426496 -0.1591338
-0.048983883 0.0542281 -0.20072867 -0.24349879 -0.08299324 0.054864112 0.28166926 0.09740381
-0.019258907 -0.036318637 0.02967468 0.3055559 0.14342242 -0.045242686 -0.13917333 -0.08495184
-0.004737534 -0.05742195 -0.20196933 -0.2822095 -0.01145462 -0.10260527 -0.06282803 -0.13461584
-0.06729244 0.0017912991 -0.07458222 -0.018136024 -0.04072561 -0.028690523 -0.1550777 -0.08843563
0.1252869 0.11157234 0.0005882541 -0.10717656 -0.016369276 0.2355827 0.13091819 0.043750003
-0.01883831 0.04307662 0.08773195 0.17058018 -0.031011973 0.20793565 -0.002453949 -0.0038955759
-0.0045504803 -0.0046872683 -0.0031571568 -0.0038436302 -0.003308022 -0.0039306413 -0.004022786 -0.00284317
-0.0036081993 -0.004866578 -0.0038890783 -0.0033680124 -0.0033330852 -0.002576847 -0.0025672277 -0.0043457667
-0.0015530715 -0.0041301735 -0.0030657395 -0.0027011596 -0.0037553615 -0.001830695 -0.0042531774 -0.0062219948
-0.007689903 -0.005167405 -0.0053835255 -0.00388731 -0.0061682933 -0.008051251 -0.004882641 -0.001972299
-0.0012265333 -0.00439668 -0.0070277317 -0.0059592435 0.001581396 -0.0036296279 -0.0041926494 -0.0034317768
-0.007866511 0.0022542642 -0.00427141 -0.0047412766 -0.004678439 -0.007852915 -0.0010701484 2.4473991e-05
-0.0034555777 -0.0025612551 -0.0029978212 -0.0030481475 -0.0042953263 -0.0038177401 -0.00295671 -0.0024935482
-0.0032872164 -0.0041219946 -0.0008086517 -0.00072570995 -0.0014980149 -0.002879649 -0.0015412689 0.00088906987
0.0016090753 0.00072238327 5.09341e-05 9.481607e-05 -0.0005636411 -0.00050659315 -0.0008992219 -0.0013966982
-0.004246639 -0.00042840771 -0.00013728479 -0.00045587018 -0.0015584985 -0.0013403514 -0.0002508188 -4.5231838e-05
-6.737788e-05 -0.0005152324 -0.0006981417 -0.00022731874 -8.766604e-06 -4.1697724e-05 -6.951604e-05 -0.00074242
-0.00020867387 -0.00017498842 -0.0003204955 -0.00027968016 -0.0010541464 -0.00047944393 -0.0002882603 -0.00019895854
-0.00025890698 -0.00041768464 -0.00962878 -0.0066416427 -0.006039472 -0.005582006 -0.0065077893 -0.0103557315
