saves/lenet5/cifar10/new_run/logs_lt_pp68x3_seed4_co2False_cifar10.pt (torch, 764811 bytes, 30 tensors)

conv1.weight f4 [6, 3, 5, 5]
0	0xbe3c4f8e	-0.18389723
1	0xbbbb0c64	-0.005708264
2	0xbd03254f	-0.032018002
3	0xbcf6fc00	-0.03014946
4	0x3e01b7d1	0.12667777
5	0x3dbfc24a	0.093632296
6	0xbe0415f2	-0.12898996
7	0xbc8efb62	-0.017453853
8	0x3de1f380	0.11032772
9	0xbd80c9ac	-0.06288466
10	0x3d14e7f5	0.036354024
11	0xbd8361a3	-0.06415107
12	0xbcdde53e	-0.02708685
13	0x3e02e2e0	0.12781858
14	0xbd0263e6	-0.03183355
15	0x3bec8ed7	0.0072191763
16	0xbdbb4878	-0.09144682
17	0xbcc2371a	-0.023707915
18	0x3d4394a4	0.047749177
19	0x3e30853d	0.17238326
20	0x3d5884fd	0.052861203
21	0xbd2d0267	-0.04223862
22	0x3dbc894a	0.09205873
23	0xbdaf7051	-0.085663445
24	0x3da406b2	0.080090895
25	0x3bc80c8a	0.0061050104
26	0xbd93961a	-0.07206364
27	0x3da2a158	0.0794093
28	0x3e1b4e89	0.15166678
29	0x3d86a667	0.065747075
30	0xbdada106	-0.084779784
31	0xbe3f1c4b	-0.18663137
32	0x3dd1b70f	0.10239994
33	0x3da4ac6e	0.08040701
34	0x3cd153be	0.025552627
35	0xbde723c8	-0.112861216
36	0xbd57182e	-0.052513294
37	0xbdf502a6	-0.11963396
38	0xbdee91c5	-0.11648897
39	0xbe10c7b2	-0.14138678
40	0x3d080768	0.03321019
41	0xbd9bcf54	-0.07607904
42	0xbe341ee2	-0.17589906
43	0x3e34ec06	0.17668161
44	0x3d3442e5	0.044009108
45	0xbc842faa	-0.01613601
46	0x3d07035e	0.032962196
47	0x3d2e354c	0.042531297
48	0x3e1dff74	0.15429479
49	0x3bb5c377	0.005546983
50	0x3e1495de	0.14510295
51	0x3d6568b4	0.056008056
52	0x3e28572d	0.16439505
53	0x3e09be3b	0.13451473
54	0x3c064928	0.008196153
55	0x3999e24c	0.00029351038
56	0xbe1e96c9	-0.15487207
57	0xbe773a5f	-0.2414336
58	0xbdde5c15	-0.10857407
59	0xbd1c0dcc	-0.038099095
60	0xbd8e9d6c	-0.069636196
61	0xbc046896	-0.008081576
62	0x3e5b8eb3	0.21441154
63	0x3dc9c9d4	0.09852949
64	0xbe532280	-0.2061863
65	0xbd711a9e	-0.058863275
66	0xbd9d0c46	-0.076683566
67	0x3c8fb501	0.017542364
68	0xbe5e641c	-0.21717876
69	0xbe247449	-0.16059984
70	0x3c99506b	0.018715104
71	0x3d2f7760	0.042838454
72	0x3dbf93bd	0.09354351
73	0x3e76a83e	0.24087617
74	0xbc835b1a	-0.016034652
75	0x3d7dd98c	0.061975047
76	0xbd9bc528	-0.07605964
77	0xbe298d4e	-0.1655781
78	0x3d8166f9	0.063184686
79	0x3c950e95	0.01819543
80	0xbda16a0d	-0.07881556
81	0xbd177cb6	-0.036984168
82	0xbbb3ea65	-0.0054905885
83	0xbdb59320	-0.088659525
84	0xbda77d8c	-0.08178243
85	0xbdca086e	-0.09864889
86	0x3c38590f	0.011251702
87	0xbd051041	-0.032486204
88	0x3dc80272	0.097660914
89	0xbc4ce66d	-0.01250611
90	0xbdb5925d	-0.08865807
91	0xbe129429	-0.14314331
92	0x3c26e7d1	0.010187105
93	0xbcbeb7df	-0.023281036
94	0xba5f324a	-0.00085142686
95	0xbd010685	-0.031500358
96	0xbc99fea0	-0.018798172
97	0xbd862a6f	-0.06551062
98	0xbced644b	-0.028978487
99	0x3c166689	0.00917972
100	0x3c13149e	0.0089770835
101	0x3914dd02	0.00014196712
102	0x3d8d7ac5	0.06908182
103	0xbe151c52	-0.14561585
104	0x3dcb637b	0.09931084
105	0xbdff07b6	-0.124526426
106	0x3bff8e33	0.007798934
107	0xbda71da5	-0.08159951
108	0xbdc61ed9	-0.096738525
109	0x3d5c7b9b	0.053828817
110	0xbdd9592f	-0.106127135
111	0x3dcf2315	0.10114113
112	0xbe489e1c	-0.19591564
113	0xbd848a81	-0.0647173
114	0x3da255c8	0.07926518
115	0x3d2c47a3	0.042060506
116	0x3d5aef29	0.053450737
117	0xbd29f279	-0.041491006
118	0x3c4308c2	0.0119039435
119	0xbe6fb8af	-0.23410295
120	0xbdf1f347	-0.118139796
121	0x3cd35a05	0.02579976
122	0x3e697ec9	0.22802271
123	0x3d74892b	0.059701126
124	0xbd6a4d2a	-0.057202496
125	0x3cc37aca	0.023862261
126	0x3db06bae	0.08614288
127	0x3d8f3065	0.069916524
128	0xbcaa7006	-0.02080537
129	0x3d91f6dc	0.07127163
130	0x3da9dadb	0.082936965
131	0xbd06d5e1	-0.032918815
132	0xbd37c8ab	-0.044869106
133	0x3d8d2714	0.06892219
134	0x3ccf9bc3	0.025342828
135	0x3d3a92cd	0.045550156
136	0xbdb8d1d0	-0.090243936
137	0xbdfe4c71	-0.12416924
138	0xbd9c1beb	-0.076225124
139	0x3dad9520	0.08475709
140	0x3db5ceda	0.088773444
141	0x3dfc5c0d	0.12322245
142	0xbc0c8125	-0.008575712
143	0xbcfa0641	-0.03052056
144	0xbdeb9aa7	-0.11504107
145	0x3e3014ef	0.17195486
146	0x3de483c5	0.111579455
147	0x3d35ef02	0.04441739
148	0x3cb96638	0.02263175
149	0xbdc33b37	-0.09532779
150	0xbe3ecced	-0.1863286
151	0xbcb11e21	-0.021620812
152	0x3d8489a5	0.06471566
153	0x3d720a56	0.05909189
154	0xbdd1e5a7	-0.10248881
155	0xbd60a558	-0.054845184
156	0x3e0fac40	0.14030552
157	0x3e17a79b	0.1481003
158	0x3c7d9101	0.015476466
159	0xbdce2bcd	-0.10066948
160	0xbbd15fe6	-0.006389606
161	0xbda0caa0	-0.07851148
162	0xbdf7a1c6	-0.12091403
163	0x3d8f8afc	0.07008931
164	0xbd901b22	-0.07036425
165	0x3e4c940c	0.1997835
166	0x3dcc306c	0.09970173
167	0xbb542811	-0.0032372514
168	0x3de24837	0.1104893
169	0xbdc78f78	-0.09744161
170	0xbdee1aa7	-0.11626177
171	0x3b00baa8	0.0019642506
172	0xbe071a31	-0.13193585
173	0xbd01e359	-0.031710956
174	0x3c72f642	0.01482922
175	0xbded2ae3	-0.115804456
176	0xbddc896a	-0.10768397
177	0x3d947a56	0.07249896
178	0xbd9d8b54	-0.0769259
179	0x3d89426d	0.06702123
180	0x3df43170	0.11923492
181	0xbe2b7e31	-0.16747357
182	0x3d1a272e	0.03763502
183	0x3dffd1e9	0.12491209
184	0xbd10d3a5	-0.03535809
185	0xbe3d795f	-0.1850333
186	0x3dbdfaff	0.09276389
187	0xbd8ccd70	-0.068751216
188	0xbdace5cd	-0.084422685
189	0xbc20e146	-0.009819334
190	0x3ddf3169	0.10898096
191	0xbe0caa50	-0.13736844
192	0xbc475673	-0.012166607
193	0xbdcbbb70	-0.0994786
194	0xbd87befb	-0.066282235
195	0x3d0684df	0.03284156
196	0xbda1b601	-0.078960426
197	0x3dabbb88	0.08385378
198	0x3c823ac7	0.015897168
199	0x3dd0e49a	0.10199852
200	0x3e0aa019	0.13537635
201	0xbca5c1b8	-0.020233974
202	0x3da612ea	0.08109076
203	0x3d677280	0.05650568
204	0x3e0ff1ec	0.1405713
205	0xbd837d45	-0.06420378
206	0xbdc69165	-0.096957006
207	0x3d8717e4	0.06596354
208	0xbdc04397	-0.09387892
209	0xbcdf177c	-0.027232878
210	0xbd4eabcf	-0.05045682
211	0x3d9c84c9	0.07642514
212	0x3de4095d	0.111345984
213	0x3e307c7c	0.17234987
214	0xbcfeb98b	-0.031094333
215	0x3e0ac611	0.13552119
216	0x3d12e568	0.03586331
217	0x3d13c4e3	0.036076438
218	0x3de274fb	0.110574685
219	0xbd98a49a	-0.0745327
220	0xbd6ab758	-0.057303756
221	0xbe6a9a90	-0.22910523
222	0x3dc4e1c5	0.096133746
223	0xbe51f8e1	-0.20505096
224	0x3db844cd	0.08997498
225	0x3c394e7e	0.011310218
226	0x3df5cdb1	0.12002123
227	0x3d322edf	0.04350173
228	0x3ca8cb19	0.020604657
229	0xbe73f5ab	-0.23824184
230	0xbdfc2d8c	-0.12313375
231	0xbd8437b5	-0.06455938
232	0x3cb1c229	0.021699028
233	0xbc152ab1	-0.009104417
234	0xbde6048c	-0.11231336
235	0x3cc6a487	0.024248375
236	0xbd76686a	-0.06015817
237	0x3e08e657	0.13369118
238	0x3c90e4c0	0.017687201
239	0xbe2f83c7	-0.17140113
240	0x3cf8034d	0.030275011
241	0xbc553d16	-0.013015052
242	0xbdf4a182	-0.11944868
243	0xbcd9267f	-0.026507614
244	0xbdb92669	-0.09040529
245	0xbd955ef6	-0.07293503
246	0x3e933188	0.28748727
247	0xbd893535	-0.066996016
248	0xbe122066	-0.14270172
249	0xbda12652	-0.07868637
250	0x3e0b52d1	0.1360581
251	0x3c1a484c	0.009416651
252	0x3d1b3168	0.037888914
253	0xbde40f0a	-0.11135681
254	0x3dafd697	0.08585852
255	0xbdd04126	-0.10168676

conv1.bias f4 [6]
0	0xbf684fdf	-0.90746874
1	0xbad80395	-0.001648056
2	0xbf79050c	-0.97273326
3	0xbf91343a	-1.1344063
4	0xbf22096a	-0.63295615
5	0xb8988357	-7.272389e-05

conv2.weight f4 [16, 6, 5, 5]
0	0xbcc653a3	-0.024209803
1	0x3d4fbcf1	0.050717298
2	0xbdb2224d	-0.086979486
3	0xbbef53e5	-0.007303702
4	0x3d0e647f	0.03476381
5	0x3c4d3b20	0.0125263035
6	0x3ce207fa	0.027591694
7	0x3b9fb3de	0.0048737368
8	0x3e10adb4	0.14128762
9	0x38b3348b	8.545172e-05
10	0xbd86ddc0	-0.06585264
11	0xbc09cdd8	-0.008410893
12	0x3d070e19	0.03297243
13	0x3dfd849e	0.1237881
14	0x3cc8f4b4	0.024530746
15	0xbcaecd54	-0.021338142
16	0x3d8cb82a	0.06871064
17	0x3d43b9a3	0.04778446
18	0x3e03beb4	0.12865716
19	0xbda9700a	-0.08273323
20	0xbd791205	-0.0608082
21	0xbd031e5f	-0.032011386
22	0x3d2c375e	0.04204499
23	0x3c7ec39e	0.015549568
24	0xbc08485f	-0.008318036
25	0x3cb1ce6b	0.021704873
26	0xbd159c7f	-0.0365262
27	0x3da9f0c5	0.08297876
28	0xbdfa458a	-0.12220295
29	0xbc002ec0	-0.007823646
30	0xbd899718	-0.06718272
31	0x3e02a52d	0.12758322
32	0x3a978c8c	0.0011562272
33	0xbd797fe4	-0.06091298
34	0xbd24a278	-0.040194005
35	0x3d59da5d	0.053186763
36	0x3d3d7a8f	0.04625946
37	0x3cb31818	0.021862075
38	0xbc702c76	-0.014659038
39	0x3b3aa321	0.002847858
40	0x3c4b8b52	0.012423353
41	0x3d874e6c	0.06606755
42	0xbd60e563	-0.05490626
43	0xbd5f1d29	-0.05447117
44	0x3cbe1fd4	0.023208536
45	0x3d6a44e3	0.0571946
46	0xbd04455d	-0.032292712
47	0x3dcee571	0.10102356
48	0xbd39ee7d	-0.045393456
49	0xbd2addbc	-0.04171537
50	0x3db05942	0.086107746
51	0x3b0a1f67	0.0021075846
52	0xbdbb5b03	-0.091482185
53	0x3dbceea9	0.09225208
54	0xbd2ebf23	-0.04266275
55	0x3d264ff6	0.0406036
56	0xbbfb02e4	-0.0076602567
57	0x3c50bf00	0.01274085
58	0x3d19f8f3	0.037590932
59	0xbdb045e7	-0.08607083
60	0xbc5c5a09	-0.0134492
61	0xbc3fa174	-0.011696208
62	0x3e23442f	0.15943979
63	0xbda9634b	-0.08270892
64	0xbd957772	-0.07298173
65	0x3c9ba146	0.0189978
66	0xbca0f820	-0.019649565
67	0xbdb29bb6	-0.08721106
68	0x3dafa96b	0.08577236
69	0x3daf2125	0.08551244
70	0xbd7fc9b7	-0.06244823
71	0x3e1f66f9	0.15566625
72	0xbd88aef5	-0.066739954
73	0xbd3e15f1	-0.046407644
74	0xbc89a016	-0.016799968
75	0xbb48ddb0	-0.0030649714
76	0x3d12c574	0.035832837
77	0xbd0c6f27	-0.03428569
78	0xbd63f7b9	-0.05565617
79	0x3c7f0c42	0.015566887
80	0xbd584c9a	-0.052807428
81	0x3d3077bc	0.043082938
82	0x3d4c08e0	0.04981315
83	0xbc87e9ac	-0.016590916
84	0x3bd2b564	0.006430315
85	0x3d12c4f0	0.035832345
86	0xbd56d4b6	-0.05244895
87	0x3d108dc7	0.03529146
88	0x3da1a04a	0.07891901
89	0xbc9ac6e5	-0.018893668
90	0xbcb1b6a2	-0.021693531
91	0xbd58f210	-0.052965224
92	0xbd65988d	-0.056053687
93	0xbd79753e	-0.060902826
94	0xbc4dd787	-0.012563593
95	0x3dcc9078	0.09988493
96	0x3cac7682	0.021052603
97	0xbd25d98a	-0.040490665
98	0xbdcd1650	-0.100140214
99	0xbd3d0976	-0.0461516
100	0x3d0cf768	0.034415632
101	0xbc667b47	-0.014067478
102	0xbd2e4648	-0.042547494
103	0xbcd52ef3	-0.026023364
104	0xbd9e2915	-0.077226795
105	0x3d7a9364	0.06117572
106	0x3d855aff	0.06511497
107	0xbc9ba7ed	-0.019000972
108	0xbcdaa645	-0.026690612
109	0xbd2e8706	-0.042609237
110	0x3bb0d8ec	0.005396953
111	0x3bdb0f32	0.006685161
112	0xbd28d84f	-0.041221913
113	0x3db3286c	0.08747944
114	0xbcd85692	-0.026408467
115	0x3d27aa62	0.040933974
116	0xbdd961a5	-0.10614327
117	0x3d548ef7	0.051894154
118	0xbb39a90f	-0.0028329527
119	0xbdfca527	-0.12336188
120	0x3d45ba88	0.048273593
121	0x3ca5513d	0.020180339
122	0x3d6546af	0.055975612
123	0x3c6a063b	0.014283712
124	0xbc86a8d3	-0.016437924
125	0xbcd8bd09	-0.026457326
126	0x3d83748b	0.06418713
127	0x3bceb5a6	0.0063082753
128	0x3d2bd86b	0.04195444
129	0xbddd9dc6	-0.108211085
130	0x3d61c1d9	0.05511651
131	0x3b954241	0.004555017
132	0xbc169494	-0.009190697
133	0x3d20d778	0.039267987
134	0xbdaf1e59	-0.0855071
135	0x3dc6202a	0.096741036
136	0x3d2c656b	0.042088907
137	0xbd396a7a	-0.04526756
138	0xbc90a9e6	-0.017659139
139	0x3bd99661	0.006640241
140	0xbcb96be0	-0.022634447
141	0x3d5c6c98	0.0538145
142	0xbd8f4cbf	-0.0699706
143	0xbc8ce1b6	-0.017197471
144	0x3dd5f816	0.10447709
145	0xbdded80a	-0.1088105
146	0xbb323b63	-0.0027196042
147	0x3d4be3d4	0.04977782
148	0x3be5d1ba	0.0070135267
149	0xbdfab4c1	-0.12241507
150	0x3d430e40	0.04762101
151	0xbd81081b	-0.06300374
152	0x3a729a16	0.0009254528
153	0xbdb9223c	-0.09039733
154	0xbd815031	-0.063141234
155	0x3d8bf76d	0.06834302
156	0x3dbc9a35	0.092091
157	0xbd312373	-0.043246698
158	0x3cd9e814	0.026599921
159	0xbc93f043	-0.018058902
160	0x3bc35a32	0.00596168
161	0xbd1b2d8d	-0.037885237
162	0xbe10a518	-0.14125478
163	0x3d866845	0.065628566
164	0x3d92b23a	0.071629
165	0x3dcc2dbb	0.0996966
166	0xbcd874d8	-0.026422903
167	0xbdc7d4cd	-0.097573854
168	0xbcdcd3ae	-0.026956405
169	0xbb219e66	-0.0024661063
170	0xbcd21a7e	-0.025647398
171	0x3cacf57c	0.02111315
172	0xbb219e6f	-0.0024661084
173	0xbcfa0e99	-0.030524539
174	0xbdcd3618	-0.10020083
175	0x3da133dd	0.0787122
176	0xbceaa283	-0.028641945
177	0x3cacec2a	0.021108706
178	0x3a4fd07a	0.0007927489
179	0xbd6ead05	-0.058270473
180	0x3d02a2e0	0.03189361
181	0x3d00a84b	0.031410497
182	0xbde90592	-0.113780156
183	0xbdc98a08	-0.098407805
184	0x3cc09783	0.023509746
185	0xbd145393	-0.036212515
186	0xbcbb03a9	-0.022828894
187	0x3d42ff07	0.047606494
188	0xbd8c15a2	-0.06840064
189	0xbd9f309b	-0.07772943
190	0x3cfe0f0f	0.03101304
191	0xbb3ee24e	-0.0029126587
192	0xbd15a6f0	-0.036536157
193	0xbca8a268	-0.020585254
194	0xbe2148f2	-0.15750483
195	0xbd3f2959	-0.04667029
196	0xbd8d11ba	-0.06888147
197	0xbc6ba0fe	-0.014381645
198	0xbb07e32c	-0.002073477
199	0xbdc52241	-0.09625674
200	0x3c94bb6b	0.018155774
201	0x3d1fa8e9	0.038979445
202	0x3d5fd231	0.054643814
203	0x3b8d3dd2	0.004310348
204	0xbd5e8be6	-0.054332636
205	0x3d1d4b20	0.038401723
206	0xbde5f4f0	-0.11228359
207	0xbd3e5f48	-0.046477586
208	0xbddb72c4	-0.10715249
209	0xbc703e4e	-0.014663292
210	0x3db6145d	0.08890603
211	0x3dc9e832	0.09858741
212	0xbd6483b9	-0.055789683
213	0xbd092d9f	-0.033490773
214	0xbb69c81c	-0.0035672253
215	0x3c16602b	0.009178202
216	0xbd033c2e	-0.032039814
217	0x3d1915cf	0.037374314
218	0xbcee62d9	-0.029099869
219	0xbdf1fd0d	-0.11815844
220	0xbc4dd21b	-0.0125623
221	0xbc05dd74	-0.008170474
222	0x3b6d5ebd	0.0036219798
223	0x3e02c186	0.12769136
224	0x3d83cd97	0.064356975
225	0x3cabb44e	0.02096
226	0x3ae8a3be	0.0017748994
227	0x3d833354	0.064062744
228	0xbc482607	-0.012216098
229	0x3d6d8d44	0.05799605
230	0x3d3c37a6	0.045951508
231	0xbc4e32e4	-0.012585375
232	0xbdc608ed	-0.09669671
233	0xbcf17b62	-0.029477779
234	0x3d724e1d	0.059156526
235	0xbc5ad2f7	-0.013355962
236	0x3cc2e0da	0.023788858
237	0xbd112963	-0.03543986
238	0x3daa4f47	0.08315902
239	0xbe1248c5	-0.14285572
240	0xbcac0d21	-0.021002354
241	0xbd376cf9	-0.04478166
242	0x3c31bd06	0.010848289
243	0xbcb7ab1e	-0.022420462
244	0xbc12ac0a	-0.00895215
245	0xbd2074fe	-0.039174072
246	0xbce33508	-0.027735248
247	0xbcd67082	-0.026176695
248	0x3e1d9650	0.15389371
249	0xbb7029ea	-0.0036646076
250	0x3d4d1cd5	0.050076324
251	0x3cada221	0.021195473
252	0x3cf826f8	0.03029202
253	0x3bbda6ec	0.005787721
254	0x3dd39f3e	0.103331074
255	0x3d0fc146	0.03509643

conv2.bias f4 [16]
0	0xbe930e3c	-0.28721797
1	0xbe3e7be3	-0.18601947
2	0xbe0131a4	-0.12616593
3	0xbf133466	-0.5750183
4	0xbecd6954	-0.4011942
5	0xbdfa5eb1	-0.12225092
6	0xbf99a641	-1.2003862
7	0xb4419ef2	-1.803235e-07
8	0xbec4036e	-0.38283867
9	0xbb8dd336	-0.004328157
10	0xbe0567fb	-0.13027947
11	0xbed57d88	-0.41697335
12	0xbeef5c5a	-0.46750146
13	0xba3e1bab	-0.00072520477
14	0xbf7b208a	-0.98096526
15	0xbbe56632	-0.007000708

fc1.weight f4 [120, 400]
0	0x3cebbb2a	0.02877577
1	0x3d2c8482	0.042118557
2	0xbd15297a	-0.03641651
3	0xbd0ad4e2	-0.033894427
4	0x3e0b1d09	0.13585295
5	0xbdfa9e9f	-0.12237286
6	0x3d1aaa0c	0.037759826
7	0x3d3b252f	0.045689758
8	0xbd24f824	-0.040275708
9	0xbb516d14	-0.0031955885
10	0x3baf5f2e	0.0053519225
11	0xbc646e77	-0.0139423525
12	0x3d860074	0.06543055
13	0xbc35001e	-0.011047391
14	0x3a09e250	0.00052598584
15	0x3cc49d80	0.024000883
16	0x3dc29c42	0.0950246
17	0x3dd758d0	0.105149865
18	0xbc2cc5aa	-0.010545174
19	0xbd0b3180	-0.033982754
20	0xbc8086fc	-0.015689366
21	0x3d8523d9	0.06500978
22	0xbc4df9f0	-0.012571797
23	0xbb3a3748	-0.0028414298
24	0xbb84a115	-0.004047523
25	0x3d1d9d11	0.03847987
26	0x3c6a276d	0.014291626
27	0x3cf4fcf2	0.02990577
28	0x3a88090a	0.001037867
29	0xbd9e0fd1	-0.077178605
30	0x3d8e0234	0.06934014
31	0x3d0a2b91	0.033732954
32	0xbdeb81b6	-0.1149935
33	0x3d33c97b	0.04389332
34	0x3d246628	0.040136486
35	0x3dab6f14	0.08370796
36	0xbd045004	-0.03230287
37	0xbdabfd01	-0.08397866
38	0x3d07b91b	0.033135515
39	0xbd3de5c4	-0.0463617
40	0x3cd8f2ec	0.026483022
41	0x3b21ff43	0.0024718798
42	0xb8ca15b9	-9.636157e-05
43	0x3ded0aa3	0.115742944
44	0xbbc5c20c	-0.006035095
45	0xbc8748ce	-0.016514208
46	0xbdeb1913	-0.11479392
47	0xbc8168af	-0.015796987
48	0xbccd2fd6	-0.025047224
49	0x3dd02c8a	0.10164745
50	0x3cad946e	0.02118894
51	0x3ba199b9	0.0049316552
52	0x3e11d1f4	0.14240247
53	0x3dafde2e	0.08587299
54	0x3cbb2291	0.022843631
55	0xbd15faea	-0.036616243
56	0x3de4d367	0.11173134
57	0xbd26b365	-0.040698428
58	0x3c837a0c	0.016049407
59	0x3d9295af	0.07157456
60	0x3db54d29	0.08852608
61	0x3ccad75a	0.02476089
62	0x3d4dca80	0.050241947
63	0xbd9e5dd6	-0.077327415
64	0xbd2c83d5	-0.042117912
65	0x3da21671	0.079144366
66	0x3bcdf39e	0.006285145
67	0x3ddf8b6d	0.10915265
68	0x3cbe1602	0.023203854
69	0x3deed23b	0.11661192
70	0x3d768776	0.06018778
71	0x3cb2be42	0.021819238
72	0xbdc555a3	-0.096354745
73	0x3e07d344	0.13264185
74	0xbd090e97	-0.03346118
75	0x3d66a024	0.056305066
76	0xbe056410	-0.13026452
77	0x3aedd5a3	0.0018145334
78	0xbd47f50e	-0.048817687
79	0x3da2e551	0.07953895
80	0xbc7add9e	-0.015311627
81	0x3c0bd66e	0.008535011
82	0xbc8e2164	-0.017349906
83	0x3d0ada76	0.033899747
84	0x3b73b7cb	0.0037188407
85	0xbd1c2fc6	-0.038131498
86	0xbd946ccc	-0.07247314
87	0x3cb5f05a	0.022209335
88	0xbcf47aef	-0.029843776
89	0x3ccbe2b8	0.024888381
90	0x3cd03dd4	0.025420107
91	0xbd0934cb	-0.033497613
92	0xbd8cdbde	-0.06877874
93	0xbd1c805c	-0.03820835
94	0x3d1fbe22	0.038999684
95	0x3dcf669d	0.10126994
96	0xbdc7092d	-0.09718547
97	0xbb639b7e	-0.0034730132
98	0x3d9e6aa8	0.07735187
99	0x3d8f2f71	0.069914706
100	0x3d75769a	0.05992756
101	0x3d189d9a	0.037259676
102	0xbc70a09f	-0.014686733
103	0x3c53bec6	0.012923902
104	0xbd3030b7	-0.043015208
105	0xbd96278d	-0.073317625
106	0xbb4cfc6f	-0.0031278392
107	0x3cd68d3a	0.026190389
108	0xbd53f42e	-0.05174654
109	0x3d400648	0.04688099
110	0xbd61118e	-0.054948382
111	0x3cee3d10	0.029081851
112	0xbbfaaa9a	-0.007649732
113	0x3d36deba	0.044646002
114	0x3c45b6c6	0.012067502
115	0xbcd60113	-0.02612356
116	0x3d79b874	0.060966924
117	0xbd0db453	-0.0345958
118	0xbd8a6c02	-0.06758882
119	0x3c8f7230	0.017510504
120	0xbc083e48	-0.00831563
121	0x3cb5002f	0.022094814
122	0xbb20ab10	-0.0024516024
123	0xbdb39df0	-0.087703586
124	0xbd88e571	-0.066843875
125	0x3d84e9bc	0.06489894
126	0xbcdc55b9	-0.026896344
127	0xbd0e1da7	-0.034696247
128	0xbd39edda	-0.04539285
129	0x3c896ef6	0.016776543
130	0xbd9f7730	-0.07786405
131	0xbd3701d2	-0.04467947
132	0xbdc5ae44	-0.09652379
133	0xbd73897e	-0.059457295
134	0x3bc8624e	0.0061152345
135	0x3c9e8fbc	0.019355647
136	0xbde904ea	-0.113778904
137	0x3caf206c	0.021377765
138	0xbd51a49b	-0.05118237
139	0x3d20e994	0.039285257
140	0xbc09b5ec	-0.00840519
141	0xbdf4c6a4	-0.1195195
142	0x3cf97331	0.030450435
143	0xbe0e0bd1	-0.13871695
144	0xbde73748	-0.11289841
145	0x3db88d84	0.09011367
146	0x3d95f77e	0.07322596
147	0x3e2e4ea4	0.17022187
148	0x3a3bb914	0.00071610627
149	0x3c5a0f6b	0.01330934
150	0xbd197374	-0.03746362
151	0xbd5ea930	-0.05436057
152	0x3d41c135	0.047303397
153	0xbd3a7fd1	-0.04553205
154	0xbd850989	-0.06495959
155	0x3dd9feec	0.106443256
156	0x3d839195	0.06424252
157	0x3d35910f	0.04432779
158	0x3b016e2a	0.00197495
159	0xbd9b02c1	-0.07568885
160	0xbcde4372	-0.02713177
161	0xbd6f48d4	-0.058419064
162	0x3d04ccac	0.032421753
163	0xbd5145ea	-0.051092066
164	0x3d8fee8a	0.070279196
165	0x3deccd03	0.115625404
166	0x3e11189e	0.14169547
167	0x3d04f695	0.03246172
168	0x3bc378d2	0.0059653306
169	0xbd15f7e5	-0.036613364
170	0xbd89d81b	-0.06730672
171	0x3a9f5cd2	0.00121584
172	0x3d519d9c	0.0511757
173	0xbd763216	-0.06010636
174	0xbd611a5d	-0.054956783
175	0x3d636afa	0.055521943
176	0xbdbb4d66	-0.09145622
177	0xbdaa6261	-0.083195455
178	0xbd868061	-0.06567455
179	0x3d83826d	0.06421361
180	0xbc4c2354	-0.012459595
181	0xbdb8da25	-0.09025983
182	0x3d3c3d30	0.04595679
183	0x3c8bd1bb	0.01706778
184	0x3db2e20c	0.08734521
185	0x3cdbd978	0.026837096
186	0xbd19159c	-0.037374124
187	0x3c8d57d5	0.017253796
188	0x3cdad150	0.026711136
189	0xbc7e0e16	-0.015506288
190	0x3d0fa2d6	0.0350674
191	0x3cbb3245	0.022851119
192	0xbd62a623	-0.05533422
193	0x3b3822e3	0.0028096966
194	0xbd8b7593	-0.06809535
195	0xbbd8d959	-0.0066177067
196	0x3e08269a	0.13295975
197	0x3ca3bd66	0.019987773
198	0xbc287a02	-0.010282995
199	0x3d3d5d38	0.04623148
200	0xbc1eeeee	-0.00970052
201	0xbded79ed	-0.11595521
202	0xbd819644	-0.06327489
203	0xbd5a1f51	-0.053252522
204	0xbcbf11b5	-0.023323873
205	0xbd2f8ebd	-0.042860735
206	0xbc84d392	-0.016214166
207	0xbcf01cd9	-0.02931063
208	0xbde7cfa4	-0.11318901
209	0xbc8e3021	-0.017356934
210	0x3ca385fa	0.019961346
211	0x3c01535c	0.00789341
212	0xbc82955b	-0.015940359
213	0x3c977178	0.018486723
214	0xbd6bad90	-0.05753857
215	0x3d973c90	0.07384598
216	0xbd3f879d	-0.04676019
217	0xbb4eb877	-0.0031543055
218	0xbdab0662	-0.08350827
219	0xbd97b6ac	-0.07407889
220	0xbd6150f5	-0.055008847
221	0x3d812886	0.06306557
222	0xbd509d29	-0.05093113
223	0xbd1df044	-0.038559213
224	0xbd2e6645	-0.042578
225	0xbde44ced	-0.11147485
226	0x3d9ce2f1	0.07660473
227	0xbc3aa17c	-0.01139104
228	0xbbba92bb	-0.005693761
229	0xbd2b3404	-0.041797653
230	0x3d651cca	0.05593566
231	0xbb978d78	-0.0046250187
232	0xbe3dacb4	-0.18522912
233	0x3e046487	0.12928973
234	0xbc697aeb	-0.014250497
235	0x3c53b32b	0.012921135
236	0x3d71cb62	0.05903185
237	0x3d1d312c	0.038376972
238	0xbc8aaa44	-0.016926892
239	0x3d8b6a09	0.06807334
240	0xbc17dae3	-0.009268495
241	0xbdab5479	-0.08365721
242	0x3d1cbff1	0.038268987
243	0xbd9525ce	-0.07282601
244	0xbd14b916	-0.036309324
245	0xbc8b369e	-0.016993817
246	0x3da7cc02	0.08193208
247	0xbdeb3cfa	-0.1148624
248	0x3cc07957	0.02349536
249	0x3d5e8ecd	0.054335404
250	0xbd4ff69d	-0.050772298
251	0x3d6792b1	0.05653638
252	0x3d8cce0c	0.06875238
253	0xbd046497	-0.032322492
254	0xbca26d50	-0.019827515
255	0x3d0532aa	0.03251902

fc1.bias f4 [120]
0	0x821b7df7	-1.1423752e-37
1	0x800c0513	-1.103846e-39
2	0xacc2bd7a	-5.5348478e-12
3	0xbcbe2310	-0.023210078
4	0xa985cb4f	-5.941655e-14
5	0xbc36cb68	-0.011156894
6	0x28878b0a	1.504831e-14
7	0x2bdb7971	1.5594593e-12
8	0x39103939	0.00013754227
9	0xb67c0293	-3.7552425e-06
10	0xb3169e5d	-3.5068627e-08
11	0x2c53e6e7	3.011308e-12
12	0x80008c22	-5.027e-41
13	0x38ebe3fc	0.000112481386
14	0x350909c1	5.105067e-07
15	0xb25d0a42	-1.2866225e-08
16	0xad266a4d	-9.459611e-12
17	0x2a8159d5	2.2977337e-13
18	0xbe1c46cd	-0.15261383
19	0x80043f54	-3.9006e-40
20	0x8008132e	-7.41564e-40
21	0x2938e679	4.105611e-14
22	0x9b856ee5	-2.2074668e-22
23	0x2bc9d43c	1.4340816e-12
24	0x00003b31	2.1234e-41
25	0xabab2a7e	-1.2162075e-12
26	0xbe69af2b	-0.22820728
27	0xb68086db	-3.8303965e-06
28	0x2e9de8a9	7.180862e-11
29	0x132eba76	2.205382e-27
30	0xbcbcba88	-0.023038164
31	0xbdbc7c4d	-0.09203396
32	0xb467d7fd	-2.1592128e-07
33	0xad4bdc6d	-1.1588158e-11
34	0x33c9dae0	9.399605e-08
35	0xbe574d2d	-0.21025534
36	0x384c5650	4.8717775e-05
37	0x85bd2e6f	-1.7790532e-35
38	0xbda4dcda	-0.080499366
39	0x1c288bce	5.576723e-22
40	0xbb5e0973	-0.0033880144
41	0xa79ec5c0	-4.406821e-15
42	0xa936c007	-4.0578675e-14
43	0x80004046	-2.3057e-41
44	0x2c0764cd	1.924061e-12
45	0x00009112	5.2041e-41
46	0x0006a5ec	6.10535e-40
47	0x000277e9	2.26687e-40
48	0xb8c1d9a7	-9.243498e-05
49	0xb4fb003f	-4.6752572e-07
50	0x2bbfe360	1.3634475e-12
51	0x36445f7d	2.9261857e-06
52	0x25b8948b	3.2019569e-16
53	0x3d5dcd62	0.054150946
54	0xbcbbbd42	-0.022917394
55	0x18274883	2.1620853e-24
56	0xbdad48d0	-0.084611535
57	0x00003529	1.907e-41
58	0x11b3528a	2.829209e-28
59	0xbde2f393	-0.11081614
60	0x164ac329	1.6379012e-25
61	0xaa057e35	-1.185656e-13
62	0x17066c33	4.34343e-25
63	0xbd27001e	-0.040771596
64	0xbdc650db	-0.09683391
65	0xbc7f45a1	-0.015580566
66	0x2e1080b5	3.2856124e-11
67	0x32815daf	1.5060179e-08
68	0x34a98815	3.1577716e-07
69	0x80018c3d	-1.42144e-40
70	0xbd9f8be7	-0.07790356
71	0xbe1630df	-0.1466708
72	0xb4a10b9a	-2.9997028e-07
73	0xbbae1fab	-0.0053138337
74	0x29fc0f50	1.11937044e-13
75	0xbe4aacb1	-0.19792439
76	0x3e170b17	0.14750324
77	0xab9e6a41	-1.1256067e-12
78	0xbf144be9	-0.5792833
79	0x3c99bd12	0.018766914
80	0x00000322	1.124e-42
81	0x15a7d6cd	6.778966e-26
82	0xbd5c5c8f	-0.05379921
83	0x3d9e93bd	0.077430226
84	0xbe210a8e	-0.15726683
85	0x0004a99c	4.28186e-40
86	0x00021410	1.90868e-40
87	0xb3cdc106	-9.581167e-08
88	0x2c858170	3.794458e-12
89	0x80000a47	-3.687e-42
90	0x0000831a	4.703e-41
91	0x99b00ab2	-1.8202293e-23
92	0x23d12d1f	2.2678935e-17
93	0x9d7fe5a6	-3.3867694e-21
94	0xbdc9cd22	-0.09853579
95	0x388ed8a7	6.811442e-05
96	0x309cf535	1.1420186e-09
97	0xb3a4e0e1	-7.67775e-08
98	0xabfb9729	-1.7876578e-12
99	0xadfcf431	-2.8757526e-11
100	0x1b74199c	2.0191482e-22
101	0xbc43098c	-0.011904132
102	0x23c909b3	2.1796571e-17
103	0xbe4def20	-0.2011075
104	0x2a85b92d	2.3754037e-13
105	0xbeebad89	-0.46030834
106	0x8001e355	-1.73387e-40
107	0x2b0712b5	4.7987596e-13
108	0x34c5fe8f	3.6879325e-07
109	0xbcc08733	-0.023501968
110	0x314a9690	2.9480454e-09
111	0x800a01cd	-9.19001e-40
112	0x1a6c61a2	4.8882523e-23
113	0x2fada864	3.1588165e-10
114	0xad4fe1b9	-1.1816708e-11
115	0x0000a1f1	5.8094e-41
116	0x000782ae	6.89728e-40
117	0x131a5a55	1.948207e-27
118	0x00007495	4.1822e-41
119	0xbd94e1f6	-0.07269661

fc2.weight f4 [84, 120]
0	0x3d39743b	0.04527686
1	0xbc3c0ae1	-0.011477203
2	0xbd6564ed	-0.056004453
3	0xbe4c14a3	-0.19929747
4	0x3dc2e17c	0.09515664
5	0x3ca37531	0.019953342
6	0xbe4953cc	-0.19660872
7	0xbd283380	-0.04106474
8	0xbe2b6c20	-0.16740465
9	0xbdfffc47	-0.1249929
10	0x3d6a985d	0.05727421
11	0x3e5d2a2f	0.21598123
12	0x3d1307c6	0.035896085
13	0xbe1248d4	-0.14285594
14	0xbdd68425	-0.10474423
15	0x3d83e56b	0.064402424
16	0xbd6c0b5b	-0.057628017
17	0xbdd8e97a	-0.10591407
18	0x3daf4e18	0.08559817
19	0x3d2e29ab	0.042520206
20	0x3e3317f4	0.17489606
21	0x3cb78316	0.022401374
22	0x3cb7f4ac	0.022455536
23	0x3db10cdc	0.08645031
24	0x3d34cb90	0.044139445
25	0x3ce8c409	0.02841379
26	0xbcfa52ce	-0.030557062
27	0x3e0dd3d8	0.13850343
28	0xbdc72993	-0.097247265
29	0xbd816cb4	-0.063195616
30	0x3d9c4102	0.07629587
31	0xbded5779	-0.1158895
32	0x3d286224	0.04110922
33	0x3d11c264	0.035585776
34	0x3d46493d	0.04840969
35	0x3d9d5c8d	0.07683668
36	0xbe7c7e37	-0.24657522
37	0x3e046282	0.12928203
38	0x3d84701c	0.06466696
39	0x3e4322b1	0.19056202
40	0x3db9773c	0.09055945
41	0xbb9b046c	-0.0047307517
42	0x3c0e7250	0.008694246
43	0x3e4ff02e	0.20306465
44	0xbe89779b	-0.26849064
45	0xbc55b224	-0.01304296
46	0x3c50e680	0.012750268
47	0x3ae5c4fd	0.001753002
48	0xbe347830	-0.17623973
49	0x3dd6cddb	0.104884826
50	0xbccd59b1	-0.025067182
51	0xbbac854c	-0.0052649137
52	0x3b0650c7	0.0020494924
53	0xbd6201ff	-0.055177685
54	0xbd73b6e1	-0.05950058
55	0x3c9d8ac3	0.019231206
56	0xbe0c9863	-0.13730006
57	0x3d0be550	0.034154236
58	0x3dd20517	0.10254877
59	0xbbc685f0	-0.006058447
60	0x3d5d9f6f	0.054107126
61	0xbd0fa578	-0.035069913
62	0x3db37980	0.08763409
63	0x3de4006f	0.11132895
64	0xbe3f79cf	-0.1869881
65	0x39afee69	0.0003355623
66	0xbd96c2d8	-0.07361382
67	0xbdb92b87	-0.09041505
68	0x3d245cc4	0.04012753
69	0x3ce7bd60	0.028288543
70	0x3d77d028	0.060501248
71	0x3e04eeac	0.12981671
72	0x3d1cc45d	0.038273204
73	0x3d8b221b	0.067936145
74	0x3c7b7e0d	0.015349877
75	0x3cf4dcbe	0.029890414
76	0x399ceaf9	0.00029929707
77	0x3d8bc616	0.06824891
78	0x3de27681	0.11057759
79	0x3de35a2f	0.111011855
80	0x3cc19241	0.02362931
81	0x3d2fad92	0.04289014
82	0xbdfaa916	-0.12239282
83	0xbdc1d282	-0.09463979
84	0xbe12e783	-0.14346127
85	0x3deed58f	0.11661827
86	0xbe07ce5f	-0.13262318
87	0x3dd280b0	0.102784514
88	0xbda75a35	-0.081715025
89	0x3e653a1f	0.22385453
90	0xbde141c5	-0.10998873
91	0x3db7e793	0.08979716
92	0x3e2d0dce	0.16899797
93	0xbe100e3c	-0.1406793
94	0x3c66eaa1	0.014094026
95	0xbdd8957d	-0.105753876
96	0x3db4249e	0.08796047
97	0x3be0e499	0.0068631885
98	0xbbb246fe	-0.005440592
99	0xbce0dda0	-0.027449429
100	0x3e1ff7fe	0.15621945
101	0xbbe33766	-0.0069340942
102	0x3d56bdd5	0.05242713
103	0xbcd3debf	-0.02586305
104	0xbe0834a4	-0.13301331
105	0xbe01b11d	-0.1266522
106	0x3da7675d	0.08174012
107	0xbd782b6f	-0.060588297
108	0x3d6a22bc	0.05716203
109	0xbd377d79	-0.044797394
110	0x3df2ccb4	0.1185545
111	0x3d58bff7	0.052917447
112	0x3d5e4821	0.054268006
113	0xbd6d706a	-0.057968535
114	0xbd776cc0	-0.060406446
115	0x3d9061b9	0.07049889
116	0x3e60c2f0	0.21949363
117	0xbe374aeb	-0.17899673
118	0x3cb2a8b5	0.021808961
119	0x3d8feafc	0.070272416
120	0xbd7fe9be	-0.062478773
121	0xbd5a9690	-0.053366244
122	0xbcf47c42	-0.029844407
123	0x3d950584	0.07276443
124	0x3dce4c42	0.10073139
125	0x3d1e2bcd	0.03861599
126	0xbe00b9da	-0.12570897
127	0xbd8e1162	-0.06936909
128	0x3e307819	0.17233314
129	0xbdca2b13	-0.09871497
130	0x3de73561	0.11289478
131	0x3cc19b5a	0.023633648
132	0x3e0060a3	0.12536864
133	0xbda152cd	-0.07877121
134	0x3dd65cc9	0.10466916
135	0x3d793392	0.060840197
136	0xbdf59094	-0.11990467
137	0xbd56bf30	-0.052428424
138	0xbc5a3316	-0.013317844
139	0x3c8447d2	0.016147528
140	0xbe4dfc53	-0.20115785
141	0x3ca3229d	0.019913966
142	0x3da2aa02	0.07942583
143	0xbc1b51ef	-0.009479984
144	0xbd9ef170	-0.07760894
145	0x3d1bc5cc	0.03803043
146	0x3e3efa69	0.18650211
147	0x3d9227b0	0.07136476
148	0xbc833442	-0.01601613
149	0xbc6e2809	-0.014535912
150	0x3e0b05cc	0.1357643
151	0x3cc37708	0.02386047
152	0x3d0a6084	0.03378345
153	0xbe5f43dd	-0.21803232
154	0x3d745b17	0.059657183
155	0x3dcc74ba	0.09983201
156	0xbca8e7a9	-0.020618277
157	0x3e054054	0.1301282
158	0x3db29955	0.08720652
159	0xbaf5ff19	-0.0018768042
160	0x3defaaaf	0.11702477
161	0xbc52ea3e	-0.0128732305
162	0x3e057dc5	0.13036259
163	0x3c862a54	0.016377605
164	0x3c426e16	0.011867067
165	0x3df1591b	0.11784574
166	0x3e1f4479	0.15553464
167	0x3dd0e382	0.10199644
168	0xbce48b9b	-0.0278986
169	0x3e83cd06	0.25742358
170	0x3d8bbbbf	0.06822919
171	0xbd84aeb7	-0.06478637
172	0xbe520d0d	-0.20512791
173	0xbccd086d	-0.025028432
174	0xbd0d57d8	-0.034507602
175	0x3e211f22	0.15734532
176	0x3da22829	0.07917816
177	0xbdc9ed10	-0.09859669
178	0xbe450ef5	-0.19243987
179	0xbd09a8b4	-0.033608153
180	0xbc79465d	-0.01521453
181	0xbd676a3a	-0.05649779
182	0x3ce2321e	0.027611788
183	0x3c7136ed	0.014722568
184	0x3e0d7f0b	0.13817994
185	0x3dea6c54	0.11446443
186	0x3b64ac58	0.0034892764
187	0xbd9e9242	-0.0774274
188	0x3de3f15f	0.11130022
189	0xbd2314e8	-0.03981486
190	0x3db57ee7	0.08862095
191	0xbdf0eb05	-0.117635764
192	0xbd99ddf5	-0.07513038
193	0xbdc0dc00	-0.09416962
194	0x3cc62ac5	0.024190316
195	0xbe4825aa	-0.19545618
196	0xbcf6f6f0	-0.030147046
197	0x3da6e4dc	0.0814912
198	0x3d77259f	0.060338613
199	0xbd45d352	-0.048297234
200	0xbcc1f97e	-0.023678537
201	0x3db79ed0	0.08965838
202	0x3da0049a	0.07813378
203	0xbb95bbbc	-0.004569499
204	0x3dad0f33	0.08450165
205	0x3deff406	0.11716466
206	0x3d8ecfa2	0.069731966
207	0xbdda83c2	-0.10669662
208	0xbd713b7d	-0.058894623
209	0x3cc20c6e	0.023687568
210	0x3c30fcb7	0.010802439
211	0xbdd29970	-0.10283172
212	0xbdfdc6e2	-0.123914495
213	0x3df479b1	0.11937273
214	0x3d5047be	0.05084967
215	0x3d385990	0.04500729
216	0xbe1c913d	-0.15289779
217	0x3c527f17	0.012847683
218	0xbcfc5bc7	-0.030805482
219	0x3dfd1d1e	0.12359069
220	0xbbaa2e10	-0.0051934794
221	0xbde86b37	-0.113485746
222	0xbe3869c9	-0.18009104
223	0x3d3c00c2	0.04589916
224	0xbcb8d8f4	-0.022564389
225	0x3dd396e0	0.103315115
226	0xbce0925b	-0.027413538
227	0x3de8d27d	0.113682725
228	0xbd6e1047	-0.058120992
229	0x3d07ebb6	0.033183776
230	0xbcb43263	-0.021996683
231	0x3df55904	0.11979869
232	0xbc23e528	-0.010003366
233	0x3dd1f957	0.10252636
234	0x3e7903fd	0.24317928
235	0x3d47fc0e	0.048824362
236	0x3d6f1d06	0.05837729
237	0xbd114eaf	-0.03547543
238	0x3e06616b	0.131231
239	0x3ce2c933	0.02768383
240	0xbe0536c7	-0.13009177
241	0xbcb87690	-0.022517473
242	0x3d32c7b6	0.04364749
243	0x3ce1a09d	0.027542407
244	0x3e00dabc	0.1258344
245	0xbe117ace	-0.14207003
246	0xbb9a7b5b	-0.004714412
247	0x3df8577a	0.1212606
248	0x3df78fda	0.120879844
249	0x3db2f559	0.087382026
250	0x3b7397f3	0.0037169426
251	0xbe541c19	-0.20713843
252	0x3e22dde5	0.15904959
253	0x3dd65265	0.10464934
254	0xbcab8f10	-0.020942241
255	0xbe071499	-0.13191451

fc2.bias f4 [84]
0	0xadbc5235	-2.1409633e-11
1	0xbc3575dc	-0.011075463
2	0x3b5c0016	0.0033569387
3	0x302072f0	5.8370997e-10
4	0x800155a9	-1.22565e-40
5	0x2a368eb3	1.6214356e-13
6	0x2b6fa370	8.513667e-13
7	0x288dfe50	1.5764435e-14
8	0xbde4c01d	-0.11169455
9	0xbc3f3691	-0.0116707245
10	0x2d5f838b	1.2705291e-11
11	0x8001118d	-9.8132e-41
12	0xb2aad452	-1.9887157e-08
13	0xb7750524	-1.4604335e-05
14	0xbd0df827	-0.034660485
15	0x28eafe14	2.6089408e-14
16	0x220f13ba	1.9390557e-18
17	0x1e0b078b	7.3601586e-21
18	0xbe08b023	-0.13348441
19	0x3d9cd6c0	0.07658148
20	0xb0da2a13	-1.5873546e-09
21	0x3c3e663f	0.011621057
22	0x2da6744b	1.892366e-11
23	0x9f7e3e62	-5.3838194e-20
24	0x25555f4b	1.8507092e-16
25	0xaa1461c0	-1.3178954e-13
26	0x89887b4d	-3.285676e-33
27	0xb2a1416e	-1.877262e-08
28	0xbe9adab5	-0.30244985
29	0x3d0bc654	0.034124687
30	0xb2815daf	-1.5060179e-08
31	0xa90113b1	-2.8660834e-14
32	0x2a8ff864	2.5574258e-13
33	0x37cfd19e	2.4773934e-05
34	0x80013f94	-1.14643e-40
35	0xbf3db374	-0.7410195
36	0xbc88f40f	-0.016717939
37	0xa6b541fa	-1.2577281e-15
38	0x3e9a0590	0.3008237
39	0x3df1fb7f	0.11815547
40	0x35899b19	1.0252435e-06
41	0x3860c391	5.3587897e-05
42	0x371f04dc	9.47827e-06
43	0x80007398	-4.1467e-41
44	0x3c176a5f	0.009241669
45	0x80004f4e	-2.8449e-41
46	0x3269fb45	1.3619517e-08
47	0xbc99914e	-0.018746044
48	0x800a6ea7	-9.5805e-40
49	0x2911cc36	3.2373592e-14
50	0x3609bb18	2.0523494e-06
51	0x32c1028d	2.2469317e-08
52	0xa9a1db15	-7.187841e-14
53	0x3df9ee62	0.12203671
54	0x80010d7d	-9.6674e-41
55	0xbd19e637	-0.037573066
56	0x3d0b94d2	0.034077473
57	0x00018cd9	1.42362e-40
58	0x8009a68f	-8.8627e-40
59	0x36297ea0	2.5256668e-06
60	0xb802b24f	-3.1160478e-05
61	0x2dc17bb9	2.1996504e-11
62	0xbaf8b80b	-0.0018975748
63	0x800100bb	-9.2098e-41
64	0x284dc828	1.1423188e-14
65	0x00007846	4.3146e-41
66	0x000ff3a7	1.464938e-39
67	0xaf7c9771	-2.2973069e-10
68	0x043fab3b	2.2530567e-36
69	0x3ced131f	0.028939782
70	0xb18a9390	-4.0331045e-09
71	0xab24a726	-5.849647e-13
72	0xbc88ebeb	-0.016714057
73	0x16130549	1.1876233e-25
74	0x800b9a78	-1.065603e-39
75	0x3804cb48	3.1660573e-05
76	0xadafb739	-1.9976564e-11
77	0x1ea968b1	1.793687e-20
78	0x2ce90f3a	6.623949e-12
79	0xa913235e	-3.2671233e-14
80	0xa9342a46	-4.0004695e-14
81	0x3e53e45f	0.20692585
82	0x3c2b9110	0.010471597
83	0xbe68264e	-0.22670862

fc3.weight f4 [10, 84]
0	0x3da783a2	0.08179404
1	0x3b4f693e	0.0031648423
2	0x3e2c4d1a	0.16826287
3	0x3d8278a0	0.06370664
4	0x3b3b553c	0.002858474
5	0x3e0c8575	0.13722785
6	0x3e77c15c	0.24194854
7	0x3d441432	0.047870822
8	0x3ddd10b9	0.10794205
9	0xbe6cd02f	-0.2312629
10	0x3d83861a	0.06422062
11	0x3e7de8f1	0.24795891
12	0x3d8f267f	0.069897644
13	0x3ccce876	0.02501319
14	0xbdf9b1da	-0.121921256
15	0xbe0bdbaf	-0.13658021
16	0x3dea5ab0	0.114430785
17	0x3d9ee395	0.077582516
18	0x3e114fc9	0.14190592
19	0xbd971993	-0.07377925
20	0xbcf0d2be	-0.029397365
21	0xbe91b04b	-0.28454813
22	0x3e354e9d	0.1770577
23	0x3cb77212	0.02239326
24	0x3dc7789f	0.097398035
25	0xbdbd323c	-0.09238097
26	0x3c436e36	0.011928132
27	0xbed3f04f	-0.41394278
28	0xbda41f48	-0.08013779
29	0xb9193033	-0.00014609173
30	0xbe8f12eb	-0.2794412
31	0xbda33cd1	-0.07970584
32	0x3d64e80c	0.05588536
33	0x3ea8b86f	0.32953212
34	0x3def00c4	0.11670068
35	0xbe729782	-0.23690608
36	0xbe8ef79f	-0.27923295
37	0xbeb9eef1	-0.3631511
38	0x3e10bdff	0.14134978
39	0x3d46f1cd	0.048570443
40	0xbb826162	-0.003978894
41	0x3decf691	0.11570466
42	0x3e6ebaad	0.23313399
43	0x3d7ae0fa	0.06124971
44	0x3d6c23da	0.05765138
45	0x3d174150	0.03692752
46	0x3e5f2ae3	0.21793704
47	0xbb840feb	-0.004030218
48	0xbe17546a	-0.14778295
49	0xbe4e326c	-0.20136422
50	0x3e2dc78d	0.16970654
51	0x3d66345a	0.05620227
52	0xbddeef1a	-0.10885449
53	0xbe69d6c4	-0.22835833
54	0x3e2a7bd4	0.16648799
55	0xbd4e11e1	-0.05031002
56	0xbd6b5be2	-0.057460673
57	0xbda2633c	-0.07929084
58	0x3e7ea822	0.24868825
59	0x3eb30d00	0.34970856
60	0x3deef882	0.11668493
61	0xbca5ad7e	-0.02022433
62	0xbe139af9	-0.14414586
63	0xbdb1c501	-0.08680154
64	0x3e13c0da	0.14429036
65	0x3dba4f9f	0.09097218
66	0x3d9584af	0.07300698
67	0x3d943aac	0.07237753
68	0xbe4546a9	-0.19265236
69	0x3b22ecc6	0.0024860366
70	0x3de31a48	0.11088997
71	0xbdef0509	-0.11670882
72	0x3dbc443d	0.09192703
73	0xbde75982	-0.11296369
74	0x3dffce9c	0.124905795
75	0xbe45df32	-0.19323424
76	0xbd3eb224	-0.046556607
77	0x3d31f8d1	0.04345018
78	0x3eb5df04	0.3552171
79	0x3c2b5401	0.01045704
80	0x3e82b1a9	0.2552617
81	0xbdf780e6	-0.12085132
82	0xbce28212	-0.027649913
83	0x3e20e4d3	0.1571229
84	0xbd966c15	-0.07344834
85	0xbc956d55	-0.01824061
86	0x3c89f394	0.01683978
87	0xbdccf73b	-0.10008093
88	0x3e0e6c02	0.13908389
89	0x3e74fa66	0.23923644
90	0x3d8ffb7b	0.07030388
91	0x3da43457	0.080177955
92	0xbb7f9d70	-0.0039003752
93	0xbc5174ef	-0.012784227
94	0x3c9b544c	0.018961094
95	0x3e036f34	0.1283539
96	0xbdfcbe69	-0.12341005
97	0x3dad6c3d	0.084679104
98	0xbe18f90d	-0.14938755
99	0xbe036813	-0.1283267
100	0x3e3ff415	0.18745454
101	0x3e17766f	0.14791273
102	0x3e76ace7	0.24089395
103	0xbd7eedde	-0.062238567
104	0xbd9e1fca	-0.07720907
105	0x3dcb910f	0.09939777
106	0x3df24b81	0.118308075
107	0x3c9ad27e	0.018899199
108	0x3e391127	0.1807295
109	0x3da6bc55	0.0814139
110	0x3d65aa32	0.056070514
111	0x3d1c506f	0.038162645
112	0xbdd72f40	-0.10507059
113	0x3dbf0ed2	0.093289986
114	0xbbc56184	-0.0060235877
115	0x3cc56535	0.02409611
116	0x3e1a02d2	0.15040138
117	0x3e5cf223	0.21576743
118	0x3dbb06d8	0.09132165
119	0xbd0801f0	-0.033204973
120	0xbe0b84e0	-0.13624907
121	0x3d535853	0.051597904
122	0x3e883e1a	0.2660988
123	0x3c128db6	0.008944919
124	0x3d01a3af	0.03165024
125	0xbe703952	-0.23459366
126	0xbdb6c267	-0.08923798
127	0xbccd9b4a	-0.025098462
128	0xbe59ba4d	-0.21262474
129	0xbbe3b7d2	-0.0069494033
130	0x3df1b53e	0.11802147
131	0x3e204813	0.15652494
132	0xbde4e2a2	-0.11176039
133	0xbe800f79	-0.25011805
134	0x3e01c65a	0.12673321
135	0xbd97a549	-0.074045725
136	0x3d8afb14	0.067861706
137	0xbe8835a7	-0.26603433
138	0xbd976a0e	-0.07393275
139	0xbe80c087	-0.25146887
140	0x3ea583d6	0.32327145
141	0xbc642542	-0.013924899
142	0xbc892933	-0.016743278
143	0x3d8150b7	0.06314223
144	0xbdfdcebe	-0.123929486
145	0xbda696be	-0.081342205
146	0x3d382074	0.044952825
147	0x3d6cb84e	0.057792954
148	0xbc84344c	-0.016138218
149	0x3e5052ad	0.20344038
150	0xbecc4e98	-0.39903712
151	0xbe97338f	-0.29531524
152	0x3e9d47a2	0.30718714
153	0xbbcafe11	-0.006194838
154	0xbcf4b38a	-0.029870767
155	0x3e25f956	0.16208395
156	0x3dc19c25	0.0945361
157	0x3ed299ff	0.41133115
158	0x3c2dd84e	0.010610653
159	0xbc263907	-0.010145432
160	0xbdc7bf9e	-0.09753345
161	0x3be71a94	0.007052729
162	0xbd601897	-0.05471095
163	0xbd81e643	-0.06342747
164	0x3ab95651	0.0014140104
165	0x3e843df7	0.25828525
166	0x3d846336	0.064642355
167	0x3e474f7e	0.19463918
168	0xbe99024b	-0.29884562
169	0x3dec66d8	0.115430534
170	0x3d185c31	0.037197296
171	0x3e5d3112	0.2160075
172	0x3e1acf6c	0.15118188
173	0x3dde729b	0.10861703
174	0x3c369320	0.011143476
175	0x3e0d1bda	0.13780156
176	0x3d90bf83	0.07067778
177	0x3e2abe93	0.16674261
178	0xbdd1f452	-0.102516785
179	0xbe959eac	-0.2922262
180	0x3d1f58e4	0.038903132
181	0xbd906662	-0.07050778
182	0x3c31cdf7	0.0108523285
183	0xbe50bc19	-0.20384254
184	0x3c20f87f	0.009824871
185	0x3ee064ad	0.4382681
186	0x3e272b63	0.16325144
187	0xbea57a4f	-0.32319877
188	0x3bc68a79	0.0060589877
189	0xbd9dbc0d	-0.077018835
190	0xbdb7aa4c	-0.089680284
191	0xbe5e7e4b	-0.21727864
192	0xbd2e873f	-0.04260945
193	0x3daa3a77	0.083119325
194	0x3bdac243	0.00667599
195	0x3d89b9b4	0.06724873
196	0x3dd67a15	0.10472504
197	0xbe60979b	-0.21932833
198	0xbcc951c4	-0.024575122
199	0x3d83e7c1	0.06440688
200	0x3ddfb9f1	0.109241374
201	0x3df5b114	0.119966656
202	0xbd0dd7ac	-0.03462951
203	0xbe294049	-0.16528429
204	0xbe3cb3fc	-0.18428034
205	0xbd3387a2	-0.04383052
206	0xbe80b8d5	-0.25141016
207	0xbd5976b8	-0.053091735
208	0xbe0e33f6	-0.13887009
209	0xbe0d02a1	-0.13770534
210	0xbd6c0419	-0.057621095
211	0xbcb22c87	-0.021749748
212	0x3e78fb53	0.24314623
213	0x3d5d1480	0.05397463
214	0x3d9b5edb	0.075864516
215	0xbe35fe71	-0.17772843
216	0x3e562a75	0.20914634
217	0xbd93cbfb	-0.072166406
218	0xbea8bb72	-0.3295551
219	0x3e2ab434	0.16670305
220	0xbe89d302	-0.269188
221	0x3eb54773	0.35406074
222	0xbd9f600a	-0.0778199
223	0x39aa3043	0.00032460885
224	0x3d4ed8b4	0.050499633
225	0xbeb6932c	-0.35659158
226	0xbbb2da08	-0.0054581203
227	0x3d7548b5	0.059883792
228	0xbe14f28c	-0.1454565
229	0xbe2024ff	-0.15639113
230	0xbc253089	-0.010082372
231	0x3e262c54	0.16227847
232	0x3e062e80	0.13103676
233	0xbe74b177	-0.23895822
234	0xbdfa5515	-0.12223259
235	0x3da4c052	0.08044495
236	0x3db79f28	0.089659035
237	0xbb3a3775	-0.0028414403
238	0xbbd6d551	-0.006556191
239	0xbe47d524	-0.195149
240	0xbc0c5161	-0.008564324
241	0xbc184fef	-0.009296401
242	0x3ddb6e49	0.107143946
243	0xbdfd7b19	-0.12376995
244	0x3db606b1	0.08887995
245	0xbc1b772e	-0.009488864
246	0x3de0610c	0.1095601
247	0xbd1fa9f7	-0.03898045
248	0xbe0551b9	-0.13019456
249	0x3d9cc289	0.07654292
250	0xbe2582b4	-0.1616314
251	0x3e17102f	0.14752267
252	0xbeeaf0de	-0.45886892
253	0x3ddb7d64	0.10717276
254	0xbceca5c5	-0.028887639
255	0x3deecf3e	0.11660622

fc3.bias f4 [10]
0	0xbeed1020	-0.46301365
1	0x3f19c465	0.600653
2	0x3cae6e64	0.021292873
3	0x3e871c42	0.26388747
4	0x3db513c7	0.08841663
5	0xbebdb065	-0.3704864
6	0x3e284ccb	0.16435544
7	0xbe388253	-0.18018465
8	0xbe81054c	-0.25199354
9	0xbde93108	-0.11386305

conv1.weight f4 [6, 3, 5, 5]
0	0x80000000	-0.0
1	0x80000000	-0.0
2	0x80000000	-0.0
3	0x80000000	-0.0
4	0x00000000	0.0
5	0x00000000	0.0
6	0x80000000	-0.0
7	0x80000000	-0.0
8	0x00000000	0.0
9	0x80000000	-0.0
10	0x00000000	0.0
11	0x80000000	-0.0
12	0x80000000	-0.0
13	0x00000000	0.0
14	0x80000000	-0.0
15	0x00000000	0.0
16	0x80000000	-0.0
17	0x80000000	-0.0
18	0x00000000	0.0
19	0x00000000	0.0
20	0x00000000	0.0
21	0x80000000	-0.0
22	0x00000000	0.0
23	0x80000000	-0.0
24	0x00000000	0.0
25	0x00000000	0.0
26	0x80000000	-0.0
27	0x00000000	0.0
28	0x00000000	0.0
29	0x00000000	0.0
30	0x80000000	-0.0
31	0x80000000	-0.0
32	0x00000000	0.0
33	0x00000000	0.0
34	0x00000000	0.0
35	0x80000000	-0.0
36	0x80000000	-0.0
37	0x80000000	-0.0
38	0x80000000	-0.0
39	0x80000000	-0.0
40	0x00000000	0.0
41	0x80000000	-0.0
42	0x80000000	-0.0
43	0x00000000	0.0
44	0x00000000	0.0
45	0x80000000	-0.0
46	0x00000000	0.0
47	0x00000000	0.0
48	0x00000000	0.0
49	0x00000000	0.0
50	0x3f5305ee	0.82430923
51	0x00000000	0.0
52	0x3f32d450	0.69855213
53	0x3f0f10fc	0.5588529
54	0x00000000	0.0
55	0x00000000	0.0
56	0x80000000	-0.0
57	0x80000000	-0.0
58	0x80000000	-0.0
59	0x80000000	-0.0
60	0x80000000	-0.0
61	0x80000000	-0.0
62	0x00000000	0.0
63	0x00000000	0.0
64	0x80000000	-0.0
65	0x80000000	-0.0
66	0x80000000	-0.0
67	0x00000000	0.0
68	0x80000000	-0.0
69	0x80000000	-0.0
70	0x00000000	0.0
71	0x00000000	0.0
72	0xbcf92f0f	-0.030417947
73	0x0000112e	6.163e-42
74	0x80000000	-0.0
75	0x00000000	0.0
76	0x80000000	-0.0
77	0x80000878	-3.038e-42
78	0x00000000	0.0
79	0x00000000	0.0
80	0x80000000	-0.0
81	0x80000000	-0.0
82	0x80000000	-0.0
83	0x80000000	-0.0
84	0x80000000	-0.0
85	0x80000000	-0.0
86	0x00000000	0.0
87	0x80000000	-0.0
88	0x00000000	0.0
89	0x80000000	-0.0
90	0x80000000	-0.0
91	0x80000000	-0.0
92	0x00000000	0.0
93	0x80000000	-0.0
94	0x80000000	-0.0
95	0x80000000	-0.0
96	0x80000000	-0.0
97	0x80000000	-0.0
98	0x80000000	-0.0
99	0x00000000	0.0
100	0x00000000	0.0
101	0x00000000	0.0
102	0x00000000	0.0
103	0x80000000	-0.0
104	0x00000000	0.0
105	0x80000000	-0.0
106	0x00000000	0.0
107	0x80000000	-0.0
108	0x000024bf	1.3182e-41
109	0x00000000	0.0
110	0x80000000	-0.0
111	0x00000000	0.0
112	0x0000054b	1.899e-42
113	0x80000000	-0.0
114	0x00000000	0.0
115	0x00000000	0.0
116	0x00000000	0.0
117	0x80000000	-0.0
118	0x00000000	0.0
119	0x80000000	-0.0
120	0x80000000	-0.0
121	0x00000000	0.0
122	0x00000000	0.0
123	0x00000000	0.0
124	0x80000000	-0.0
125	0x00000000	0.0
126	0x00001300	6.816e-42
127	0x000010ab	5.98e-42
128	0x80000000	-0.0
129	0x8000faaf	-8.9928e-41
130	0x00000000	0.0
131	0x80000000	-0.0
132	0x80000000	-0.0
133	0x00000000	0.0
134	0x00000000	0.0
135	0x000006c6	2.43e-42
136	0x80000000	-0.0
137	0x800006f9	-2.501e-42
138	0x80000000	-0.0
139	0x8000264c	-1.3738e-41
140	0x00000000	0.0
141	0x80000ffc	-5.734e-42
142	0x80000000	-0.0
143	0x80000000	-0.0
144	0x0000045d	1.565e-42
145	0x00000000	0.0
146	0x00000000	0.0
147	0x00000000	0.0
148	0x00000000	0.0
149	0x80000000	-0.0
150	0x80000000	-0.0
151	0x80000000	-0.0
152	0x00000000	0.0
153	0x00000000	0.0
154	0x80000000	-0.0
155	0x80000000	-0.0
156	0x00000000	0.0
157	0x00000000	0.0
158	0x00000000	0.0
159	0xb56b5072	-8.7661385e-07
160	0x80000000	-0.0
161	0x80000000	-0.0
162	0x80000000	-0.0
163	0x00000000	0.0
164	0x80000000	-0.0
165	0x00000000	0.0
166	0x00000000	0.0
167	0x80000000	-0.0
168	0x00000000	0.0
169	0x80000000	-0.0
170	0x80000000	-0.0
171	0x00000000	0.0
172	0x80000000	-0.0
173	0x80000000	-0.0
174	0x00000000	0.0
175	0x99b8293d	-1.904181e-23
176	0x80000000	-0.0
177	0x00000000	0.0
178	0x80000000	-0.0
179	0x00000000	0.0
180	0x00000000	0.0
181	0x80000000	-0.0
182	0x00000000	0.0
183	0x00000000	0.0
184	0x80000000	-0.0
185	0xa7360668	-2.5261047e-15
186	0x00000000	0.0
187	0x00004702	2.5473e-41
188	0x80000000	-0.0
189	0x80000000	-0.0
190	0x00000000	0.0
191	0x80000000	-0.0
192	0x80000000	-0.0
193	0x80000000	-0.0
194	0x80000000	-0.0
195	0x00000000	0.0
196	0x80000000	-0.0
197	0x00000000	0.0
198	0x00000000	0.0
199	0x00000000	0.0
200	0x00000000	0.0
201	0x80001bf0	-1.0022e-41
202	0xa5341f5e	-1.5623139e-16
203	0x80000c9b	-4.522e-42
204	0x8000128c	-6.653e-42
205	0x80000000	-0.0
206	0x800047c7	-2.5749e-41
207	0xba2f4139	-0.0006685439
208	0x80000000	-0.0
209	0x80000000	-0.0
210	0x80000000	-0.0
211	0xb0c03b6a	-1.3986725e-09
212	0x80000d9f	-4.886e-42
213	0xbb9abbfe	-0.0047221174
214	0x80000000	-0.0
215	0x00000000	0.0
216	0x00000000	0.0
217	0x00000000	0.0
218	0xa4a6cea6	-7.23411e-17
219	0x80000000	-0.0
220	0x80000000	-0.0
221	0x3f1b52e7	0.60673374
222	0x3f2f8247	0.6855816
223	0x3e7134b8	0.23555267
224	0x3f1549f8	0.5831599
225	0x00000000	0.0
226	0x00000000	0.0
227	0x00000000	0.0
228	0x00000000	0.0
229	0x80000000	-0.0
230	0x80000000	-0.0
231	0x80000000	-0.0
232	0x00000000	0.0
233	0x80000000	-0.0
234	0x80000000	-0.0
235	0x00000000	0.0
236	0x80000000	-0.0
237	0x00000000	0.0
238	0x00000000	0.0
239	0x80000000	-0.0
240	0x00000000	0.0
241	0x80000000	-0.0
242	0x80000000	-0.0
243	0x80000000	-0.0
244	0x80000000	-0.0
245	0x80000000	-0.0
246	0x00000000	0.0
247	0x80000000	-0.0
248	0x80000000	-0.0
249	0x80000000	-0.0
250	0x00000000	0.0
251	0x00000000	0.0
252	0x00000000	0.0
253	0x80000000	-0.0
254	0x00000000	0.0
255	0x80000000	-0.0

conv1.bias f4 [6]
0	0xbf5fe445	-0.87457687
1	0xb2ff31e4	-2.9708595e-08
2	0xbf7165a5	-0.9429572
3	0xbf94710c	-1.1596999
4	0xbf1fed63	-0.624716
5	0xb6b7b7c0	-5.4752163e-06
