saves/lenet5/cifar10/new_run/logs_lt_pp90x2_seed1_co2False_cifar10.pt (torch, 761419 bytes, 30 tensors)

conv1.weight f4 [6, 3, 5, 5]
000000 80 d4 e4 bc 71 32 81 3e 9e 90 59 bc ec fb a2 bd
       -0.02793336 0.25233796 -0.013279108 -0.079582065
000010 ab 65 e0 3c 73 37 db bc 69 52 0c be f2 29 65 3e
       0.027392229 -0.026759839 -0.13703312 0.22379282
000020 6e 3e db ba 82 9a 86 be de 4a 12 bd 43 0b 88 3d
       -0.001672698 -0.26289755 -0.03571593 0.06642773
000030 d5 bc 06 be f2 c0 40 bc 6d c5 b2 bd 96 49 15 be
       -0.13157971 -0.011764752 -0.08729062 -0.14578852
000040 d3 49 3d bd 4f 90 16 3b 8a 65 1a be d3 84 a3 bd
       -0.046212982 0.0022974198 -0.15077797 -0.079843186
000050 63 ae a1 bd d7 9a 75 bd 37 80 fa bd 61 c0 31 bd
       -0.0789459 -0.05996212 -0.12231486 -0.043396357
000060 dd e1 86 3c 40 d6 fd 3d f7 56 81 3e 09 7a 16 3e
       0.016465122 0.123943806 0.2526166 0.1469499
000070 0b 68 1c 3d 91 ee 8f 3c d8 cc 14 be fb 9b 01 3e
       0.03818516 0.017569812 -0.14531267 0.12657158
000080 19 77 5d 3d 3d cf 2b 3b 78 3b a0 3a 30 c8 85 be
       0.05406866 0.0026216053 0.0012224754 -0.26129293
000090 b9 f2 11 3d 90 54 bf bc 51 64 81 3d 91 05 3a 3e
       0.03563187 -0.023355752 0.06317962 0.18166186
0000a0 9f 89 17 3c 6c 8d b1 3d 39 16 08 3c b9 5a 30 bc
       0.00924912 0.08669552 0.00830608 -0.0107638175
0000b0 d8 31 5e 3e b2 1b dc bc 1a 6b 92 3d 66 60 df 3d
       0.21698701 -0.026868675 0.07149334 0.109070584
0000c0 a7 a4 d2 bd 9a 6a 40 bc b8 92 0b 3d 6b 29 a4 3d
       -0.10285311 -0.011744166 0.03407547 0.08015712
0000d0 d1 ba cf bd f6 ca e3 bc cb 31 c0 bd 7a 62 3c bd
       -0.10143054 -0.02780674 -0.09384497 -0.045992352
0000e0 9e a1 dc bc cd 7c 85 bd b1 08 b5 bd e6 de f4 ba
       -0.026932534 -0.065179445 -0.088395484 -0.0018682152
0000f0 c9 8a 60 3d 64 a4 a4 bd 30 74 09 3d 24 18 04 be
       0.054819856 -0.080391675 0.03355807 -0.12899834
000100 9d a9 0a be 87 b5 12 be 3f f0 b0 3c d9 63 50 bc
       -0.13541265 -0.1432706 0.021598933 -0.012719118
000110 29 93 3b be b2 4a 25 3e bd a4 12 bd 5b 32 f8 bd
       -0.18317856 0.16141775 -0.035801638 -0.121189795
000120 0b 55 07 be 69 ed d6 bd 35 c4 0a 3e 5e 04 b0 3d
       -0.13216035 -0.10494501 0.1355141 0.08594583
000130 d0 e2 81 3c fd b5 03 bd 0d eb 1e bd 02 5f 15 3e
       0.015855223 -0.03215598 -0.03879838 0.14587024
000140 78 0a 2e bd 99 b1 04 be 6d 7c 20 3d 7a 74 50 bd
       -0.042490453 -0.12958373 0.03918116 -0.05089233
000150 c9 fc c6 bd 17 d5 1b 3d c5 97 31 3e 4a 39 24 3e
       -0.09716184 0.038045015 0.17343052 0.16037479
000160 63 1a 2b be 75 e0 e3 3d a1 6c de 3d 41 44 c6 bd
       -0.16709284 0.11126796 0.10860563 -0.09680987
000170 9d 14 23 be b0 07 37 bd 68 c0 fd bd 93 42 98 bd
       -0.15925832 -0.044685066 -0.12390214 -0.07434573
000180 e3 c0 11 3d 12 9d 55 bd fe 0c 31 3d d9 96 ba bd
       0.03558434 -0.052151747 0.04322528 -0.09110803
000190 8b 70 26 3e 7c dd 27 3e ff 44 97 3d ef 50 03 be
       0.16253869 0.16393083 0.07386207 -0.12823842
0001a0 2d 9c 8a bc 34 1f ba bc 7c db 88 3c fa 53 b4 3c
       -0.016920174 -0.022719957 0.01670622 0.0220127
0001b0 04 8e e6 3d d7 f8 ac 3d b0 d7 ed bd 39 4e b9 3d
       0.11257556 0.084459 -0.11613405 0.09048123
0001c0 a1 3a d8 3d 9e 19 0e 3e ff 59 00 3e 27 6b e8 bd
       0.105580576 0.1387696 0.12534331 -0.11348563
0001d0 a5 6a 7e 3d b4 cf 2e 3e dd 54 3b bd fa 66 49 3c
       0.062113423 0.1707142 -0.04573523 0.012292618
0001e0 65 75 da 3d c6 ec 55 3d e8 f8 7a bd e1 e0 f4 bd
       0.106669225 0.052227758 -0.06127253 -0.11956955
0001f0 cd 6f 26 bd 16 ba 27 3d 60 94 93 3d c9 52 cb bd
       -0.040633965 0.04094895 0.07206035 -0.099278994
000200 79 2f a2 bd b3 b6 38 3d 7d 8b 84 3d 57 52 94 3d
       -0.07919211 0.04509611 0.06471918 0.072422676
000210 5c 5e 92 3c 6c f3 bf 3c 65 fa 72 bd e0 a0 9c 3c
       0.01786726 0.023431502 -0.059320826 0.01911968
000220 24 bb b2 bd d2 49 9b 3d d5 f4 0a 3e 1b bc 27 bd
       -0.087271005 0.075824395 0.13569959 -0.040950876
000230 7f 6a 01 be f2 4f b0 3d d0 1a 13 3c 19 d6 04 be
       -0.12638281 0.08608998 0.008978561 -0.12972297
000240 07 94 b9 bc 26 7d b0 bd 7a dc 17 bd ae 61 da 3d
       -0.022653593 -0.0861762 -0.037075497 0.10663162
000250 0c 2d 32 3d 6d b7 83 bd d0 72 94 3c 20 54 49 be
       0.04349999 -0.0643147 0.018121153 -0.19660997
000260 10 1a b5 bd 39 ca 0a be be 76 98 3c 1a 6a 80 3d
       -0.08842862 -0.13553704 0.018611308 0.06270237
000270 74 2b 96 bd 59 77 45 3d 68 9f ea 3d f9 9c 3e be
       -0.07332507 0.048209522 0.114561856 -0.18614568
000280 01 0c 85 bd d7 1e 8c 3b 86 5c ca 3c bd 24 82 bd
       -0.0649643 0.0042761373 0.024702322 -0.063546635
000290 75 98 8f bc 79 41 14 3c 75 e7 1b 3d e8 8a 42 bd
       -0.017528752 0.009048813 0.03806253 -0.047495753
0002a0 4b 97 28 bc ba 47 8f bd 49 17 d5 ba 4a ab 2f 3e
       -0.010289977 -0.06996103 -0.001625755 0.17155185
0002b0 f7 97 e4 bc 0c 72 07 3e 34 f3 76 bd 13 d7 4f 3c
       -0.027904494 0.13227099 -0.06029053 0.012685555
0002c0 8c 17 02 3b 66 72 86 3b ac 96 f6 bc 5e e0 30 bd
       0.001985046 0.004102993 -0.030101143 -0.043182723
0002d0 8c c8 e7 3d cd c2 33 3c 6a 74 ea 3c 55 a4 31 be
       0.11317548 0.010971737 0.028619964 -0.17347844
0002e0 a3 99 4a 3d 99 01 21 be f0 12 fe 3a 05 05 dd 3d
       0.049462926 -0.15723266 0.0019384306 0.10791973
0002f0 2d 7b bf bd 2b 4a 53 bd ff ef 58 bd e2 8a 65 3a
       -0.09349666 -0.051584404 -0.052963253 0.0008756352
000300 41 53 b4 bd 6b 52 c0 bd c0 3c 2d 3d 02 0c 97 bd
       -0.08804942 -0.0939072 0.042294264 -0.07375337
000310 91 2d aa bd b8 aa 7a bd 6e ce e4 bd f3 f9 0e be
       -0.08309472 -0.061197966 -0.11172186 -0.13962536
000320 ad 1a 12 3e 24 89 86 bc af e9 dc bc ce f6 ff bd
       0.14267989 -0.016422816 -0.026966898 -0.12498246
000330 dd dc 6b bb e0 e2 9f bd 14 61 87 3d a8 ae 33 3e
       -0.00359898 -0.07806945 0.06610313 0.17547095
000340 67 fa 10 bc 98 b1 3b 3d 2f a8 42 bc 36 55 04 bc
       -0.008848763 0.045823663 -0.011880918 -0.0080769565
000350 e2 30 39 be d0 a6 0d bb d1 74 eb 3d f2 87 c7 3d
       -0.18085054 -0.002161432 0.1149689 0.097427264
000360 19 59 0e 3e 0d 9a 4e bc 38 58 6f bd a1 6a f5 bd
       0.13901176 -0.012609971 -0.05843374 -0.119832285
000370 53 4b 19 3d a4 45 f6 bd 37 f5 82 bc 48 a1 8a 3d
       0.03742535 -0.12025002 -0.015986068 0.06769043
000380 b0 23 5d 3b f6 28 99 3c e7 c3 c1 3d 8c 8f b9 bc
       0.0033743195 0.01869629 0.094611935 -0.022651456
000390 1e 7a c0 bb 5d e1 00 bd 40 53 c8 bc 7c d9 13 3e
       -0.0058739325 -0.031464923 -0.02445376 0.14438432
0003a0 ce 64 5b bd 60 56 3e bd fd 1c fb bc 79 9c fd bd
       -0.05356293 -0.046469092 -0.030653471 -0.123833604
0003b0 5d 50 28 bd 5b c6 10 be 64 c3 21 be c3 a5 ba bd
       -0.041092265 -0.14138167 -0.15797192 -0.09113648
0003c0 be 28 b0 3d a9 3a 0e be 8a d4 0f 3e 5d 3e 20 be
       0.08601521 -0.13889565 0.14045921 -0.1564879
0003d0 c7 5c af bd 93 5a cb bd 57 c2 cc 3b f0 16 b3 bd
       -0.08562618 -0.09929385 0.006248753 -0.08744609
0003e0 c3 59 b0 3d f8 15 3a 3d 48 7b 06 bd ef f8 d5 bd
       0.08610871 0.045431107 -0.032832414 -0.10447871
0003f0 ea 9f 59 bd 26 93 fc 3b 58 b7 23 3e 35 d5 24 3e
       -0.05313102 0.007707971 0.15987909 0.16096957

conv1.bias f4 [6]
000000 2a 3e c2 b7 39 d5 96 bf ad d4 9d 8d ed a6 e7 a7
       -2.315555e-05 -1.178382 -9.727072e-31 -6.429636e-15
000010 74 e8 46 bf b4 a9 f1 b2
       -0.77698445 -2.8133265e-08

conv2.weight f4 [16, 6, 5, 5]
000000 b1 7e 0f bd 00 57 7c bd e0 c8 4d 3d ea ff 9f 3c
       -0.03503293 -0.061606407 0.050240397 0.019531209
000010 56 79 eb 3c 50 22 38 3d 92 e9 0f bd 21 80 e4 3d
       0.02874438 0.044954598 -0.03513486 0.11157251
000020 29 81 49 3c 9c eb 6e 3c 88 92 f1 3c 65 3b 59 bd
       0.012298861 0.014582541 0.029488817 -0.05303516
000030 b3 29 15 3d 4f a4 0d bd 5c 9e 96 bd bc a4 e4 bd
       0.03641672 -0.034580525 -0.073544234 -0.11164233
000040 0e 31 53 3d 37 f1 71 3c 70 a3 11 bc 35 7b b2 3d
       0.051560454 0.014766983 -0.008889064 0.08714906
000050 f1 9d 52 bd 63 17 67 3d 32 54 75 bd ab 7e 29 bd
       -0.051420156 0.056418788 -0.059894748 -0.041380566
000060 1a b3 20 bd 41 6f 0b 3d 6d 5c 17 3d c4 d7 f5 3d
       -0.039233305 0.034041647 0.03695338 0.12004045
000070 f4 ba 81 bb 10 1b 04 be f4 7d 03 bc 64 30 2b bd
       -0.003959054 -0.12900949 -0.008025635 -0.041794196
000080 dc 45 50 3d c7 26 77 3c 7a f3 f2 3d 00 59 33 bd
       0.050847873 0.015084929 0.11862846 -0.04378605
000090 27 81 97 bd 33 db 44 3c d6 1d b5 bd b8 f4 25 bd
       -0.07397681 0.012015152 -0.088435814 -0.040516585
0000a0 57 f1 8b bd 0c b7 93 3d 3d 2e ad ba f9 66 dd ba
       -0.06833141 0.07212648 -0.0013212633 -0.001689165
0000b0 e5 dd e3 bb b0 ae c0 38 14 c6 42 3d 0c 0a 92 3c
       -0.006953942 9.1878115e-05 0.047552183 0.017827056
0000c0 fc 41 89 3d 0e 9d 69 3d 5b 8a 45 bd 5c 3a 3c 3d
       0.06702039 0.057034545 -0.04822765 0.045954093
0000d0 95 f6 7c 3d 25 19 d3 bd 0d 07 a8 bc 5d 87 9a bc
       0.061758596 -0.1030753 -0.020511175 -0.018863374
0000e0 82 d3 a8 3d d4 02 3c bd b7 c5 35 bc fc 84 38 bd
       0.08243467 -0.045901135 -0.011094502 -0.0450487
0000f0 0a a7 7f 3b b3 12 9c 3d 84 2f d0 3c 74 aa 8d 3c
       0.0039009475 0.07620754 0.025413282 0.017293192
000100 07 1c 83 3c 94 5f 1b 3b 2d 91 17 3d 4b 6a cc 3d
       0.016004575 0.0023708092 0.037003685 0.09981211
000110 08 18 d0 3d 52 30 c6 bc de 56 9f bd 92 0a bf bc
       0.101608336 -0.024192963 -0.077802405 -0.02332047
000120 7c d2 86 3c f2 38 b1 3c 53 8a ce 3d e5 ae 62 bc
       0.016457789 0.021633599 0.10084977 -0.013835643
000130 5c 77 5b 3c c1 6c e6 3c 6c 6a 03 bd 2f f6 37 bd
       0.013395157 0.02812803 -0.032083914 -0.044912513
000140 1c 61 91 bd 08 a1 77 bd a4 61 d8 bd d3 93 48 bd
       -0.070986 -0.060456306 -0.105654985 -0.0489691
000150 67 d0 15 bc 60 8f 40 3d b6 79 29 3d 9c 73 17 bc
       -0.009143925 0.047011733 0.04137584 -0.009243872
000160 76 c8 be bb 8d 05 08 3d a8 98 32 3d 98 92 e1 bd
       -0.0058222366 0.03320842 0.043602616 -0.11014289
000170 6e 46 7f bd 3c 43 d1 bb 82 15 11 3d f5 83 75 bd
       -0.062323026 -0.006386189 0.035420902 -0.059940297
000180 6a 20 c4 3b 38 92 b5 bd 18 5f 96 bd 17 60 e4 bc
       0.0059853094 -0.0886578 -0.073423564 -0.02787785
000190 f9 ba f2 3c d9 ef 52 3d 0a d3 72 3d 7b 56 f1 3d
       0.029630171 0.051498268 0.059283294 0.11784073
0001a0 eb 71 54 3d c0 a3 62 bc 42 c8 bd bd 69 c9 b2 bd
       0.051866453 -0.013832986 -0.09266712 -0.08729822
0001b0 c0 f7 c2 bc 3f 50 f3 3c 96 38 02 3c f9 a4 2a bd
       -0.023799777 0.02970135 0.007948061 -0.041661236
0001c0 b7 66 1b 3c 42 87 b2 bd 8c 41 8c 3d bb 36 ec 3c
       0.009484938 -0.08717205 0.068484396 0.028834691
0001d0 77 c9 d4 bc d3 bf 7b bd a1 97 bb 3d b1 ae 0f bd
       -0.025974972 -0.061462235 0.0915978 -0.035078708
0001e0 20 82 a9 bd bd b1 ae bb 5d 72 b0 bd 6b e4 98 bd
       -0.082767725 -0.0053312466 -0.08615563 -0.07465442
0001f0 76 79 98 bd 07 7f f4 3d 4a 15 6d 3d 93 4f 91 3d
       -0.07445042 0.11938291 0.05788163 0.07095256
000200 9c 96 4a 3d 3b e2 00 3e c2 50 d5 3c 51 67 3a 3b
       0.04946004 0.125863 0.026039485 0.002844293
000210 c6 6b 86 3d cc 47 72 3c d8 75 28 3c 89 45 95 bd
       0.06563525 0.0147876255 0.010282002 -0.072886534
000220 09 bb 0d 3e 1e be ba 3c 5a 8f 93 bd 82 8b 2a bd
       0.1384088 0.022795733 -0.072050765 -0.04163695
000230 6e fe 9c bd 2d 74 13 bd 8d d0 d3 bd 71 8d 8d bc
       -0.07665716 -0.035999466 -0.10342512 -0.017279359
000240 5a aa 4d bc 16 96 8e 3c ac b8 9e bd 92 cb 89 3c
       -0.012552822 0.01740555 -0.07750067 0.016820703
000250 c6 9d bd 3b 28 d7 80 3d d6 b0 3d 3d ac 9f 85 3d
       0.0057866303 0.06291038 0.046311222 0.065245956
000260 6c e6 bb bd 81 32 5d bd b8 54 73 3d 05 0b 83 3c
       -0.09174809 -0.054003242 0.059406966 0.015996465
000270 ba a2 80 bd b5 4c b0 bd 7c 7b 0e bc 1b 16 0e bb
       -0.06281038 -0.08608381 -0.008696433 -0.0021680656
000280 2c 88 72 3c d0 a1 75 3c 05 89 87 3d a3 f1 a4 3d
       0.014802974 0.014992192 0.06617931 0.08053901
000290 6d e9 28 3b 2b b0 dd bd 93 ad 46 bd 27 f5 b7 bc
       0.0025773898 -0.10824617 -0.048505377 -0.022455765
0002a0 05 d6 5e 3d 1c d3 a2 bc 42 4e 48 3d d1 5f f2 bc
       0.054403324 -0.019876055 0.048902757 -0.029586704
0002b0 09 08 a8 bc 7d 41 64 3d f9 05 3e 3c 13 da 8b bd
       -0.020511644 0.055726517 0.011598104 -0.06828704
0002c0 ce 12 b2 3c cf 02 1b bd aa e3 e2 3d 58 4c c2 bd
       0.021737482 -0.037844475 0.1107858 -0.09487218
0002d0 fa 86 8b ba be cb 40 3d 69 8f 2c 3d a0 36 49 3d
       -0.0010645085 0.047069304 0.042128954 0.04912436
0002e0 6e ac 12 be 07 07 0f 3e 9d a6 8f 3c 6f 2a 46 bd
       -0.14323589 0.13967524 0.017535502 -0.04838031
0002f0 20 b4 73 3d 6c 00 23 3d bb df 8d 3d b7 55 0e bd
       0.059497952 0.039795324 0.06927439 -0.034749713
000300 2c 5b 0f 3d 0f b9 9b 3c 17 f6 38 3c ef b7 38 3d
       0.034999058 0.019009141 0.011289141 0.045097288
000310 1c ea 99 bd 33 9b 29 3d ee 37 b1 3d f8 77 e6 bc
       -0.07515356 0.041407775 0.08653246 -0.028133377
000320 0a 48 ec 3c 27 9d 50 3d d3 43 1e 3d 29 8d 11 3d
       0.028842945 0.050931122 0.0386389 0.03553501
000330 d4 c0 6b ba 7e e9 58 bd 4e ab 8b bd 54 9f 1d 3d
       -0.0008993272 -0.05295705 -0.06819783 0.038482025
000340 be c6 34 3d b8 63 a1 bc ee 55 7d 3d 1b 8c 74 3c
       0.044134848 -0.01970087 0.061849527 0.014925982
000350 bf 5a 47 bc be 0f 91 bd 4f 7f 65 3c 74 b4 aa bd
       -0.012167632 -0.07083081 0.0140074035 -0.083352
000360 9f ee 84 bd 40 c6 00 bd 69 43 01 3d 95 75 85 3c
       -0.06490826 -0.031439066 0.031558428 0.016291419
000370 55 2d ac bd e6 6c 86 bc 27 dc 3e 3d c0 95 1c bd
       -0.08407084 -0.016409349 0.046596672 -0.03822875
000380 9c 4c af bb ca b4 00 be c4 4d 33 3d 09 57 7b bd
       -0.0053497087 -0.12568966 0.043775335 -0.0613623
000390 94 3b df bd 9f 11 d1 bc 6b a9 01 bb 27 86 8d 3c
       -0.109000355 -0.025521098 -0.001978482 0.017275883
0003a0 be 3f a2 bc eb f8 61 bc 1b 34 1b 3c 19 64 93 bd
       -0.019805785 -0.013792257 0.009472872 -0.071968265
0003b0 03 07 9d bc c6 81 8d 3c 24 f0 e0 bb 75 30 a5 3c
       -0.019168383 0.017273795 -0.0068645645 0.020164708
0003c0 93 cf 19 bc a4 0a 00 bd 21 c6 af bc 87 66 35 bd
       -0.009387868 -0.031260148 -0.02145678 -0.04428723
0003d0 14 aa ac bc 97 ad c5 bc 67 a5 91 3b 2e 38 9b 3c
       -0.021077193 -0.024130626 0.0044447663 0.018947687
0003e0 74 ec e1 bc 10 57 c6 bd d9 6a 62 3d 41 19 66 bd
       -0.02757857 -0.096845746 0.05527768 -0.056176428
0003f0 aa 82 d5 bd 87 08 fa 3c 24 8c 61 3d 9e 7d 97 3b
       -0.10425313 0.030521644 0.05506529 0.004623129

conv2.bias f4 [16]
000000 cd bf 9d be 65 ae 18 b1 5d 59 8c ba f2 8c 4e b4
       -0.30810395 -2.2218043e-09 -0.0010707785 -1.923652e-07
000010 0b 3d b5 bc 97 08 d6 b6 ff 1d 17 b5 98 6a 51 bd
       -0.022123834 -6.378697e-06 -5.6295534e-07 -0.051127046
000020 f0 a1 ac be 3c 70 8e b7 e2 4e fc ae 50 44 4c bf
       -0.33717299 -1.6979982e-05 -1.14736456e-10 -0.79791737
000030 eb 7f b7 bf 43 74 bf b8 4f 19 94 3e e6 8e 36 bf
       -1.4335912 -9.129245e-05 0.2892556 -0.71311796

fc1.weight f4 [120, 400]
000000 89 71 b5 bd a5 1c 8a bd e9 38 0d 3d 5a 31 81 3d
       -0.08859546 -0.06743745 0.034478102 0.06308241
000010 d7 c3 b0 bc 4c 26 ad bd bd 3f a7 bd cc 2a 6f 3d
       -0.021577759 -0.0845457 -0.08166454 0.058390424
000020 84 bb 12 3d e0 41 cb bc a0 2e e7 bc d9 12 17 bd
       0.03582336 -0.024811685 -0.028220475 -0.03688321
000030 ea 11 17 be dc 1e 5a 3b 0c e5 05 3d 50 c8 87 bc
       -0.14752927 0.0033282554 0.03268914 -0.016575009
000040 47 55 19 3c d5 10 a0 3c e5 12 4d bd 9a 89 72 3d
       0.009358711 0.019539276 -0.050066847 0.05921326
000050 2a 0f 37 bd 3d 4f 80 3c f8 56 51 3d 31 73 27 bd
       -0.044692196 0.015662784 0.05110833 -0.04088134
000060 7a 1f 42 3d 97 10 93 3a 08 9b 27 bd e1 4f 1b 3d
       0.0473933 0.0011220154 -0.040919334 0.037917975
000070 b0 90 84 3c c6 67 2d bd b3 6d 59 bd d5 28 a6 bd
       0.016182274 -0.042335294 -0.053083133 -0.08113257
000080 7e 82 26 3d 52 a2 8b 3d b0 fa 51 be 5e 12 85 3d
       0.04065179 0.068180695 -0.20505786 0.06497644
000090 e2 35 de 3d 35 b3 a4 3b a3 7e e7 bc 71 aa 8f bd
       0.10850121 0.005026246 -0.028258627 -0.07014931
0000a0 2a 75 36 bc 0a 12 ba bd b1 66 24 3c c7 d2 ca bd
       -0.0111363325 -0.09085472 0.010034249 -0.09903484
0000b0 ba 1a 0f bd a2 2d f3 3b 44 17 31 3c 64 69 7a ba
       -0.034937598 0.0074212113 0.01080877 -0.00095524476
0000c0 6d 76 ae bd 2d dd 77 3d b2 bb 93 3d 39 94 d5 ba
       -0.08518682 0.060513664 0.072135344 -0.0016294784
0000d0 ab 14 3c bd bb 73 14 bd ff 07 af 3b 8c d4 45 ba
       -0.045918148 -0.03624318 0.0053415294 -0.00075466256
0000e0 18 ad 90 3c 01 be d1 3d 8c 62 b9 bd 8a 3f dc bd
       0.017660663 0.102413185 -0.090519994 -0.107543066
0000f0 63 38 a5 3d a2 99 fc 3b 54 fc 37 bd a9 a1 99 bc
       0.080673955 0.007708744 -0.044918373 -0.018753843
000100 ff 11 c2 3c 23 c9 c9 bb 34 e9 fb ba b2 22 fa 3d
       0.023690222 -0.0061580106 -0.001921928 0.12213649
000110 df 76 8a bc 16 49 6a 3d d9 3a dd 3c 3f 8a 03 3e
       -0.016902385 0.057198606 0.0270056 0.12845705
000120 27 a0 73 3d 12 05 f5 bd f4 6c d0 bc 8d ff 64 bd
       0.059478905 -0.11963858 -0.025442578 -0.055907775
000130 ef c6 26 3d 2b fb 02 3e 75 d9 c6 bc 63 6c e3 bd
       0.04071706 0.12791125 -0.024273613 -0.111046575
000140 e9 73 c2 3d dd 08 85 3d a8 4e 27 bd 60 6f 67 3d
       0.09494764 0.06495831 -0.040846497 0.0565027
000150 12 a2 90 3d e1 92 8c bd 92 48 e6 bd 57 85 8d bb
       0.070621625 -0.068639524 -0.112443104 -0.004318874
000160 b1 3c f4 bc a1 13 93 3c 3c fd 98 bc d6 52 1b 3d
       -0.029814096 0.017953696 -0.018675439 0.037920795
000170 a0 b5 04 bd c9 33 3f 3d 67 a4 b9 3d 11 74 08 be
       -0.032399774 0.046680246 0.090645604 -0.13325526
000180 61 4c 61 3d b5 13 97 3d a1 0b 26 bc 03 b2 32 3b
       0.05500448 0.07376806 -0.0101346085 0.0027266748
000190 4c 50 d4 ba 65 bd 5e 3c 33 b4 ba 3b 8e cd 48 bd
       -0.0016198247 0.01359496 0.005697751 -0.049024157
0001a0 a1 38 56 3d b0 a5 05 3d f0 f3 98 3c e4 31 dd bc
       0.0523001 0.032628715 0.018671006 -0.027001329
0001b0 5e c3 25 bd 65 f0 05 b9 77 65 d1 3d 55 63 40 bd
       -0.04046952 -0.00012773422 0.10224431 -0.04696973
0001c0 73 42 0a bd fb b7 ce 3d d8 a8 6f 3d dd 61 ee bd
       -0.033754777 0.10093685 0.05851063 -0.1163976
0001d0 c5 8a 24 bd 0e b6 df bc ae 16 b1 bd 44 ce 6a bd
       -0.040171403 -0.02730849 -0.08646904 -0.057325616
0001e0 d5 15 ac 3c aa 11 a6 bd 07 49 de bc 31 02 02 bc
       0.021006504 -0.08108838 -0.027134432 -0.007935093
0001f0 14 6d 03 3d fe a4 69 bd 4f eb 1d 3d 12 c7 9e 3d
       0.032086447 -0.057042114 0.038554486 0.077528134
000200 71 3f 84 bc a8 e8 12 bd 99 97 73 3c 03 94 76 3c
       -0.016143532 -0.03586641 0.014867687 0.015049937
000210 86 a0 38 3d e3 4d 7f 3d f5 b4 bb 3d b5 9c a6 bd
       0.045074962 0.062330138 0.09165374 -0.08135358
000220 08 65 98 bc 9b 84 45 bd 97 af 99 bc 0b 3f 28 3d
       -0.018602863 -0.048222166 -0.018760486 0.041075747
000230 93 a0 85 3d ec 4f 8d 3d 93 40 8e bc 62 df 4b 3d
       0.06524768 0.069000095 -0.017364776 0.04977358
000240 27 28 eb ba 47 c0 0c bd 30 f7 a8 3d 45 88 e0 3c
       -0.0017941043 -0.034363057 0.08250272 0.027408728
000250 6e 0e 86 bc b3 31 ff 3c 86 b7 08 bd 33 ce f1 bd
       -0.016364302 0.031151628 -0.033378147 -0.118069075
000260 90 4e 71 3d cc cb 85 bb 9e 9a 91 3d fe 87 3e bc
       0.058912814 -0.0040831324 0.07109569 -0.011629103
000270 1f e7 38 bd 95 a2 4a 3c b5 c4 d2 3d 3e b3 ac bd
       -0.04514229 0.012367864 0.10291425 -0.08432625
000280 ca 11 b9 3b 22 a6 9e 3d 98 da 84 bb 5f bb 57 bd
       0.0056478726 0.07746531 -0.0040543787 -0.052668925
000290 18 b7 8e bc 5a f4 cc 3d 8e 05 c0 3b 62 99 55 bd
       -0.01742129 0.10007544 0.005860037 -0.05214823
0002a0 52 de a1 bc 22 83 13 bd 81 c0 4e bd c6 08 7c bd
       -0.01975933 -0.03601373 -0.050476555 -0.061531805
0002b0 b8 8e 5b bd 83 04 95 bc a9 c9 32 3d 47 77 1f 3c
       -0.053602904 -0.018190628 0.04364935 0.009733028
0002c0 1a 80 bf 3c 11 70 f7 3b c8 0e 12 bd 0e 59 28 3d
       0.023376513 0.007551201 -0.035658628 0.041100554
0002d0 05 80 32 3d 42 82 98 bc e6 44 31 3d 46 8a 45 bd
       0.04357912 -0.0186168 0.043278597 -0.04822757
0002e0 d3 1b 1d bd d4 a2 f4 3b 14 36 37 3d a0 8e 5d 3d
       -0.038356613 0.0074656997 0.044729307 0.054091096
0002f0 e4 f3 92 3b e0 f1 af 3d ae a9 93 bd 10 1d 65 3d
       0.0044846404 0.08591056 -0.07210098 0.05593592
000300 d9 e0 1a 3e e7 0c 2e be 5e c3 cf bd e3 82 08 bd
       0.15124835 -0.1699711 -0.10144685 -0.03332795
000310 0e bb d5 bc 86 5f 32 3d 2b 48 1a bd 2f 9f 16 bd
       -0.026090171 0.04354813 -0.03766648 -0.036772903
000320 27 b3 f6 bc a0 28 4c bd 2c 9d 6a 3d 1c 27 ff 3c
       -0.030114723 -0.04984343 0.057278797 0.031146578
000330 c7 e9 b3 bd 9e 0a 6f bd 3d c8 b8 3d f0 70 3e be
       -0.08784824 -0.058359735 0.090225674 -0.1859777
000340 a3 79 c8 bd 72 fc 84 3c 54 12 fb 3c 6c 7e 0c bd
       -0.09788825 0.016233657 0.030648388 -0.034300253
000350 24 88 dc 3b 1b 9f ee bc e3 c5 13 bd f8 10 b9 ba
       0.0067300964 -0.029128602 -0.03607739 -0.0014119437
000360 17 f3 9d 3d e8 93 d7 bd e0 e6 53 3d b2 85 37 3b
       0.07712381 -0.10526258 0.05173385 0.0028003273
000370 0d ae f9 3d 39 a8 08 3d 1f 56 c6 bc 98 8a c9 3c
       0.12191401 0.033363555 -0.024210988 0.02460222
000380 3a d5 4f bd d3 ca b1 bc 37 dc 9c 3d c5 1a 05 3c
       -0.050740458 -0.02170316 0.0765919 0.008124058
000390 6b 54 18 bd 61 47 89 3b fe 2c 7e 3d e0 cf d9 3d
       -0.037189882 0.004189417 0.062054627 0.10635352
0003a0 3a 80 ed bd 23 30 63 bd cf df a3 bd 92 4c 1e be
       -0.11596723 -0.05546583 -0.080016725 -0.15458897
0003b0 c6 d3 be bc 17 39 22 be a2 cd 9e bc b8 ec 21 be
       -0.02329434 -0.1584209 -0.019385163 -0.15812957
0003c0 fd da c2 ba b0 32 b5 3b 8c 89 a1 3d 1c 2f 62 3d
       -0.0014866289 0.005529724 0.07887563 0.05522071
0003d0 fe 6d bb bc e9 1a 23 bd eb a0 44 bc 2d 53 04 3d
       -0.022879597 -0.039820585 -0.012001256 0.032305885
0003e0 1d 94 68 3d b1 14 05 bd 7e 6b 66 3c c7 5c cc bc
       0.056781877 -0.032490436 0.014063714 -0.024946583
0003f0 cd 34 34 3d c6 39 0d be 52 d1 94 bd 74 e0 1e 3d
       0.043995667 -0.1379157 -0.07266487 0.038788274

fc1.bias f4 [120]
000000 76 cb 01 bd 9f 8a 5d 3c ab f8 1a 04 b8 e4 fe 3d
       -0.031688176 0.013521819 1.8216796e-36 0.124459684
000010 3a b5 13 bd e1 c2 06 b7 36 3c a2 b7 d6 98 03 80
       -0.036061503 -8.032396e-06 -1.9339943e-05 -3.30334e-40
000020 46 27 0d 00 00 1d c1 be 86 01 70 3e 2a 3e 0e bc
       1.20795e-39 -0.37717438 0.23438081 -0.008681813
000030 39 c6 1f a8 90 49 50 b9 ef 8c d1 be d4 3e 37 29
       -8.869256e-15 -0.0001986383 -0.40927836 4.0688657e-14
000040 47 1d 6e ad de 3f 04 00 0b 81 c2 ba c0 c7 97 a0
       -1.35352346e-11 3.90253e-40 -0.0014839483 -2.5712578e-19
000050 96 04 39 b7 78 ad 3f be 87 e3 11 bd 6a 90 5c 30
       -1.1027927e-05 -0.18718517 -0.035617378 8.024076e-10
000060 12 f0 57 31 b2 af 44 b1 4f 81 df ad dd 2f 43 bd
       3.1423082e-09 -2.8621625e-09 -2.540959e-11 -0.047653068
000070 06 01 c4 b6 00 c8 14 3e a1 89 c2 bd 0c 4f 99 b9
       -5.8413743e-06 0.14529419 -0.09498907 -0.0002924133
000080 8e 9b ed 31 81 c6 e1 bb b3 bb 6c 33 8a 38 7f 2d
       6.9152923e-09 -0.0068901186 5.5118743e-08 1.4507626e-11
000090 d7 6f 49 34 76 1d 3c bd 36 9f 00 80 94 34 c5 2d
       1.8760271e-07 -0.045926534 -5.7114e-41 2.2419656e-11
0000a0 d1 83 00 00 7d 29 8b bc f7 dc 82 bd 90 98 15 b6
       4.7287e-41 -0.016987557 -0.06389802 -2.2291533e-06
0000b0 81 a3 13 be f7 5e c9 3b b3 16 67 af 14 ae 32 0d
       -0.1441784 0.006145354 -2.1017392e-10 5.5060024e-31
0000c0 23 46 06 bd fe f0 4f 3d bc cc ce be ab 8a dd 3d
       -0.03278173 0.050766937 -0.40390575 0.108174644
0000d0 e2 0f 1f bd 45 2e 01 00 a4 ff f5 2d e5 70 46 bd
       -0.038833506 1.08434e-40 2.7966802e-11 -0.04844751
0000e0 3c f8 11 bb 04 b3 34 be c7 8c c0 b7 1a 8d 18 be
       -0.0022273203 -0.17646414 -2.2953738e-05 -0.14897576
0000f0 2b 5a 09 27 6b 7f ea 1d b5 67 6a 3d 4f 67 2b af
       1.906145e-15 6.207103e-21 0.05722781 -1.5589062e-10
000100 0d db 1e 3e 43 9c a5 bc cc 32 23 ac 35 ca 9a 3a
       0.15513249 -0.020216113 -2.3191891e-12 0.001180953
000110 b1 b1 23 bb b1 d1 1f a5 d6 66 5b 2d 04 00 83 ad
       -0.0024977739 -1.3862098e-16 1.2471543e-11 -1.4892983e-11
000120 4f f2 88 3e 9a cd 52 21 cf 89 26 29 d2 9c 4c 1d
       0.26747367 7.142288e-19 3.6978934e-14 2.708025e-21
000130 45 e4 e6 bc 8f 5b 4c 27 e1 7e af be bf 54 8f b7
       -0.02818502 2.8360321e-15 -0.34276488 -1.7086391e-05
000140 d1 c3 ed be 17 61 00 00 31 ea 82 aa c3 4f 08 80
       -0.4643846 3.4829e-41 -2.3255142e-13 -7.63297e-40
000150 3c da 01 00 4d 53 4a b8 b5 a7 68 bd 10 d2 d2 ab
       1.70123e-40 -4.8238133e-05 -0.056800563 -1.4979702e-12
000160 c1 ea 4f b9 04 f2 78 ae bf fa e8 06 2e 25 87 bd
       -0.00019828511 -5.6603625e-11 8.763714e-35 -0.06598888
000170 48 c9 d9 0d b2 cc 07 3c d8 23 06 00 b5 cd dd 3d
       1.3422114e-30 0.008288549 5.63871e-40 0.10830251
000180 ef e2 27 3c 23 ca 84 89 9d b2 8b 3d dc a6 c3 34
       0.010246976 -3.1967933e-33 0.06821177 3.6442987e-07
000190 cd 76 70 bb f2 94 94 be 3e 03 d1 20 fc 73 03 80
       -0.0036691905 -0.29019886 3.5408123e-19 -3.17114e-40
0001a0 f7 72 94 b4 51 3f 6f 2a 80 81 92 bc 7b 55 8c be
       -2.7650796e-07 2.1249432e-13 -0.017884016 -0.27408966
0001b0 4c 34 98 bd f1 ab bf 3d aa 8c dc b7 be fa cb bc
       -0.0743185 0.09358967 -2.6291546e-05 -0.024899837
0001c0 d4 84 20 be c0 8b 57 be 7a e7 92 39 46 6f 17 2d
       -0.1567567 -0.21049404 0.00028019754 8.608064e-12
0001d0 63 0a 21 3e 65 cc 02 00 fa d9 5e a9 b4 f4 c7 bd
       0.15726618 2.56994e-40 -4.9482967e-14 -0.0976347

fc2.weight f4 [84, 120]
000000 37 fe b1 3d ff fa 42 3c a3 94 3b bd 1b 01 0b bd
       0.08691066 0.011900662 -0.045796048 -0.0339366
000010 44 7c fe 3d 38 33 e3 3c 1a 57 4b 3e 90 e0 ad bb
       0.124260455 0.027734384 0.19857445 -0.005306311
000020 e4 b3 cc 3d 29 89 b9 bc 14 c6 7a 3c 5a 2d b6 3d
       0.09995249 -0.02264841 0.015306015 0.08895369
000030 28 16 2b bc 68 bc c9 bd 1b 86 1a 3e 81 8a af 3a
       -0.010442294 -0.09850389 0.1509022 0.0013392718
000040 43 c3 f8 bc a5 6a 05 3e 4f ab 31 3e dd 50 de 3d
       -0.030366546 0.13028963 0.17350505 0.10855267
000050 48 e2 b6 3d f3 20 96 bc 7c 65 c4 bd 09 9a 82 bd
       0.089298785 -0.018326258 -0.09589669 -0.06377036
000060 39 36 43 be ef 25 02 3e de d8 11 3e 6a 6c ec 3c
       -0.19063653 0.12709783 0.14242885 0.02886029
000070 eb 37 1f be 9e b6 8b 3e 85 9d ca bd d4 6a 70 3c
       -0.15548675 0.27287763 -0.09893326 0.014673907
000080 6c 76 57 bd 5d 27 be bd 2f 00 db bc b0 98 09 be
       -0.05260317 -0.09284852 -0.026733486 -0.13437152
000090 5a 8b 92 bd 73 a3 dc bc 43 fe aa 3d 86 f2 df bc
       -0.071554855 -0.026933407 0.08349278 -0.027337324
0000a0 36 bb 47 3d 77 f1 0e 3e b9 b6 b1 3c 75 dc f9 bd
       0.048762523 0.13959299 0.021693574 -0.12200252
0000b0 67 67 53 be 07 66 98 3d 0b c2 09 bb b1 b7 93 bd
       -0.20644914 0.07441335 -0.00210202 -0.07212771
0000c0 cf f0 b0 bd f3 8b 4d 3d 66 7b ba bb 61 03 34 3d
       -0.086396806 0.050182294 -0.00569098 0.043948535
0000d0 e2 0c 27 be 19 2b 88 bc 90 73 99 3d ba c4 a8 3e
       -0.16313508 -0.016622113 0.07492745 0.3296259
0000e0 98 12 20 3d 2e dc 61 3c f9 d0 04 3d 84 62 d9 bc
       0.039080232 0.013785405 0.032425854 -0.026536234
0000f0 2d b8 0d be c8 23 1a 3e 2b 49 0b 3e 9e ea 79 3d
       -0.13839789 0.15052712 0.1360213 0.061014764
000100 d0 05 1d bd 3b c0 28 bc 19 1f 5a bc 46 0d 46 3c
       -0.03833562 -0.010299738 -0.013313078 0.012088126
000110 ea 46 cc bd 45 cb 33 3e a1 41 14 3b 8d 69 b5 3c
       -0.09974463 0.1755801 0.0022622126 0.022145057
000120 31 3a 66 3b 07 44 69 3d ff b0 b0 3d fb 86 ff 3d
       0.00351299 0.05694964 0.08627509 0.12476917
000130 0e ec 0b 3c cd ac 1e be ed e7 9c 3d e5 74 c9 bc
       0.008540167 -0.15495606 0.07661424 -0.024591872
000140 6d 99 c3 bd d7 46 5d be 68 b9 1c be ba e0 3a bd
       -0.09550748 -0.21609055 -0.15305102 -0.045624472
000150 9e 6f 51 3e e5 25 84 3d b1 8f 12 bd 90 a3 8a 3d
       0.20452735 0.0645254 -0.035781566 0.06769478
000160 d2 a2 ab bd 64 7f 85 3b b0 3a 48 3d 23 a7 0f be
       -0.08380665 0.004074024 0.048884094 -0.14028601
000170 79 e9 0e bd 3f a9 06 3e 4e ed 20 3e 97 81 b2 bd
       -0.034890626 0.131505 0.15715525 -0.087161236
000180 00 c8 0f 3c bf 30 c6 bc 87 fe 15 3d 96 47 2f bd
       0.008775711 -0.024193166 0.03661969 -0.04279288
000190 ad 7c e7 bd 71 a6 70 3d 50 d9 6a 3c 29 77 30 be
       -0.11303077 0.05875248 0.014334038 -0.17232956
0001a0 aa 2e 05 be a9 23 d2 bb 81 91 21 bc 62 f5 fb bb
       -0.13006082 -0.0064129424 -0.009861351 -0.007689164
0001b0 39 ff 63 bb 3f 9b 4b 3d 89 8b 4b bc 16 d1 20 bd
       -0.0034789576 0.0497086 -0.0124234045 -0.0392619
0001c0 33 12 5f 3d cb 89 4d be fd 71 a8 3a 7f 2f e3 3b
       0.054460716 -0.20072095 0.0012851354 0.006933152
0001d0 ce f3 d1 3c 05 81 29 3d db f6 ef 3c 06 84 27 3b
       0.02562895 0.04138281 0.029292515 0.002556087
0001e0 ab 03 ee bd d0 b7 13 bd a9 b8 48 bd 8d 69 e4 bc
       -0.11621793 -0.03606397 -0.04900423 -0.027882362
0001f0 a7 72 ca bb de 3e 8b bd 89 56 ee bd 52 43 5d 3d
       -0.0061782184 -0.067991 -0.11637599 0.05401928
000200 e4 9f 6f 3b 89 fd e0 bc d2 57 8d 3d 63 9f c8 3d
       0.0036563808 -0.027464645 0.06901516 0.097960256
000210 b6 17 1b 3b 89 81 28 3d c6 2b cd 3c f5 a2 e2 3d
       0.0023665256 0.04113916 0.025045287 0.11066238
000220 ae 77 02 be a5 50 54 3e c8 a7 be 3d 5a c5 f9 3d
       -0.12740967 0.20733888 0.093093455 0.12195845
000230 f0 c0 6f bc bd 44 52 3d 9a ee 33 3e 10 6b 9a bc
       -0.014633402 0.051335085 0.17571488 -0.01884988
000240 64 a0 33 3d 39 9f 2d be bf 27 01 be b1 b3 19 3d
       0.043854132 -0.1695527 -0.12612818 0.037524883
000250 e9 09 02 bd 4d 8d 99 3d 2a 16 9d 3d 3e 01 89 bd
       -0.031747732 0.07497654 0.07670243 -0.0668969
000260 15 86 e5 3d bc 61 5d 3b 8e da 36 bd e6 41 9a 3d
       0.11207215 0.0033780178 -0.044642024 0.075321004
000270 13 01 05 be 6b 5b 4f 3d d0 91 1e bd 0e 9f 5d 3e
       -0.12988691 0.050624292 -0.038713276 0.21642706
000280 4c a5 ba 3c 44 87 cc 3d 6a d0 20 3d ac 37 40 3c
       0.022783898 0.09986737 0.03926126 0.011732023
000290 d3 7b e4 bc 00 b6 88 3d e0 bc d4 bd 70 56 d5 bc
       -0.027891075 0.06675339 -0.103875875 -0.026042193
0002a0 01 2d a4 3c 76 59 32 bb f5 eb 1e bd e6 8b a0 3d
       0.02004099 -0.0027213967 -0.038799245 0.078391835
0002b0 4f 00 1e 3d 40 5a c6 bd fc f5 db bd 4d 93 12 3d
       0.038574513 -0.096851826 -0.10740277 0.03578501
0002c0 2d 25 81 be f8 92 88 3d 43 e4 da bd 1b be 2f bd
       -0.25223675 0.06668657 -0.10688069 -0.042905908
0002d0 e0 04 c3 bd 46 f5 89 3d 50 6a b9 3b db 5f 49 3e
       -0.09522414 0.06736235 0.0056584254 0.19665472
0002e0 3f 0e b3 3e b7 10 22 be 8e 04 92 3d c7 26 01 bd
       0.34971806 -0.15826689 0.07129775 -0.03153112
0002f0 b6 3d 2b be b2 0c 28 3e 18 d7 c8 bd 6a e2 2b bd
       -0.1672276 0.16411093 -0.09806651 -0.041963972
000300 39 27 d1 bd 03 d9 aa 3d b7 e8 4a bd 94 80 77 3d
       -0.10212559 0.08342173 -0.04953834 0.060425356
000310 ae 07 21 be ae d2 1e bc f8 1f 8a bd f2 3d cc bd
       -0.15725586 -0.009693785 -0.06744379 -0.09972753
000320 f9 38 59 3d 5d a8 02 3e ee 81 af 3d 8b 30 4f 3d
       0.05303285 0.12759538 0.08569704 0.050583404
000330 2f 50 2e bd ec ae 68 bd 9d 91 be 3e 43 8f 58 bd
       -0.042556938 -0.056807443 0.3722047 -0.052871
000340 0d a8 02 3e d5 b3 1f 3e c5 41 67 be ee ec a7 3d
       0.12759419 0.15595944 -0.22583683 0.081994876
000350 66 ed 0e 3e f7 c5 ac ba 5c 40 5f bd 49 13 1b 3e
       0.13957748 -0.0013181557 -0.054504737 0.15144075
000360 3d ba c0 3d 1c 03 d9 3d 56 a6 49 3d 90 28 dd 3d
       0.09410522 0.10596296 0.049230896 0.10798752
000370 08 e3 a1 bd e6 c3 8a bc 24 33 af 3d 8a 0e 03 3c
       -0.07904631 -0.016939115 0.08554676 0.007999072
000380 fb 1e 98 bd 2a 68 6f 3d 0f 6c 31 be af 13 32 bd
       -0.07427784 0.058448948 -0.17326377 -0.043475803
000390 0a d3 c7 3d 3d 9a ce 3d 84 a6 52 be 88 4e 35 3e
       0.097570494 0.10088012 -0.20571333 0.17705739
0003a0 5b b8 f5 3d a1 c1 6d bd 99 1b 24 bc da 5d 6c bc
       0.11998054 -0.058045987 -0.010016345 -0.014426673
0003b0 e1 c5 d4 3d 1e f3 ac 3a ce 75 0b be a7 40 3e be
       0.10389305 0.0013195013 -0.13619158 -0.1857935
0003c0 4f b5 dc bc 1e 79 c7 3d 9b 1c cb bc d9 a7 91 3d
       -0.026941923 0.09739898 -0.024793914 0.071120925
0003d0 60 56 60 3d 7e 71 69 bd fd 3d 18 3e 94 19 6f bc
       0.054769874 -0.056993 0.14867397 -0.014593501
0003e0 de ab 1f 3e 48 a5 01 3d 49 a7 08 bd e7 1d fb 3d
       0.15592906 0.031651765 -0.03336266 0.12261563
0003f0 2b a5 88 bd e4 b0 76 3d 5a d1 20 3e 1e 16 13 3d
       -0.06672128 0.06022729 0.15704861 0.035909764

fc2.bias f4 [84]
000000 0a 1c 1b 3e 36 70 9b 3d 14 1f 53 bd 14 b0 fa 3d
       0.15147415 0.07589762 -0.05154331 0.122406155
000010 70 b7 45 ba 23 00 47 3c 60 8d 37 3e 56 86 80 35
       -0.0007542288 0.012146029 0.17925024 9.57584e-07
000020 76 5e 18 bc c0 09 27 2b 1c 01 40 be 7a f2 9e 3e
       -0.009299865 5.934385e-13 -0.18750423 0.3104437
000030 0d 2b 89 b5 46 d4 7c 2f 6d 37 e6 32 3b b6 0c be
       -1.0219825e-06 2.2994681e-10 2.6800729e-08 -0.1374139
000040 1d 40 9a bc f3 1e 0a b8 ca de 33 3e aa 2f 3d 3d
       -0.0188294 -3.2930588e-05 0.17565456 0.046188034
000050 85 c9 03 17 24 50 4d 3e d9 60 00 00 97 a1 0c 3e
       4.2582736e-25 0.20050102 3.4742e-41 0.13733517
000060 25 86 00 00 b3 ab 34 3e 1e 9c 46 ab 24 39 9a b0
       4.8122e-41 0.17643623 -7.0560387e-13 -1.1221215e-09
000070 0a c4 00 b0 6e 0f 00 80 b5 f2 ea 31 65 ce aa 34
       -4.6844717e-10 -5.535e-42 6.837889e-09 3.181514e-07
000080 03 dd 16 b1 ee ce ff b1 1e 3c 25 af f3 a1 c9 3d
       -2.1953503e-09 -7.445002e-09 -1.502802e-10 0.098453425
000090 c4 f8 60 3d 8a 56 5c bd 8d b2 03 00 11 de bb 3e
       0.05492474 -0.053793468 3.39558e-40 0.3669286
0000a0 8a 49 61 be 93 dd b6 3c 93 08 2a 2d 03 07 8d 3c
       -0.22000709 0.022322452 9.665285e-12 0.017215258
0000b0 70 68 2b aa 09 67 b7 aa 9c ba 65 3e 33 56 67 32
       -1.5224085e-13 -3.2578825e-13 0.22434467 1.3465569e-08
0000c0 34 4d 8c 29 06 72 44 3e 2a e6 c6 bd 47 f2 4c 3c
       6.2306415e-14 0.19184121 -0.09711869 0.012508935
0000d0 6b e7 3a 3e 72 24 f2 bd ae e0 d1 3d c9 41 88 35
       0.18252341 -0.11823358 0.102479324 1.0151936e-06
0000e0 85 72 30 a9 85 63 d8 af 49 3b 02 00 52 fe ae 30
       -3.917918e-14 -3.9360884e-10 2.04938e-40 1.2732448e-09
0000f0 9a 30 20 2c 11 09 45 b5 03 f7 8f b3 87 66 d6 3d
       2.2764347e-12 -7.340141e-07 -6.7038876e-08 0.10468774
000100 d7 87 3f 36 62 3b 5a 38 4f 5a d6 b0 f3 50 e7 ab
       2.8540287e-06 5.2030555e-05 -1.5596217e-09 -1.6436005e-12
000110 24 35 3f 34 02 6e 88 3e bc a4 73 3d 10 d7 d2 3e
       1.7807594e-07 0.2664643 0.059483275 0.41179705
000120 35 8f f2 be fa e5 07 bd 71 24 86 3d dc 1a 3c b7
       -0.47374883 -0.033178307 0.065499194 -1.1211927e-05
000130 8a fb 62 b4 21 fa 9e ad ce b1 8c b3 88 1a 4f 3e
       -2.11394e-07 -1.80736e-11 -6.5516005e-08 0.20224965
000140 97 7e 85 3e ad 58 d1 3d e7 38 bb 3d a6 c0 4f 35
       0.26073143 0.10221992 0.09141713 7.739385e-07

fc3.weight f4 [10, 84]
000000 27 87 32 bd 7d 77 9d bc f8 e5 0c be bd 06 0f 3e
       -0.043585923 -0.019222016 -0.13759601 0.13967414
000010 13 f0 9c 3e d2 8c 05 be a0 9e b2 bd 91 b3 a6 bd
       0.30651912 -0.13042 -0.087216616 -0.08139718
000020 fa 18 c5 3d df 81 d8 bd 7f cc 52 3e 54 b5 b3 3d
       0.096239045 -0.10571646 0.20585822 0.0877482
000030 c4 fc e0 3d 0e 7c 0c 3e 15 3b c8 bd 1b 3d db bd
       0.10985711 0.13719198 -0.09776894 -0.10705014
000040 8d be 0e 3e 30 49 58 3b c9 12 8c be cd d1 cb 3b
       0.13939877 0.0033002608 -0.27358082 0.0062200786
000050 06 ac 74 3e ae 57 fe bd 59 df 85 bb 03 80 6d be
       0.23893747 -0.12419067 -0.004085463 -0.23193364
000060 e5 44 20 be 3c 64 48 bd fc 96 cb 3d 35 19 06 3e
       -0.15651281 -0.048923716 0.09940907 0.13095553
000070 c6 b6 38 3e 3c 60 81 3c 38 08 1d 3e 35 45 36 3e
       0.18038473 0.015792958 0.15335166 0.17799838
000080 78 28 8a be 59 27 2e bd 6d 66 4d bd 55 b5 96 be
       -0.26984 -0.042517994 -0.05014651 -0.2943522
000090 aa 78 81 3e 15 ce 88 be 1a 97 3d be f6 ea 60 3d
       0.25287372 -0.26719728 -0.18514672 0.054911576
0000a0 48 84 82 bd 4d 2b 4f be a8 99 a8 bb de 1d e4 bd
       -0.06372887 -0.20231362 -0.0051452704 -0.11138509
0000b0 48 e4 c4 3d d8 d6 3d 3e eb c8 c7 3d 98 9d 04 3b
       0.09613854 0.18538988 0.09755119 0.0020235535
0000c0 34 e2 8e be 9c f8 34 3e f4 d7 bb 3e 11 f6 a5 ba
       -0.27906954 0.17672962 0.36688197 -0.0012661834
0000d0 08 96 85 3d 19 5d 15 be 74 ea 17 be 57 76 6b 3e
       0.06522757 -0.14586295 -0.1483553 0.22994362
0000e0 a0 94 25 be fe 54 4c bd 70 9c ce 3c 1b 57 95 3d
       -0.16169977 -0.049885742 0.02522108 0.07292005
0000f0 4b 3d de bc 55 97 18 3e d0 09 69 be 93 dd 0b be
       -0.027128836 0.14901479 -0.2275765 -0.13658743
000100 0b ba 6c be 0e 6f 33 3d b2 61 de 3e e7 06 76 3d
       -0.23117845 0.043807082 0.4343391 0.060065176
000110 60 1b 61 3d 9b 1f ba 3e da a6 04 3e fc 71 c5 bd
       0.054957747 0.36352238 0.12954274 -0.096408814
000120 f2 d8 42 3e e0 a2 06 3d 35 29 91 3d 9c 03 f7 bc
       0.1902807 0.032870173 0.07087938 -0.030153088
000130 6d 6d b7 3c f6 86 80 3c 45 1b d4 bc 69 38 de bd
       0.022391045 0.015689354 -0.02589191 -0.10850603
000140 ff 58 32 3d 36 b9 be 3c 11 c5 55 bd 88 c9 e4 3d
       0.043541905 0.023281675 -0.05218989 0.111712515
000150 72 0f 38 bd 86 c6 fd 3c 74 29 df 3c 62 af ee bd
       -0.044936605 0.030978452 0.027241446 -0.11654545
000160 d3 43 c9 bd 81 f1 9d bd f7 64 62 bd 91 23 c2 bb
       -0.098273896 -0.07712079 -0.05527207 -0.00592465
000170 9a 3a e7 3d d9 85 c5 3d 50 6d 54 3d 80 b3 68 3e
       0.11290474 0.0964467 0.05186206 0.22724724
000180 48 7f fe 3d 42 3a bd 3e c4 75 0e 3e 4b 8d da 3d
       0.12426621 0.3695851 0.13912112 0.10671481
000190 54 ab a8 bd f4 4a 34 3c 24 b0 84 3d 2d ab 0b 3d
       -0.08235803 0.011004198 0.06478909 0.034098793
0001a0 0d d7 4d 3e fc 0d 72 3a b6 b4 23 3e 53 72 c2 bd
       0.20101567 0.0009233651 0.15986905 -0.09494462
0001b0 86 4f c0 bd 80 03 70 3e 04 3a 72 3e 37 09 c5 bd
       -0.09390168 0.23438835 0.23654944 -0.09620898
0001c0 5b 18 d4 3d 05 e9 e6 bd 4f bc 24 3d 45 a8 3f 3e
       0.10356208 -0.11274914 0.040218648 0.18716533
0001d0 4a 6f 54 3d 20 4c 1f 3e 69 79 46 bd 12 e7 61 3d
       0.051863946 0.15556383 -0.04845563 0.055152006
0001e0 34 3f 02 3e c8 c6 76 be c4 bb 4c 3e 01 9f 29 3e
       0.12719423 -0.24099267 0.19993502 0.16564561
0001f0 50 a1 13 be e4 d6 48 3e f2 2c 81 3e 8f bc b7 3d
       -0.14417005 0.19613224 0.25229603 0.089715116
000200 e0 10 98 bc cc 01 11 be c0 7b ae 3e 30 47 4a 3e
       -0.018562734 -0.14160842 0.3407879 0.19753718
000210 67 cc 02 be f0 f2 7b 3e 0d b8 6c be 91 c2 a9 bd
       -0.12773286 0.24604392 -0.23117085 -0.08289064
000220 cc ac 89 3e 05 27 90 3e 1f 32 76 bd 24 3c 27 3e
       0.26889646 0.2815477 -0.060106393 0.16331536
000230 3a 32 bc bd 15 6f e4 3d 20 7f 10 3e 59 42 ae 3d
       -0.091892675 0.11154 0.14110994 0.085087486
000240 c1 6e e4 3d 9a 03 11 be d7 e8 b8 3c 54 9c 72 3d
       0.11153937 -0.1416153 0.022571964 0.059231117
000250 39 7d 48 3e 6a 95 6c 3b ed d5 94 3d b6 ad ff bd
       0.19579019 0.00360998 0.072673656 -0.124843046
000260 8a 37 75 3e e5 66 05 3e 99 9f 86 ba 39 9a 74 3e
       0.23946968 0.13027532 -0.0010270952 0.23886956
000270 9c 1f 30 3d e8 cd a9 bd f5 61 95 3d b5 59 10 3e
       0.042998895 -0.082912266 0.072940744 0.1409672
000280 33 5b 5c bd 61 63 4b be 04 a3 ff 3d 69 b6 e6 3c
       -0.05379791 -0.19862129 0.12482265 0.028163152
000290 ac 6f 52 3e 54 1c c3 bd 91 5a 41 bd a1 36 81 3d
       0.20550412 -0.095268875 -0.04720551 0.06309248
0002a0 75 8d d4 bc 50 7f 95 3d e4 85 19 3e 88 42 20 3e
       -0.025946358 0.072996736 0.14992481 0.1565038
0002b0 9e ea 42 be 0e f4 f7 bd ce 32 23 3c 4d 4f 8d 3d
       -0.19034812 -0.121070966 0.009960843 0.06899891
0002c0 0b e9 56 3e 48 12 1c 3d 99 fd ac bc ac 11 c3 bd
       0.20987336 0.03810337 -0.021117019 -0.09524855
0002d0 17 db fd bd 85 c0 18 3d 40 a0 90 bd 0e f6 20 3c
       -0.12395304 0.037292976 -0.07061815 0.009824289
0002e0 30 06 9d bd 75 71 16 3e 9d 86 df bd 39 b7 2b bd
       -0.07667196 0.14691718 -0.10914347 -0.04192278
0002f0 15 49 8c 3e 25 b1 c4 bd 3a 3f ff bd 23 75 ef 3b
       0.27399507 -0.096041 -0.124632314 0.007307665
000300 d3 95 13 be bb aa 48 3e 47 e4 bf be a9 49 b6 3d
       -0.14412622 0.19596379 -0.3747885 0.08900768
000310 0b ac 18 bd c2 84 44 3d 9e e3 17 be 22 59 98 3e
       -0.037273448 0.04797817 -0.14832923 0.29755503
000320 05 78 48 3e 60 7e e5 3d 9f 03 38 bb 71 25 38 bd
       0.19577034 0.11205745 -0.002807833 -0.044957582
000330 84 94 d0 bd 5d c2 50 3e 44 38 17 3d 5a 76 28 3d
       -0.10184577 0.20386644 0.036918893 0.041128494
000340 ef 67 00 3e 48 fc d4 3d 2f 88 0d be 21 81 31 3e
       0.12539648 0.10399681 -0.13821481 0.17334415
000350 07 ca 11 be 09 40 54 be 10 04 b2 3c aa 20 58 be
       -0.14237224 -0.20727552 0.021730453 -0.2110621
000360 4b ab 35 bc 74 7f 21 bd 1e d4 09 3e 2a 81 3a 3e
       -0.011088203 -0.03942819 0.13459823 0.18213335
000370 06 7b de bd 67 49 95 3e e4 96 f0 bd 6f 3e 60 be
       -0.108633086 0.29157564 -0.1174753 -0.21898817
000380 de e5 97 3d 12 ff 87 bd 85 41 51 bc 78 e7 27 bc
       0.074168906 -0.06640448 -0.012771969 -0.010248058
000390 d1 48 f8 bd 7d 3c e4 3d 77 bc 25 bc 79 5a 05 be
       -0.121232636 0.1114435 -0.010115734 -0.13022794
0003a0 a3 ea 5f 3e e1 95 74 3d 8e 3b 13 be d7 0a 6b bd
       0.2186685 0.05971325 -0.14378187 -0.057383385
0003b0 18 53 3a 3d c4 b0 4d be 26 2d 57 3d df 2e 63 be
       0.0454894 -0.20086962 0.05253329 -0.22185849
0003c0 95 63 c4 3e 53 ef a5 3c 54 bd 7b 3c eb 95 1d be
       0.38357225 0.02025572 0.015364964 -0.1538922
0003d0 82 95 06 3e 9e c6 06 be 5d 7f db 3d 99 68 54 3e
       0.1314297 -0.13161704 0.10717652 0.20743026
0003e0 48 d2 01 3e de 79 a0 3d 76 34 37 be 06 60 85 bd
       0.12677872 0.07835744 -0.17891106 -0.06512456
0003f0 5d 54 05 bd 5a 2c 65 3d 39 86 4b be 52 62 ea bd
       -0.03255116 0.0559505 -0.1987542 -0.11444534

fc3.bias f4 [10]
000000 bd d7 26 bf 3c 5b ea be 21 d7 b1 3d ae bb 38 3f
       -0.6517294 -0.4577273 0.08683611 0.72161376
000010 fc 73 98 3e b2 88 fe bd e8 7e f2 bd a9 8f 16 be
       0.2977599 -0.12428416 -0.11840612 -0.1470324
000020 ac 4e 4c be 89 9b e5 3e
       -0.19951886 0.44845226

conv1.weight f4 [6, 3, 5, 5]
000000 00 00 00 80 00 00 00 00 00 00 00 80 00 00 00 80
       -0.0 0.0 -0.0 -0.0
000010 00 00 00 00 00 00 00 80 00 00 00 80 00 00 00 00
       0.0 -0.0 -0.0 0.0
000020 00 00 00 80 00 00 00 80 00 00 00 80 00 00 00 00
       -0.0 -0.0 -0.0 0.0
000030 00 00 00 80 00 00 00 80 00 00 00 80 00 00 00 80
       -0.0 -0.0 -0.0 -0.0
000040 00 00 00 80 00 00 00 00 00 00 00 80 00 00 00 80
       -0.0 0.0 -0.0 -0.0
000050 00 00 00 80 00 00 00 80 00 00 00 80 00 00 00 80
       -0.0 -0.0 -0.0 -0.0
000060 00 00 00 00 00 00 00 00 00 00 00 00 00 00 00 00
       0.0 0.0 0.0 0.0
000070 00 00 00 00 00 00 00 00 00 00 00 80 00 00 00 00
       0.0 0.0 -0.0 0.0
000080 00 00 00 00 00 00 00 00 00 00 00 00 00 00 00 80
       0.0 0.0 0.0 -0.0
000090 00 00 00 00 00 00 00 80 00 00 00 00 00 00 00 00
       0.0 -0.0 0.0 0.0
0000a0 00 00 00 00 00 00 00 00 00 00 00 00 00 00 00 80
       0.0 0.0 0.0 -0.0
0000b0 00 00 00 00 00 00 00 80 00 00 00 00 00 00 00 00
       0.0 -0.0 0.0 0.0
0000c0 00 00 00 80 00 00 00 80 00 00 00 00 00 00 00 00
       -0.0 -0.0 0.0 0.0
0000d0 00 00 00 80 00 00 00 80 00 00 00 80 00 00 00 80
       -0.0 -0.0 -0.0 -0.0
0000e0 00 00 00 80 00 00 00 80 00 00 00 80 00 00 00 80
       -0.0 -0.0 -0.0 -0.0
0000f0 00 00 00 00 00 00 00 80 00 00 00 00 00 00 00 80
       0.0 -0.0 0.0 -0.0
000100 00 00 00 80 00 00 00 80 00 00 00 00 00 00 00 80
       -0.0 -0.0 0.0 -0.0
000110 00 00 00 80 00 00 00 00 00 00 00 80 00 00 00 80
       -0.0 0.0 -0.0 -0.0
000120 00 00 00 80 00 00 00 80 6b 0e 00 80 00 00 00 00
       -0.0 -0.0 -5.172e-42 0.0
000130 00 00 00 00 00 00 00 80 00 00 00 80 4d f9 d4 b5
       0.0 -0.0 -0.0 -1.5867787e-06
000140 00 00 00 80 00 00 00 80 00 00 00 00 00 00 00 80
       -0.0 -0.0 0.0 -0.0
000150 00 00 00 80 00 00 00 00 c6 0e 00 80 75 bd 21 b8
       -0.0 0.0 -5.3e-42 -3.8561837e-05
000160 00 00 00 80 d9 07 14 80 68 e9 4e a7 00 00 00 80
       -0.0 -1.839525e-39 -2.8714773e-15 -0.0
000170 00 00 00 80 5d 12 00 80 00 00 00 80 00 00 00 80
       -0.0 -6.588e-42 -0.0 -0.0
000180 00 00 00 00 00 00 00 80 00 00 00 00 00 00 00 80
       0.0 -0.0 0.0 -0.0
000190 df 1b 95 bb 2d 5d c9 bb 95 c5 79 bc 00 00 00 80
       -0.0045504416 -0.0061451406 -0.015244861 -0.0
0001a0 00 00 00 80 00 00 00 80 00 00 00 00 00 00 00 00
       -0.0 -0.0 0.0 0.0
0001b0 a4 cb ec 3e e9 0e 7c 3e 00 00 00 80 a0 88 c2 bc
       0.46249115 0.24615063 -0.0 -0.023746789
0001c0 4e db 00 00 6a 2d 00 80 d9 2b 00 80 00 00 00 80
       7.8672e-41 -1.6291e-41 -1.573e-41 -0.0
0001d0 00 00 00 00 06 e4 38 bc 00 00 00 80 00 00 00 00
       0.0 -0.011284834 -0.0 0.0
0001e0 8f ed e2 ba 00 00 00 00 00 00 00 80 29 1d 00 00
       -0.001731323 0.0 -0.0 1.046e-41
0001f0 00 00 00 80 00 00 00 00 00 00 00 00 00 00 00 80
       -0.0 0.0 0.0 -0.0
000200 00 00 00 80 00 00 00 00 ce cd e1 3f 00 00 00 00
       -0.0 0.0 1.7640932 0.0
000210 00 00 00 00 00 00 00 00 00 00 00 80 00 00 00 00
       0.0 0.0 -0.0 0.0
000220 00 00 00 80 00 00 00 00 00 00 00 00 00 00 00 80
       -0.0 0.0 0.0 -0.0
000230 00 00 00 80 00 00 00 00 00 00 00 00 00 00 00 80
       -0.0 0.0 0.0 -0.0
000240 00 00 00 80 00 00 00 80 00 00 00 80 00 00 00 00
       -0.0 -0.0 -0.0 0.0
000250 00 00 00 00 00 00 00 80 00 00 00 00 00 00 00 80
       0.0 -0.0 0.0 -0.0
000260 00 00 00 80 00 00 00 80 00 00 00 00 00 00 00 00
       -0.0 -0.0 0.0 0.0
000270 00 00 00 80 00 00 00 00 00 00 00 00 00 00 00 80
       -0.0 0.0 0.0 -0.0
000280 00 00 00 80 00 00 00 00 00 00 00 00 00 00 00 80
       -0.0 0.0 0.0 -0.0
000290 00 00 00 80 00 00 00 00 00 00 00 00 00 00 00 80
       -0.0 0.0 0.0 -0.0
0002a0 00 00 00 80 00 00 00 80 00 00 00 80 00 00 00 00
       -0.0 -0.0 -0.0 0.0
0002b0 00 00 00 80 00 00 00 00 00 00 00 80 00 00 00 00
       -0.0 0.0 -0.0 0.0
0002c0 00 00 00 00 00 00 00 00 00 00 00 80 00 00 00 80
       0.0 0.0 -0.0 -0.0
0002d0 00 00 00 00 00 00 00 00 00 00 00 00 00 00 00 80
       0.0 0.0 0.0 -0.0
0002e0 00 00 00 00 00 00 00 80 00 00 00 00 00 00 00 00
       0.0 -0.0 0.0 0.0
0002f0 00 00 00 80 00 00 00 80 00 00 00 80 00 00 00 00
       -0.0 -0.0 -0.0 0.0
000300 00 00 00 80 00 00 00 80 00 00 00 00 00 00 00 80
       -0.0 -0.0 0.0 -0.0
000310 00 00 00 80 00 00 00 80 00 00 00 80 00 00 00 80
       -0.0 -0.0 -0.0 -0.0
000320 00 00 00 00 00 00 00 80 00 00 00 80 00 00 00 80
       0.0 -0.0 -0.0 -0.0
000330 00 00 00 80 00 00 00 80 00 00 00 00 00 00 00 00
       -0.0 -0.0 0.0 0.0
000340 00 00 00 80 00 00 00 00 00 00 00 80 00 00 00 80
       -0.0 0.0 -0.0 -0.0
000350 00 00 00 80 00 00 00 80 00 00 00 00 00 00 00 00
       -0.0 -0.0 0.0 0.0
000360 00 00 00 00 00 00 00 80 00 00 00 80 00 00 00 80
       0.0 -0.0 -0.0 -0.0
000370 00 00 00 00 00 00 00 80 00 00 00 80 00 00 00 00
       0.0 -0.0 -0.0 0.0
000380 00 00 00 00 00 00 00 00 00 00 00 00 00 00 00 80
       0.0 0.0 0.0 -0.0
000390 00 00 00 80 00 00 00 80 00 00 00 80 00 00 00 00
       -0.0 -0.0 -0.0 0.0
0003a0 00 00 00 80 00 00 00 80 00 00 00 80 00 00 00 80
       -0.0 -0.0 -0.0 -0.0
0003b0 00 00 00 80 00 00 00 80 00 00 00 80 00 00 00 80
       -0.0 -0.0 -0.0 -0.0
0003c0 00 00 00 00 00 00 00 80 00 00 00 00 00 00 00 80
       0.0 -0.0 0.0 -0.0
0003d0 00 00 00 80 00 00 00 80 00 00 00 00 00 00 00 80
       -0.0 -0.0 0.0 -0.0
0003e0 00 00 00 00 00 00 00 00 00 00 00 80 00 00 00 80
       0.0 0.0 -0.0 -0.0
0003f0 00 00 00 80 00 00 00 00 00 00 00 00 00 00 00 00
       -0.0 0.0 0.0 0.0

conv1.bias f4 [6]
000000 89 fe 27 b3 c3 ce 95 bf 87 4b da b4 90 cd 81 b8
       -3.9114216e-08 -1.1703724 -4.0660618e-07 -6.189488e-05
000010 88 3b 3e bf 30 6d d5 a1
       -0.7430959 -1.4462343e-18
