saves/lenet5/cifar10/new_run/logs_regular_pp0x1_seed1_co2False_cifar10.pt (torch, 758475 bytes, 30 tensors)

conv1.weight f4 [6, 3, 5, 5]
00000000: 80d4 e4bc 7132 813e 9e90 59bc ecfb a2bd
00000010: ab65 e03c 7337 dbbc 6952 0cbe f229 653e
00000020: 6e3e dbba 829a 86be de4a 12bd 430b 883d
00000030: d5bc 06be f2c0 40bc 6dc5 b2bd 9649 15be
00000040: d349 3dbd 4f90 163b 8a65 1abe d384 a3bd
00000050: 63ae a1bd d79a 75bd 3780 fabd 61c0 31bd
00000060: dde1 863c 40d6 fd3d f756 813e 097a 163e
00000070: 0b68 1c3d 91ee 8f3c d8cc 14be fb9b 013e
00000080: 1977 5d3d 3dcf 2b3b 783b a03a 30c8 85be
00000090: b9f2 113d 9054 bfbc 5164 813d 9105 3a3e
000000a0: 9f89 173c 6c8d b13d 3916 083c b95a 30bc
000000b0: d831 5e3e b21b dcbc 1a6b 923d 6660 df3d
000000c0: a7a4 d2bd 9a6a 40bc b892 0b3d 6b29 a43d
000000d0: d1ba cfbd f6ca e3bc cb31 c0bd 7a62 3cbd
000000e0: 9ea1 dcbc cd7c 85bd b108 b5bd e6de f4ba
000000f0: c98a 603d 64a4 a4bd 3074 093d 2418 04be
00000100: 9da9 0abe 87b5 12be 3ff0 b03c d963 50bc
00000110: 2993 3bbe b24a 253e bda4 12bd 5b32 f8bd
00000120: 0b55 07be 69ed d6bd 35c4 0a3e 5e04 b03d
00000130: d0e2 813c fdb5 03bd 0deb 1ebd 025f 153e
00000140: 780a 2ebd 99b1 04be 6d7c 203d 7a74 50bd
00000150: c9fc c6bd 17d5 1b3d c597 313e 4a39 243e
00000160: 631a 2bbe 75e0 e33d a16c de3d 4144 c6bd
00000170: 9d14 23be b007 37bd 68c0 fdbd 9342 98bd
00000180: e3c0 113d 129d 55bd fe0c 313d d996 babd
00000190: 8b70 263e 7cdd 273e ff44 973d ef50 03be
000001a0: 2d9c 8abc 341f babc 7cdb 883c fa53 b43c
000001b0: 048e e63d d7f8 ac3d b0d7 edbd 394e b93d
000001c0: a13a d83d 9e19 0e3e ff59 003e 276b e8bd
000001d0: a56a 7e3d b4cf 2e3e dd54 3bbd fa66 493c
000001e0: 6575 da3d c6ec 553d e8f8 7abd e1e0 f4bd
000001f0: cd6f 26bd 16ba 273d 6094 933d c952 cbbd
00000200: 792f a2bd b3b6 383d 7d8b 843d 5752 943d
00000210: 5c5e 923c 6cf3 bf3c 65fa 72bd e0a0 9c3c
00000220: 24bb b2bd d249 9b3d d5f4 0a3e 1bbc 27bd
00000230: 7f6a 01be f24f b03d d01a 133c 19d6 04be
00000240: 0794 b9bc 267d b0bd 7adc 17bd ae61 da3d
00000250: 0c2d 323d 6db7 83bd d072 943c 2054 49be
00000260: 101a b5bd 39ca 0abe be76 983c 1a6a 803d
00000270: 742b 96bd 5977 453d 689f ea3d f99c 3ebe
00000280: 010c 85bd d71e 8c3b 865c ca3c bd24 82bd
00000290: 7598 8fbc 7941 143c 75e7 1b3d e88a 42bd
000002a0: 4b97 28bc ba47 8fbd 4917 d5ba 4aab 2f3e
000002b0: f797 e4bc 0c72 073e 34f3 76bd 13d7 4f3c
000002c0: 8c17 023b 6672 863b ac96 f6bc 5ee0 30bd
000002d0: 8cc8 e73d cdc2 333c 6a74 ea3c 55a4 31be
000002e0: a399 4a3d 9901 21be f012 fe3a 0505 dd3d
000002f0: 2d7b bfbd 2b4a 53bd ffef 58bd e28a 653a
00000300: 4153 b4bd 6b52 c0bd c03c 2d3d 020c 97bd
00000310: 912d aabd b8aa 7abd 6ece e4bd f3f9 0ebe
00000320: ad1a 123e 2489 86bc afe9 dcbc cef6 ffbd
00000330: dddc 6bbb e0e2 9fbd 1461 873d a8ae 333e
00000340: 67fa 10bc 98b1 3b3d 2fa8 42bc 3655 04bc
00000350: e230 39be d0a6 0dbb d174 eb3d f287 c73d
00000360: 1959 0e3e 0d9a 4ebc 3858 6fbd a16a f5bd
00000370: 534b 193d a445 f6bd 37f5 82bc 48a1 8a3d
00000380: b023 5d3b f628 993c e7c3 c13d 8c8f b9bc
00000390: 1e7a c0bb 5de1 00bd 4053 c8bc 7cd9 133e
000003a0: ce64 5bbd 6056 3ebd fd1c fbbc 799c fdbd
000003b0: 5d50 28bd 5bc6 10be 64c3 21be c3a5 babd
000003c0: be28 b03d a93a 0ebe 8ad4 0f3e 5d3e 20be
000003d0: c75c afbd 935a cbbd 57c2 cc3b f016 b3bd
000003e0: c359 b03d f815 3a3d 487b 06bd eff8 d5bd
000003f0: ea9f 59bd 2693 fc3b 58b7 233e 35d5 243e
-0.02793336 0.25233796 -0.013279108 -0.079582065 0.027392229 -0.026759839 -0.13703312 0.22379282
-0.001672698 -0.26289755 -0.03571593 0.06642773 -0.13157971 -0.011764752 -0.08729062 -0.14578852
-0.046212982 0.0022974198 -0.15077797 -0.079843186 -0.0789459 -0.05996212 -0.12231486 -0.043396357
0.016465122 0.123943806 0.2526166 0.1469499 0.03818516 0.017569812 -0.14531267 0.12657158
0.05406866 0.0026216053 0.0012224754 -0.26129293 0.03563187 -0.023355752 0.06317962 0.18166186
0.00924912 0.08669552 0.00830608 -0.0107638175 0.21698701 -0.026868675 0.07149334 0.109070584
-0.10285311 -0.011744166 0.03407547 0.08015712 -0.10143054 -0.02780674 -0.09384497 -0.045992352
-0.026932534 -0.065179445 -0.088395484 -0.0018682152 0.054819856 -0.080391675 0.03355807 -0.12899834
-0.13541265 -0.1432706 0.021598933 -0.012719118 -0.18317856 0.16141775 -0.035801638 -0.121189795
-0.13216035 -0.10494501 0.1355141 0.08594583 0.015855223 -0.03215598 -0.03879838 0.14587024
-0.042490453 -0.12958373 0.03918116 -0.05089233 -0.09716184 0.038045015 0.17343052 0.16037479
-0.16709284 0.11126796 0.10860563 -0.09680987 -0.15925832 -0.044685066 -0.12390214 -0.07434573
0.03558434 -0.052151747 0.04322528 -0.09110803 0.16253869 0.16393083 0.07386207 -0.12823842
-0.016920174 -0.022719957 0.01670622 0.0220127 0.11257556 0.084459 -0.11613405 0.09048123
0.105580576 0.1387696 0.12534331 -0.11348563 0.062113423 0.1707142 -0.04573523 0.012292618
0.106669225 0.052227758 -0.06127253 -0.11956955 -0.040633965 0.04094895 0.07206035 -0.099278994
-0.07919211 0.04509611 0.06471918 0.072422676 0.01786726 0.023431502 -0.059320826 0.01911968
-0.087271005 0.075824395 0.13569959 -0.040950876 -0.12638281 0.08608998 0.008978561 -0.12972297
-0.022653593 -0.0861762 -0.037075497 0.10663162 0.04349999 -0.0643147 0.018121153 -0.19660997
-0.08842862 -0.13553704 0.018611308 0.06270237 -0.07332507 0.048209522 0.114561856 -0.18614568
-0.0649643 0.0042761373 0.024702322 -0.063546635 -0.017528752 0.009048813 0.03806253 -0.047495753
-0.010289977 -0.06996103 -0.001625755 0.17155185 -0.027904494 0.13227099 -0.06029053 0.012685555
0.001985046 0.004102993 -0.030101143 -0.043182723 0.11317548 0.010971737 0.028619964 -0.17347844
0.049462926 -0.15723266 0.0019384306 0.10791973 -0.09349666 -0.051584404 -0.052963253 0.0008756352
-0.08804942 -0.0939072 0.042294264 -0.07375337 -0.08309472 -0.061197966 -0.11172186 -0.13962536
0.14267989 -0.016422816 -0.026966898 -0.12498246 -0.00359898 -0.07806945 0.06610313 0.17547095
-0.008848763 0.045823663 -0.011880918 -0.0080769565 -0.18085054 -0.002161432 0.1149689 0.097427264
0.13901176 -0.012609971 -0.05843374 -0.119832285 0.03742535 -0.12025002 -0.015986068 0.06769043
0.0033743195 0.01869629 0.094611935 -0.022651456 -0.0058739325 -0.031464923 -0.02445376 0.14438432
-0.05356293 -0.046469092 -0.030653471 -0.123833604 -0.041092265 -0.14138167 -0.15797192 -0.09113648
0.08601521 -0.13889565 0.14045921 -0.1564879 -0.08562618 -0.09929385 0.006248753 -0.08744609
0.08610871 0.045431107 -0.032832414 -0.10447871 -0.05313102 0.007707971 0.15987909 0.16096957

conv1.bias f4 [6]
00000000: c44c 22bf 43a4 24bf 015b 24bf 9b3a b9bf
00000010: b4ac e33e 8a75 1bbf
-0.63398385 -0.64313143 -0.6420136 -1.447101 0.444677 -0.60726225

conv2.weight f4 [16, 6, 5, 5]
00000000: b17e 0fbd 0057 7cbd e0c8 4d3d eaff 9f3c
00000010: 5679 eb3c 5022 383d 92e9 0fbd 2180 e43d
00000020: 2981 493c 9ceb 6e3c 8892 f13c 653b 59bd
00000030: b329 153d 4fa4 0dbd 5c9e 96bd bca4 e4bd
00000040: 0e31 533d 37f1 713c 70a3 11bc 357b b23d
00000050: f19d 52bd 6317 673d 3254 75bd ab7e 29bd
00000060: 1ab3 20bd 416f 0b3d 6d5c 173d c4d7 f53d
00000070: f4ba 81bb 101b 04be f47d 03bc 6430 2bbd
00000080: dc45 503d c726 773c 7af3 f23d 0059 33bd
00000090: 2781 97bd 33db 443c d61d b5bd b8f4 25bd
000000a0: 57f1 8bbd 0cb7 933d 3d2e adba f966 ddba
000000b0: e5dd e3bb b0ae c038 14c6 423d 0c0a 923c
000000c0: fc41 893d 0e9d 693d 5b8a 45bd 5c3a 3c3d
000000d0: 95f6 7c3d 2519 d3bd 0d07 a8bc 5d87 9abc
000000e0: 82d3 a83d d402 3cbd b7c5 35bc fc84 38bd
000000f0: 0aa7 7f3b b312 9c3d 842f d03c 74aa 8d3c
00000100: 071c 833c 945f 1b3b 2d91 173d 4b6a cc3d
00000110: 0818 d03d 5230 c6bc de56 9fbd 920a bfbc
00000120: 7cd2 863c f238 b13c 538a ce3d e5ae 62bc
00000130: 5c77 5b3c c16c e63c 6c6a 03bd 2ff6 37bd
00000140: 1c61 91bd 08a1 77bd a461 d8bd d393 48bd
00000150: 67d0 15bc 608f 403d b679 293d 9c73 17bc
00000160: 76c8 bebb 8d05 083d a898 323d 9892 e1bd
00000170: 6e46 7fbd 3c43 d1bb 8215 113d f583 75bd
00000180: 6a20 c43b 3892 b5bd 185f 96bd 1760 e4bc
00000190: f9ba f23c d9ef 523d 0ad3 723d 7b56 f13d
000001a0: eb71 543d c0a3 62bc 42c8 bdbd 69c9 b2bd
000001b0: c0f7 c2bc 3f50 f33c 9638 023c f9a4 2abd
000001c0: b766 1b3c 4287 b2bd 8c41 8c3d bb36 ec3c
000001d0: 77c9 d4bc d3bf 7bbd a197 bb3d b1ae 0fbd
000001e0: 2082 a9bd bdb1 aebb 5d72 b0bd 6be4 98bd
000001f0: 7679 98bd 077f f43d 4a15 6d3d 934f 913d
00000200: 9c96 4a3d 3be2 003e c250 d53c 5167 3a3b
00000210: c66b 863d cc47 723c d875 283c 8945 95bd
00000220: 09bb 0d3e 1ebe ba3c 5a8f 93bd 828b 2abd
00000230: 6efe 9cbd 2d74 13bd 8dd0 d3bd 718d 8dbc
00000240: 5aaa 4dbc 1696 8e3c acb8 9ebd 92cb 893c
00000250: c69d bd3b 28d7 803d d6b0 3d3d ac9f 853d
00000260: 6ce6 bbbd 8132 5dbd b854 733d 050b 833c
00000270: baa2 80bd b54c b0bd 7c7b 0ebc 1b16 0ebb
00000280: 2c88 723c d0a1 753c 0589 873d a3f1 a43d
00000290: 6de9 283b 2bb0 ddbd 93ad 46bd 27f5 b7bc
000002a0: 05d6 5e3d 1cd3 a2bc 424e 483d d15f f2bc
000002b0: 0908 a8bc 7d41 643d f905 3e3c 13da 8bbd
000002c0: ce12 b23c cf02 1bbd aae3 e23d 584c c2bd
000002d0: fa86 8bba becb 403d 698f 2c3d a036 493d
000002e0: 6eac 12be 0707 0f3e 9da6 8f3c 6f2a 46bd
000002f0: 20b4 733d 6c00 233d bbdf 8d3d b755 0ebd
00000300: 2c5b 0f3d 0fb9 9b3c 17f6 383c efb7 383d
00000310: 1cea 99bd 339b 293d ee37 b13d f877 e6bc
00000320: 0a48 ec3c 279d 503d d343 1e3d 298d 113d
00000330: d4c0 6bba 7ee9 58bd 4eab 8bbd 549f 1d3d
00000340: bec6 343d b863 a1bc ee55 7d3d 1b8c 743c
00000350: bf5a 47bc be0f 91bd 4f7f 653c 74b4 aabd
00000360: 9fee 84bd 40c6 00bd 6943 013d 9575 853c
00000370: 552d acbd e66c 86bc 27dc 3e3d c095 1cbd
00000380: 9c4c afbb cab4 00be c44d 333d 0957 7bbd
00000390: 943b dfbd 9f11 d1bc 6ba9 01bb 2786 8d3c
000003a0: be3f a2bc ebf8 61bc 1b34 1b3c 1964 93bd
000003b0: 0307 9dbc c681 8d3c 24f0 e0bb 7530 a53c
000003c0: 93cf 19bc a40a 00bd 21c6 afbc 8766 35bd
000003d0: 14aa acbc 97ad c5bc 67a5 913b 2e38 9b3c
000003e0: 74ec e1bc 1057 c6bd d96a 623d 4119 66bd
000003f0: aa82 d5bd 8708 fa3c 248c 613d 9e7d 973b
-0.03503293 -0.061606407 0.050240397 0.019531209 0.02874438 0.044954598 -0.03513486 0.11157251
0.012298861 0.014582541 0.029488817 -0.05303516 0.03641672 -0.034580525 -0.073544234 -0.11164233
0.051560454 0.014766983 -0.008889064 0.08714906 -0.051420156 0.056418788 -0.059894748 -0.041380566
-0.039233305 0.034041647 0.03695338 0.12004045 -0.003959054 -0.12900949 -0.008025635 -0.041794196
0.050847873 0.015084929 0.11862846 -0.04378605 -0.07397681 0.012015152 -0.088435814 -0.040516585
-0.06833141 0.07212648 -0.0013212633 -0.001689165 -0.006953942 9.1878115e-05 0.047552183 0.017827056
0.06702039 0.057034545 -0.04822765 0.045954093 0.061758596 -0.1030753 -0.020511175 -0.018863374
0.08243467 -0.045901135 -0.011094502 -0.0450487 0.0039009475 0.07620754 0.025413282 0.017293192
0.016004575 0.0023708092 0.037003685 0.09981211 0.101608336 -0.024192963 -0.077802405 -0.02332047
0.016457789 0.021633599 0.10084977 -0.013835643 0.013395157 0.02812803 -0.032083914 -0.044912513
-0.070986 -0.060456306 -0.105654985 -0.0489691 -0.009143925 0.047011733 0.04137584 -0.009243872
-0.0058222366 0.03320842 0.043602616 -0.11014289 -0.062323026 -0.006386189 0.035420902 -0.059940297
0.0059853094 -0.0886578 -0.073423564 -0.02787785 0.029630171 0.051498268 0.059283294 0.11784073
0.051866453 -0.013832986 -0.09266712 -0.08729822 -0.023799777 0.02970135 0.007948061 -0.041661236
0.009484938 -0.08717205 0.068484396 0.028834691 -0.025974972 -0.061462235 0.0915978 -0.035078708
-0.082767725 -0.0053312466 -0.08615563 -0.07465442 -0.07445042 0.11938291 0.05788163 0.07095256
0.04946004 0.125863 0.026039485 0.002844293 0.06563525 0.0147876255 0.010282002 -0.072886534
0.1384088 0.022795733 -0.072050765 -0.04163695 -0.07665716 -0.035999466 -0.10342512 -0.017279359
-0.012552822 0.01740555 -0.07750067 0.016820703 0.0057866303 0.06291038 0.046311222 0.065245956
-0.09174809 -0.054003242 0.059406966 0.015996465 -0.06281038 -0.08608381 -0.008696433 -0.0021680656
0.014802974 0.014992192 0.06617931 0.08053901 0.0025773898 -0.10824617 -0.048505377 -0.022455765
0.054403324 -0.019876055 0.048902757 -0.029586704 -0.020511644 0.055726517 0.011598104 -0.06828704
0.021737482 -0.037844475 0.1107858 -0.09487218 -0.0010645085 0.047069304 0.042128954 0.04912436
-0.14323589 0.13967524 0.017535502 -0.04838031 0.059497952 0.039795324 0.06927439 -0.034749713
0.034999058 0.019009141 0.011289141 0.045097288 -0.07515356 0.041407775 0.08653246 -0.028133377
0.028842945 0.050931122 0.0386389 0.03553501 -0.0008993272 -0.05295705 -0.06819783 0.038482025
0.044134848 -0.01970087 0.061849527 0.014925982 -0.012167632 -0.07083081 0.0140074035 -0.083352
-0.06490826 -0.031439066 0.031558428 0.016291419 -0.08407084 -0.016409349 0.046596672 -0.03822875
-0.0053497087 -0.12568966 0.043775335 -0.0613623 -0.109000355 -0.025521098 -0.001978482 0.017275883
-0.019805785 -0.013792257 0.009472872 -0.071968265 -0.019168383 0.017273795 -0.0068645645 0.020164708
-0.009387868 -0.031260148 -0.02145678 -0.04428723 -0.021077193 -0.024130626 0.0044447663 0.018947687
-0.02757857 -0.096845746 0.05527768 -0.056176428 -0.10425313 0.030521644 0.05506529 0.004623129

conv2.bias f4 [16]
00000000: afa5 2d3e ebf7 a5bf 7e68 a13e 276b 6b3f
00000010: 1bc0 3dbe 8c78 8bbf e6cf 86be ab1a c43e
00000020: 5076 23bf 83aa b63f 5ff1 afbf 210d 57bd
00000030: 7024 afbe 715d 05c0 ca36 0140 eb56 493e
0.16957735 -1.2966284 0.31525034 0.91960377 -0.18530314 -1.0896163 -0.2633049 0.38301596
-0.63852406 1.4270786 -1.3745536 -0.052502755 -0.34207487 -2.0838282 2.018969 0.19662063

fc1.weight f4 [120, 400]
00000000: 8971 b5bd a51c 8abd e938 0d3d 5a31 813d
00000010: d7c3 b0bc 4c26 adbd bd3f a7bd cc2a 6f3d
00000020: 84bb 123d e041 cbbc a02e e7bc d912 17bd
00000030: ea11 17be dc1e 5a3b 0ce5 053d 50c8 87bc
00000040: 4755 193c d510 a03c e512 4dbd 9a89 723d
00000050: 2a0f 37bd 3d4f 803c f856 513d 3173 27bd
00000060: 7a1f 423d 9710 933a 089b 27bd e14f 1b3d
00000070: b090 843c c667 2dbd b36d 59bd d528 a6bd
00000080: 7e82 263d 52a2 8b3d b0fa 51be 5e12 853d
00000090: e235 de3d 35b3 a43b a37e e7bc 71aa 8fbd
000000a0: 2a75 36bc 0a12 babd b166 243c c7d2 cabd
000000b0: ba1a 0fbd a22d f33b 4417 313c 6469 7aba
000000c0: 6d76 aebd 2ddd 773d b2bb 933d 3994 d5ba
000000d0: ab14 3cbd bb73 14bd ff07 af3b 8cd4 45ba
000000e0: 18ad 903c 01be d13d 8c62 b9bd 8a3f dcbd
000000f0: 6338 a53d a299 fc3b 54fc 37bd a9a1 99bc
00000100: ff11 c23c 23c9 c9bb 34e9 fbba b222 fa3d
00000110: df76 8abc 1649 6a3d d93a dd3c 3f8a 033e
00000120: 27a0 733d 1205 f5bd f46c d0bc 8dff 64bd
00000130: efc6 263d 2bfb 023e 75d9 c6bc 636c e3bd
00000140: e973 c23d dd08 853d a84e 27bd 606f 673d
00000150: 12a2 903d e192 8cbd 9248 e6bd 5785 8dbb
00000160: b13c f4bc a113 933c 3cfd 98bc d652 1b3d
00000170: a0b5 04bd c933 3f3d 67a4 b93d 1174 08be
00000180: 614c 613d b513 973d a10b 26bc 03b2 323b
00000190: 4c50 d4ba 65bd 5e3c 33b4 ba3b 8ecd 48bd
000001a0: a138 563d b0a5 053d f0f3 983c e431 ddbc
000001b0: 5ec3 25bd 65f0 05b9 7765 d13d 5563 40bd
000001c0: 7342 0abd fbb7 ce3d d8a8 6f3d dd61 eebd
000001d0: c58a 24bd 0eb6 dfbc ae16 b1bd 44ce 6abd
000001e0: d515 ac3c aa11 a6bd 0749 debc 3102 02bc
000001f0: 146d 033d fea4 69bd 4feb 1d3d 12c7 9e3d
00000200: 713f 84bc a8e8 12bd 9997 733c 0394 763c
00000210: 86a0 383d e34d 7f3d f5b4 bb3d b59c a6bd
00000220: 0865 98bc 9b84 45bd 97af 99bc 0b3f 283d
00000230: 93a0 853d ec4f 8d3d 9340 8ebc 62df 4b3d
00000240: 2728 ebba 47c0 0cbd 30f7 a83d 4588 e03c
00000250: 6e0e 86bc b331 ff3c 86b7 08bd 33ce f1bd
00000260: 904e 713d cccb 85bb 9e9a 913d fe87 3ebc
00000270: 1fe7 38bd 95a2 4a3c b5c4 d23d 3eb3 acbd
00000280: ca11 b93b 22a6 9e3d 98da 84bb 5fbb 57bd
00000290: 18b7 8ebc 5af4 cc3d 8e05 c03b 6299 55bd
000002a0: 52de a1bc 2283 13bd 81c0 4ebd c608 7cbd
000002b0: b88e 5bbd 8304 95bc a9c9 323d 4777 1f3c
000002c0: 1a80 bf3c 1170 f73b c80e 12bd 0e59 283d
000002d0: 0580 323d 4282 98bc e644 313d 468a 45bd
000002e0: d31b 1dbd d4a2 f43b 1436 373d a08e 5d3d
000002f0: e4f3 923b e0f1 af3d aea9 93bd 101d 653d
00000300: d9e0 1a3e e70c 2ebe 5ec3 cfbd e382 08bd
00000310: 0ebb d5bc 865f 323d 2b48 1abd 2f9f 16bd
00000320: 27b3 f6bc a028 4cbd 2c9d 6a3d 1c27 ff3c
00000330: c7e9 b3bd 9e0a 6fbd 3dc8 b83d f070 3ebe
00000340: a379 c8bd 72fc 843c 5412 fb3c 6c7e 0cbd
00000350: 2488 dc3b 1b9f eebc e3c5 13bd f810 b9ba
00000360: 17f3 9d3d e893 d7bd e0e6 533d b285 373b
00000370: 0dae f93d 39a8 083d 1f56 c6bc 988a c93c
00000380: 3ad5 4fbd d3ca b1bc 37dc 9c3d c51a 053c
00000390: 6b54 18bd 6147 893b fe2c 7e3d e0cf d93d
000003a0: 3a80 edbd 2330 63bd cfdf a3bd 924c 1ebe
000003b0: c6d3 bebc 1739 22be a2cd 9ebc b8ec 21be
000003c0: fdda c2ba b032 b53b 8c89 a13d 1c2f 623d
000003d0: fe6d bbbc e91a 23bd eba0 44bc 2d53 043d
000003e0: 1d94 683d b114 05bd 7e6b 663c c75c ccbc
000003f0: cd34 343d c639 0dbe 52d1 94bd 74e0 1e3d
-0.08859546 -0.06743745 0.034478102 0.06308241 -0.021577759 -0.0845457 -0.08166454 0.058390424
0.03582336 -0.024811685 -0.028220475 -0.03688321 -0.14752927 0.0033282554 0.03268914 -0.016575009
0.009358711 0.019539276 -0.050066847 0.05921326 -0.044692196 0.015662784 0.05110833 -0.04088134
0.0473933 0.0011220154 -0.040919334 0.037917975 0.016182274 -0.042335294 -0.053083133 -0.08113257
0.04065179 0.068180695 -0.20505786 0.06497644 0.10850121 0.005026246 -0.028258627 -0.07014931
-0.0111363325 -0.09085472 0.010034249 -0.09903484 -0.034937598 0.0074212113 0.01080877 -0.00095524476
-0.08518682 0.060513664 0.072135344 -0.0016294784 -0.045918148 -0.03624318 0.0053415294 -0.00075466256
0.017660663 0.102413185 -0.090519994 -0.107543066 0.080673955 0.007708744 -0.044918373 -0.018753843
0.023690222 -0.0061580106 -0.001921928 0.12213649 -0.016902385 0.057198606 0.0270056 0.12845705
0.059478905 -0.11963858 -0.025442578 -0.055907775 0.04071706 0.12791125 -0.024273613 -0.111046575
0.09494764 0.06495831 -0.040846497 0.0565027 0.070621625 -0.068639524 -0.112443104 -0.004318874
-0.029814096 0.017953696 -0.018675439 0.037920795 -0.032399774 0.046680246 0.090645604 -0.13325526
0.05500448 0.07376806 -0.0101346085 0.0027266748 -0.0016198247 0.01359496 0.005697751 -0.049024157
0.0523001 0.032628715 0.018671006 -0.027001329 -0.04046952 -0.00012773422 0.10224431 -0.04696973
-0.033754777 0.10093685 0.05851063 -0.1163976 -0.040171403 -0.02730849 -0.08646904 -0.057325616
0.021006504 -0.08108838 -0.027134432 -0.007935093 0.032086447 -0.057042114 0.038554486 0.077528134
-0.016143532 -0.03586641 0.014867687 0.015049937 0.045074962 0.062330138 0.09165374 -0.08135358
-0.018602863 -0.048222166 -0.018760486 0.041075747 0.06524768 0.069000095 -0.017364776 0.04977358
-0.0017941043 -0.034363057 0.08250272 0.027408728 -0.016364302 0.031151628 -0.033378147 -0.118069075
0.058912814 -0.0040831324 0.07109569 -0.011629103 -0.04514229 0.012367864 0.10291425 -0.08432625
0.0056478726 0.07746531 -0.0040543787 -0.052668925 -0.01742129 0.10007544 0.005860037 -0.05214823
-0.01975933 -0.03601373 -0.050476555 -0.061531805 -0.053602904 -0.018190628 0.04364935 0.009733028
0.023376513 0.007551201 -0.035658628 0.041100554 0.04357912 -0.0186168 0.043278597 -0.04822757
-0.038356613 0.0074656997 0.044729307 0.054091096 0.0044846404 0.08591056 -0.07210098 0.05593592
0.15124835 -0.1699711 -0.10144685 -0.03332795 -0.026090171 0.04354813 -0.03766648 -0.036772903
-0.030114723 -0.04984343 0.057278797 0.031146578 -0.08784824 -0.058359735 0.090225674 -0.1859777
-0.09788825 0.016233657 0.030648388 -0.034300253 0.0067300964 -0.029128602 -0.03607739 -0.0014119437
0.07712381 -0.10526258 0.05173385 0.0028003273 0.12191401 0.033363555 -0.024210988 0.02460222
-0.050740458 -0.02170316 0.0765919 0.008124058 -0.037189882 0.004189417 0.062054627 0.10635352
-0.11596723 -0.05546583 -0.080016725 -0.15458897 -0.02329434 -0.1584209 -0.019385163 -0.15812957
-0.0014866289 0.005529724 0.07887563 0.05522071 -0.022879597 -0.039820585 -0.012001256 0.032305885
0.056781877 -0.032490436 0.014063714 -0.024946583 0.043995667 -0.1379157 -0.07266487 0.038788274

fc1.bias f4 [120]
00000000: bff5 ea3f 6c9d a5bf 1eb1 aebf b725 d33e
00000010: a564 903f 74c5 46bf 7083 bdbf c158 adbe
00000020: fd87 0c3e 31b3 0ebd 1e98 e33f 02da fcbd
00000030: a808 903e 8ab8 6ebf 32d1 01bf d81c c8bf
00000040: 4dc7 9ebd ea70 ddbe c567 993f 1013 1ebf
00000050: 253a f9bf ccc5 17be 1644 933e 1b59 ffbf
00000060: 152f cebe 434c 4abf 8a8b 25bf ae04 383f
00000070: 6cf7 f0be a43e 0240 1fb5 b33e 862e 57bf
00000080: e275 a0be a24f 3a3f 651f 8bbf f816 11bf
00000090: 9c4d cbbf ab30 133f ea2a 473f 563e 59bf
000000a0: 650c e43f fa27 2240 6bdd 0e3f ac1d 9bbd
000000b0: 29b2 0abe 1a5a 243f 5397 b9bf f3a2 1a3f
000000c0: 7cd5 cebe a084 c83e f41d f43e 6ce2 8c3e
000000d0: f164 8f3e e5ba 81bf b37a 45bf c7f3 94be
000000e0: 15b5 bd3c 6d2f 843f 8662 92bf d9f5 253f
000000f0: e3d4 e5bf 7d33 5abf b552 a43f 2d8b 76bf
00000100: 3630 983f 7bf6 85be 5fb8 c83f 95b8 6fbf
00000110: 8bc0 df3f 70c9 b93e afc5 683f 0e4e 60bf
00000120: e1b3 c33f 2c59 6dbf e541 16c0 06c4 a9be
00000130: 8daa 2a3f 6a70 43c0 9219 e23e b344 693f
00000140: a2f0 483f 198d d5be b614 f2bf 2bba 32bf
00000150: 46c6 c13f 9914 90bf 9124 ab3e 091b 47bf
00000160: 879d 753e 4e14 4b3e 2b23 82be 0a9a 403e
00000170: 96aa 87bf 8d5a f8be 47c4 9bbf 1017 543f
00000180: e9ef a03f e525 b6be fd7b a33f 7c6e 9abf
00000190: 6be9 aa3f 6100 973e e40b 9fbf 482d f4be
000001a0: 0946 583f a5fb f8be 5f01 cbbd 4992 a33e
000001b0: 42f6 e63d 42de 87be 0574 6cbf 4a95 9c3f
000001c0: bfdf 6a3e a7e8 bfbd 69de 92bf 3732 72bf
000001d0: 8450 8b3f 386a 1fc0 9cd7 39bf d168 043d
1.8356246 -1.2938666 -1.3647802 0.41239712 1.1280714 -0.7764504 -1.4805737 -0.33856776
0.1372375 -0.03483886 1.7780797 -0.12346269 0.28131604 -0.93250334 -0.5070983 -1.5633802
-0.07752857 -0.4325021 1.1984793 -0.6174784 -1.9470869 -0.14821547 0.28762883 -1.9949068
-0.40270296 -0.79022616 -0.64666045 0.7188214 -0.47063768 2.0350733 0.35099122 -0.84055364
-0.31339937 0.7277776 -1.0868956 -0.5667567 -1.588306 0.57496136 0.77799857 -0.8486074
1.7816283 2.53369 0.55806607 -0.07574019 -0.13544525 0.64199984 -1.4499305 0.6040489
-0.4039725 0.39163685 0.47679102 0.27516496 0.280067 -1.0135161 -0.7714035 -0.29092237
0.023157636 1.0326973 -1.1436317 0.6482826 -1.7955593 -0.85234815 1.283774 -0.96306115
1.1889713 -0.26164612 1.5681266 -0.93641025 1.7480634 0.36286497 0.9092664 -0.876191
1.528927 -0.9271419 -2.347772 -0.33157367 0.6666649 -3.0537362 0.44160134 0.9112045
0.78492177 -0.4170921 -1.891257 -0.6981532 1.5138633 -1.1256286 0.33426335 -0.7777563
0.23985873 0.19831964 -0.25417456 0.18808761 -1.0598934 -0.48506585 -1.2169274 0.8284769
1.2573215 -0.35575786 1.2772213 -1.2064967 1.3352484 0.29492477 -1.2425504 -0.47690797
0.84481865 -0.4862949 -0.09912371 0.31947544 0.11277439 -0.26536757 -0.9236453 1.223306
0.22936915 -0.09370547 -1.1474124 -0.9460787 1.0883946 -2.490858 -0.7259462 0.032326523

fc2.weight f4 [84, 120]
00000000: 37fe b13d fffa 423c a394 3bbd 1b01 0bbd
00000010: 447c fe3d 3833 e33c 1a57 4b3e 90e0 adbb
00000020: e4b3 cc3d 2989 b9bc 14c6 7a3c 5a2d b63d
00000030: 2816 2bbc 68bc c9bd 1b86 1a3e 818a af3a
00000040: 43c3 f8bc a56a 053e 4fab 313e dd50 de3d
00000050: 48e2 b63d f320 96bc 7c65 c4bd 099a 82bd
00000060: 3936 43be ef25 023e ded8 113e 6a6c ec3c
00000070: eb37 1fbe 9eb6 8b3e 859d cabd d46a 703c
00000080: 6c76 57bd 5d27 bebd 2f00 dbbc b098 09be
00000090: 5a8b 92bd 73a3 dcbc 43fe aa3d 86f2 dfbc
000000a0: 36bb 473d 77f1 0e3e b9b6 b13c 75dc f9bd
000000b0: 6767 53be 0766 983d 0bc2 09bb b1b7 93bd
000000c0: cff0 b0bd f38b 4d3d 667b babb 6103 343d
000000d0: e20c 27be 192b 88bc 9073 993d bac4 a83e
000000e0: 9812 203d 2edc 613c f9d0 043d 8462 d9bc
000000f0: 2db8 0dbe c823 1a3e 2b49 0b3e 9eea 793d
00000100: d005 1dbd 3bc0 28bc 191f 5abc 460d 463c
00000110: ea46 ccbd 45cb 333e a141 143b 8d69 b53c
00000120: 313a 663b 0744 693d ffb0 b03d fb86 ff3d
00000130: 0eec 0b3c cdac 1ebe ede7 9c3d e574 c9bc
00000140: 6d99 c3bd d746 5dbe 68b9 1cbe bae0 3abd
00000150: 9e6f 513e e525 843d b18f 12bd 90a3 8a3d
00000160: d2a2 abbd 647f 853b b03a 483d 23a7 0fbe
00000170: 79e9 0ebd 3fa9 063e 4eed 203e 9781 b2bd
00000180: 00c8 0f3c bf30 c6bc 87fe 153d 9647 2fbd
00000190: ad7c e7bd 71a6 703d 50d9 6a3c 2977 30be
000001a0: aa2e 05be a923 d2bb 8191 21bc 62f5 fbbb
000001b0: 39ff 63bb 3f9b 4b3d 898b 4bbc 16d1 20bd
000001c0: 3312 5f3d cb89 4dbe fd71 a83a 7f2f e33b
000001d0: cef3 d13c 0581 293d dbf6 ef3c 0684 273b
000001e0: ab03 eebd d0b7 13bd a9b8 48bd 8d69 e4bc
000001f0: a772 cabb de3e 8bbd 8956 eebd 5243 5d3d
00000200: e49f 6f3b 89fd e0bc d257 8d3d 639f c83d
00000210: b617 1b3b 8981 283d c62b cd3c f5a2 e23d
00000220: ae77 02be a550 543e c8a7 be3d 5ac5 f93d
00000230: f0c0 6fbc bd44 523d 9aee 333e 106b 9abc
00000240: 64a0 333d 399f 2dbe bf27 01be b1b3 193d
00000250: e909 02bd 4d8d 993d 2a16 9d3d 3e01 89bd
00000260: 1586 e53d bc61 5d3b 8eda 36bd e641 9a3d
00000270: 1301 05be 6b5b 4f3d d091 1ebd 0e9f 5d3e
00000280: 4ca5 ba3c 4487 cc3d 6ad0 203d ac37 403c
00000290: d37b e4bc 00b6 883d e0bc d4bd 7056 d5bc
000002a0: 012d a43c 7659 32bb f5eb 1ebd e68b a03d
000002b0: 4f00 1e3d 405a c6bd fcf5 dbbd 4d93 123d
000002c0: 2d25 81be f892 883d 43e4 dabd 1bbe 2fbd
000002d0: e004 c3bd 46f5 893d 506a b93b db5f 493e
000002e0: 3f0e b33e b710 22be 8e04 923d c726 01bd
000002f0: b63d 2bbe b20c 283e 18d7 c8bd 6ae2 2bbd
00000300: 3927 d1bd 03d9 aa3d b7e8 4abd 9480 773d
00000310: ae07 21be aed2 1ebc f81f 8abd f23d ccbd
00000320: f938 593d 5da8 023e ee81 af3d 8b30 4f3d
00000330: 2f50 2ebd ecae 68bd 9d91 be3e 438f 58bd
00000340: 0da8 023e d5b3 1f3e c541 67be eeec a73d
00000350: 66ed 0e3e f7c5 acba 5c40 5fbd 4913 1b3e
00000360: 3dba c03d 1c03 d93d 56a6 493d 9028 dd3d
00000370: 08e3 a1bd e6c3 8abc 2433 af3d 8a0e 033c
00000380: fb1e 98bd 2a68 6f3d 0f6c 31be af13 32bd
00000390: 0ad3 c73d 3d9a ce3d 84a6 52be 884e 353e
000003a0: 5bb8 f53d a1c1 6dbd 991b 24bc da5d 6cbc
000003b0: e1c5 d43d 1ef3 ac3a ce75 0bbe a740 3ebe
000003c0: 4fb5 dcbc 1e79 c73d 9b1c cbbc d9a7 913d
000003d0: 6056 603d 7e71 69bd fd3d 183e 9419 6fbc
000003e0: deab 1f3e 48a5 013d 49a7 08bd e71d fb3d
000003f0: 2ba5 88bd e4b0 763d 5ad1 203e 1e16 133d
0.08691066 0.011900662 -0.045796048 -0.0339366 0.124260455 0.027734384 0.19857445 -0.005306311
0.09995249 -0.02264841 0.015306015 0.08895369 -0.010442294 -0.09850389 0.1509022 0.0013392718
-0.030366546 0.13028963 0.17350505 0.10855267 0.089298785 -0.018326258 -0.09589669 -0.06377036
-0.19063653 0.12709783 0.14242885 0.02886029 -0.15548675 0.27287763 -0.09893326 0.014673907
-0.05260317 -0.09284852 -0.026733486 -0.13437152 -0.071554855 -0.026933407 0.08349278 -0.027337324
0.048762523 0.13959299 0.021693574 -0.12200252 -0.20644914 0.07441335 -0.00210202 -0.07212771
-0.086396806 0.050182294 -0.00569098 0.043948535 -0.16313508 -0.016622113 0.07492745 0.3296259
0.039080232 0.013785405 0.032425854 -0.026536234 -0.13839789 0.15052712 0.1360213 0.061014764
-0.03833562 -0.010299738 -0.013313078 0.012088126 -0.09974463 0.1755801 0.0022622126 0.022145057
0.00351299 0.05694964 0.08627509 0.12476917 0.008540167 -0.15495606 0.07661424 -0.024591872
-0.09550748 -0.21609055 -0.15305102 -0.045624472 0.20452735 0.0645254 -0.035781566 0.06769478
-0.08380665 0.004074024 0.048884094 -0.14028601 -0.034890626 0.131505 0.15715525 -0.087161236
0.008775711 -0.024193166 0.03661969 -0.04279288 -0.11303077 0.05875248 0.014334038 -0.17232956
-0.13006082 -0.0064129424 -0.009861351 -0.007689164 -0.0034789576 0.0497086 -0.0124234045 -0.0392619
0.054460716 -0.20072095 0.0012851354 0.006933152 0.02562895 0.04138281 0.029292515 0.002556087
-0.11621793 -0.03606397 -0.04900423 -0.027882362 -0.0061782184 -0.067991 -0.11637599 0.05401928
0.0036563808 -0.027464645 0.06901516 0.097960256 0.0023665256 0.04113916 0.025045287 0.11066238
-0.12740967 0.20733888 0.093093455 0.12195845 -0.014633402 0.051335085 0.17571488 -0.01884988
0.043854132 -0.1695527 -0.12612818 0.037524883 -0.031747732 0.07497654 0.07670243 -0.0668969
0.11207215 0.0033780178 -0.044642024 0.075321004 -0.12988691 0.050624292 -0.038713276 0.21642706
0.022783898 0.09986737 0.03926126 0.011732023 -0.027891075 0.06675339 -0.103875875 -0.026042193
0.02004099 -0.0027213967 -0.038799245 0.078391835 0.038574513 -0.096851826 -0.10740277 0.03578501
-0.25223675 0.06668657 -0.10688069 -0.042905908 -0.09522414 0.06736235 0.0056584254 0.19665472
0.34971806 -0.15826689 0.07129775 -0.03153112 -0.1672276 0.16411093 -0.09806651 -0.041963972
-0.10212559 0.08342173 -0.04953834 0.060425356 -0.15725586 -0.009693785 -0.06744379 -0.09972753
0.05303285 0.12759538 0.08569704 0.050583404 -0.042556938 -0.056807443 0.3722047 -0.052871
0.12759419 0.15595944 -0.22583683 0.081994876 0.13957748 -0.0013181557 -0.054504737 0.15144075
0.09410522 0.10596296 0.049230896 0.10798752 -0.07904631 -0.016939115 0.08554676 0.007999072
-0.07427784 0.058448948 -0.17326377 -0.043475803 0.097570494 0.10088012 -0.20571333 0.17705739
0.11998054 -0.058045987 -0.010016345 -0.014426673 0.10389305 0.0013195013 -0.13619158 -0.1857935
-0.026941923 0.09739898 -0.024793914 0.071120925 0.054769874 -0.056993 0.14867397 -0.014593501
0.15592906 0.031651765 -0.03336266 0.12261563 -0.06672128 0.06022729 0.15704861 0.035909764

fc2.bias f4 [84]
00000000: 1a95 7b3e 4de9 48c0 deaf 1cbd fedb 8e3f
00000010: 137b 3ebf c336 81be 836e 8d3f 9530 833f
00000020: aa0e 6c3f 6e8d 763f e25d 023f 82af 683f
00000030: bc19 d2bf 17bd b2be db32 d2be 418a 913e
00000040: 1b33 0340 60a5 f3be 0124 933e 4bf6 bbbe
00000050: 70ce d9bf 9788 993f a38f 11bf 9ca4 0740
00000060: c6e0 6a3f cc24 333d 5f03 91bf f8f9 06bf
00000070: ca77 83be d77b 00bd 49a0 f5bf 17dc 3bbf
00000080: c53d 8ebe d070 413e 0326 f3be 3a8d 083f
00000090: 7c2a 653f 7f0e 14bd 252f 3e40 f38d fd3e
000000a0: e67f 2e3f e756 49be 7c9d a23f fe62 9e3f
000000b0: 84e9 3c3f d0f9 53bf 1b99 683f afdc 6b3e
000000c0: 2a0e 733f 23c2 a83e 3675 83be 19b7 943f
000000d0: ccee 8a3e 3885 0dbf 9312 d43e 81fb 9fbf
000000e0: 2c10 2e3f e5af 37bf 3d9f 29c0 4cbe 753f
000000f0: ab04 9dbf 252e edbf 8b4d d43b 4093 d3bc
00000100: d396 49bf 500c 83bf 5318 4abf 5731 a9be
00000110: 2f18 5dbf 0173 ff3f a07d f93f ec91 c33f
00000120: e73f b3bc cd7d aabe 8c46 8cbd 965b 6b3e
00000130: ea5e 2a3f cf15 10c0 752d 103f 9674 c33f
00000140: 3468 853e 75a2 423e 78aa 993f e8fb b6bf
0.24568596 -3.1392395 -0.038253658 1.1160886 -0.74406546 -0.25237092 1.104935 1.0249201
0.92209876 0.96309555 0.50924504 0.90892804 -1.6414104 -0.3490989 -0.41054425 0.28425792
2.0499942 -0.4758711 0.28738406 -0.36711344 -1.7016125 1.1994809 -0.568598 2.119422
0.9174923 0.043736264 -1.1329154 -0.5272517 -0.2567733 -0.031368103 -1.918954 -0.73382705
-0.277815 0.18890691 -0.47489938 0.53340495 0.8951795 -0.036146637 2.9716275 0.4952236
0.6816391 -0.19662057 1.270431 1.237396 0.73793817 -0.8280306 0.9085862 0.23033403
0.9494349 0.32960615 -0.25675362 1.1618377 0.27135313 -0.552814 0.4142042 -1.2498628
0.67993426 -0.7175277 -2.6503441 0.95993495 -1.226705 -1.8529707 0.0064789704 -0.02582705
-0.78745764 -1.0238132 -0.78943366 -0.33045456 -0.86365026 1.9956971 1.9491463 1.5278907
-0.021881057 -0.33299103 -0.06849393 0.22984156 0.6655108 -2.251331 0.5631936 1.5269954
0.26056063 0.19007285 1.2005148 -1.4295626

fc3.weight f4 [10, 84]
00000000: 2787 32bd 7d77 9dbc f8e5 0cbe bd06 0f3e
00000010: 13f0 9c3e d28c 05be a09e b2bd 91b3 a6bd
00000020: fa18 c53d df81 d8bd 7fcc 523e 54b5 b33d
00000030: c4fc e03d 0e7c 0c3e 153b c8bd 1b3d dbbd
00000040: 8dbe 0e3e 3049 583b c912 8cbe cdd1 cb3b
00000050: 06ac 743e ae57 febd 59df 85bb 0380 6dbe
00000060: e544 20be 3c64 48bd fc96 cb3d 3519 063e
00000070: c6b6 383e 3c60 813c 3808 1d3e 3545 363e
00000080: 7828 8abe 5927 2ebd 6d66 4dbd 55b5 96be
00000090: aa78 813e 15ce 88be 1a97 3dbe f6ea 603d
000000a0: 4884 82bd 4d2b 4fbe a899 a8bb de1d e4bd
000000b0: 48e4 c43d d8d6 3d3e ebc8 c73d 989d 043b
000000c0: 34e2 8ebe 9cf8 343e f4d7 bb3e 11f6 a5ba
000000d0: 0896 853d 195d 15be 74ea 17be 5776 6b3e
000000e0: a094 25be fe54 4cbd 709c ce3c 1b57 953d
000000f0: 4b3d debc 5597 183e d009 69be 93dd 0bbe
00000100: 0bba 6cbe 0e6f 333d b261 de3e e706 763d
00000110: 601b 613d 9b1f ba3e daa6 043e fc71 c5bd
00000120: f2d8 423e e0a2 063d 3529 913d 9c03 f7bc
00000130: 6d6d b73c f686 803c 451b d4bc 6938 debd
00000140: ff58 323d 36b9 be3c 11c5 55bd 88c9 e43d
00000150: 720f 38bd 86c6 fd3c 7429 df3c 62af eebd
00000160: d343 c9bd 81f1 9dbd f764 62bd 9123 c2bb
00000170: 9a3a e73d d985 c53d 506d 543d 80b3 683e
00000180: 487f fe3d 423a bd3e c475 0e3e 4b8d da3d
00000190: 54ab a8bd f44a 343c 24b0 843d 2dab 0b3d
000001a0: 0dd7 4d3e fc0d 723a b6b4 233e 5372 c2bd
000001b0: 864f c0bd 8003 703e 043a 723e 3709 c5bd
000001c0: 5b18 d43d 05e9 e6bd 4fbc 243d 45a8 3f3e
000001d0: 4a6f 543d 204c 1f3e 6979 46bd 12e7 613d
000001e0: 343f 023e c8c6 76be c4bb 4c3e 019f 293e
000001f0: 50a1 13be e4d6 483e f22c 813e 8fbc b73d
00000200: e010 98bc cc01 11be c07b ae3e 3047 4a3e
00000210: 67cc 02be f0f2 7b3e 0db8 6cbe 91c2 a9bd
00000220: ccac 893e 0527 903e 1f32 76bd 243c 273e
00000230: 3a32 bcbd 156f e43d 207f 103e 5942 ae3d
00000240: c16e e43d 9a03 11be d7e8 b83c 549c 723d
00000250: 397d 483e 6a95 6c3b edd5 943d b6ad ffbd
00000260: 8a37 753e e566 053e 999f 86ba 399a 743e
00000270: 9c1f 303d e8cd a9bd f561 953d b559 103e
00000280: 335b 5cbd 6163 4bbe 04a3 ff3d 69b6 e63c
00000290: ac6f 523e 541c c3bd 915a 41bd a136 813d
000002a0: 758d d4bc 507f 953d e485 193e 8842 203e
000002b0: 9eea 42be 0ef4 f7bd ce32 233c 4d4f 8d3d
000002c0: 0be9 563e 4812 1c3d 99fd acbc ac11 c3bd
000002d0: 17db fdbd 85c0 183d 40a0 90bd 0ef6 203c
000002e0: 3006 9dbd 7571 163e 9d86 dfbd 39b7 2bbd
000002f0: 1549 8c3e 25b1 c4bd 3a3f ffbd 2375 ef3b
00000300: d395 13be bbaa 483e 47e4 bfbe a949 b63d
00000310: 0bac 18bd c284 443d 9ee3 17be 2259 983e
00000320: 0578 483e 607e e53d 9f03 38bb 7125 38bd
00000330: 8494 d0bd 5dc2 503e 4438 173d 5a76 283d
00000340: ef67 003e 48fc d43d 2f88 0dbe 2181 313e
00000350: 07ca 11be 0940 54be 1004 b23c aa20 58be
00000360: 4bab 35bc 747f 21bd 1ed4 093e 2a81 3a3e
00000370: 067b debd 6749 953e e496 f0bd 6f3e 60be
00000380: dee5 973d 12ff 87bd 8541 51bc 78e7 27bc
00000390: d148 f8bd 7d3c e43d 77bc 25bc 795a 05be
000003a0: a3ea 5f3e e195 743d 8e3b 13be d70a 6bbd
000003b0: 1853 3a3d c4b0 4dbe 262d 573d df2e 63be
000003c0: 9563 c43e 53ef a53c 54bd 7b3c eb95 1dbe
000003d0: 8295 063e 9ec6 06be 5d7f db3d 9968 543e
000003e0: 48d2 013e de79 a03d 7634 37be 0660 85bd
000003f0: 5d54 05bd 5a2c 653d 3986 4bbe 5262 eabd
-0.043585923 -0.019222016 -0.13759601 0.13967414 0.30651912 -0.13042 -0.087216616 -0.08139718
0.096239045 -0.10571646 0.20585822 0.0877482 0.10985711 0.13719198 -0.09776894 -0.10705014
0.13939877 0.0033002608 -0.27358082 0.0062200786 0.23893747 -0.12419067 -0.004085463 -0.23193364
-0.15651281 -0.048923716 0.09940907 0.13095553 0.18038473 0.015792958 0.15335166 0.17799838
-0.26984 -0.042517994 -0.05014651 -0.2943522 0.25287372 -0.26719728 -0.18514672 0.054911576
-0.06372887 -0.20231362 -0.0051452704 -0.11138509 0.09613854 0.18538988 0.09755119 0.0020235535
-0.27906954 0.17672962 0.36688197 -0.0012661834 0.06522757 -0.14586295 -0.1483553 0.22994362
-0.16169977 -0.049885742 0.02522108 0.07292005 -0.027128836 0.14901479 -0.2275765 -0.13658743
-0.23117845 0.043807082 0.4343391 0.060065176 0.054957747 0.36352238 0.12954274 -0.096408814
0.1902807 0.032870173 0.07087938 -0.030153088 0.022391045 0.015689354 -0.02589191 -0.10850603
0.043541905 0.023281675 -0.05218989 0.111712515 -0.044936605 0.030978452 0.027241446 -0.11654545
-0.098273896 -0.07712079 -0.05527207 -0.00592465 0.11290474 0.0964467 0.05186206 0.22724724
0.12426621 0.3695851 0.13912112 0.10671481 -0.08235803 0.011004198 0.06478909 0.034098793
0.20101567 0.0009233651 0.15986905 -0.09494462 -0.09390168 0.23438835 0.23654944 -0.09620898
0.10356208 -0.11274914 0.040218648 0.18716533 0.051863946 0.15556383 -0.04845563 0.055152006
0.12719423 -0.24099267 0.19993502 0.16564561 -0.14417005 0.19613224 0.25229603 0.089715116
-0.018562734 -0.14160842 0.3407879 0.19753718 -0.12773286 0.24604392 -0.23117085 -0.08289064
0.26889646 0.2815477 -0.060106393 0.16331536 -0.091892675 0.11154 0.14110994 0.085087486
0.11153937 -0.1416153 0.022571964 0.059231117 0.19579019 0.00360998 0.072673656 -0.124843046
0.23946968 0.13027532 -0.0010270952 0.23886956 0.042998895 -0.082912266 0.072940744 0.1409672
-0.05379791 -0.19862129 0.12482265 0.028163152 0.20550412 -0.095268875 -0.04720551 0.06309248
-0.025946358 0.072996736 0.14992481 0.1565038 -0.19034812 -0.121070966 0.009960843 0.06899891
0.20987336 0.03810337 -0.021117019 -0.09524855 -0.12395304 0.037292976 -0.07061815 0.009824289
-0.07667196 0.14691718 -0.10914347 -0.04192278 0.27399507 -0.096041 -0.124632314 0.007307665
-0.14412622 0.19596379 -0.3747885 0.08900768 -0.037273448 0.04797817 -0.14832923 0.29755503
0.19577034 0.11205745 -0.002807833 -0.044957582 -0.10184577 0.20386644 0.036918893 0.041128494
0.12539648 0.10399681 -0.13821481 0.17334415 -0.14237224 -0.20727552 0.021730453 -0.2110621
-0.011088203 -0.03942819 0.13459823 0.18213335 -0.108633086 0.29157564 -0.1174753 -0.21898817
0.074168906 -0.06640448 -0.012771969 -0.010248058 -0.121232636 0.1114435 -0.010115734 -0.13022794
0.2186685 0.05971325 -0.14378187 -0.057383385 0.0454894 -0.20086962 0.05253329 -0.22185849
0.38357225 0.02025572 0.015364964 -0.1538922 0.1314297 -0.13161704 0.10717652 0.20743026
0.12677872 0.07835744 -0.17891106 -0.06512456 -0.03255116 0.0559505 -0.1987542 -0.11444534

fc3.bias f4 [10]
00000000: b7bf bcbf 6311 e7bf 720d 903e e0e8 a43f
00000010: 8835 253f c3b1 c9be 13b2 2abf 18c1 48bf
00000020: 87fa 153f 619c fc3f
-1.4746007 -1.8052181 0.28135258 1.2883568 0.6453481 -0.39393434 -0.6667797 -0.7841964
0.585854 1.9735223

conv1.weight f4 [6, 3, 5, 5]
00000000: 121b ed3d 6506 ee3e e6c6 0e3d 563c 9abd
00000010: 599f 833d 8fbf bc3d 017c 163e 609a fc3e
00000020: 68bb 1f3e cce9 2ebe 5663 9cbe 0d95 7ebe
00000030: bf52 febd 5cc6 013e 852d 57bc d0ff abbe
00000040: b058 d5be 463f 76be 3af2 1abe 0189 573d
00000050: effa 1a3e 8b57 e9bc 4cb7 0ebe 5740 e1bd
00000060: 4224 293d 4743 413e 3dd9 d03e bb82 df3d
00000070: 705d e0bc adcf b43c 16a3 a4bd efd4 9b3e
00000080: 83e6 883e 4833 aa3d 4ecf 58bc f5dc 06bf
00000090: 50d6 abbe c9e1 babd cdfb 0a3e 3c94 173e
000000a0: 14d1 17be 129b 8bbe 946f 73be 61b6 6cbd
000000b0: e7e6 883e c166 8b3e fb30 113e 9d61 a83d
000000c0: ace4 42be caef 4bbd bf34 5b3d 196d 373e
000000d0: ee05 19be 4480 76bd 9e37 4cbd b4ff d9bc
000000e0: 9262 083e d86b 283e 3368 2a3d 3dcf b33a
000000f0: 39a4 60be 0455 cabe 52cc a43c 7eec 0a3d
00000100: a4c0 07be 93c1 e3bd 0d21 48be d586 06be
00000110: d2c1 e8bd 3f92 4c3e d28e eb3e c562 273e
00000120: c92e 233d 4919 f3bd 094a 593d 24b3 713d
00000130: 4eef cfbb bb44 32bc b14d 11bc fa8e cb3d
00000140: b04f f2bd 119c 69be 0587 13be 7d93 42be
00000150: 909e 28be 2b16 163c 1d9f 513d 4ac3 9bbc
00000160: a801 8bbe 8a69 67bc d3b8 623d 9b3d 77be
00000170: f3da a9be 9104 5fbe 760d 84be 4267 c8bd
00000180: 2aee b2bd 1332 67be 80b3 f6bd 2d05 f4bd
00000190: 355b 81bc f680 493d 9d1c 713d 7d7d 06be
000001a0: 14c1 20be 4862 19be 0461 77bd 3bf9 6cbd
000001b0: 18b3 403d a3cb a43b 4bcf 0fbe e422 8f3d
000001c0: e111 c03d 05f5 1b3e 41ca a83d 0624 19be
000001d0: f4d1 b3bb 0be0 003e ed59 62bd 61f8 96bd
000001e0: 48bc 11ba e37d 2bbd 93da 0fbe 142f 4abe
000001f0: 6b29 ccbd 9d01 103c 47c0 233e 366a 0d3e
00000200: 8a2a ce3d e1d8 4f3c 273b d83d e28a 5f3e
00000210: 6e58 453e 8e98 563e eedf 8c3d d9a6 3f3e
00000220: b5d4 323e d1e1 b23e 3fad dc3e e0ae 343e
00000230: 33de 7e3d 557f 913e b8a9 943e 942e 353e
00000240: 4790 0d3e c47e af3c dcc7 e93d 1e3d 803e
00000250: 6ff9 373e bbe4 863d e2bc d53d 5d6e a9bd
00000260: c40c fcbd 4b00 943c 42a3 8f3d 20c0 c4bd
00000270: 214a 13be f238 e0bd 7b67 83bc 05b1 aabc
00000280: 1511 4cbe 3d13 3ebe 83f0 c3bd 6022 8ebd
00000290: 7ddc 00be 0e01 b3bd 3b58 10be 2225 0fbe
000002a0: 7ac8 fdbd dc29 e9bd 085b 2e3e edf7 7d3d
000002b0: 7561 7bbd bc4f c0bd b65c 5dbd d202 93bd
000002c0: ad74 66be e330 5ebe 15cd a4bd a530 2cbd
000002d0: 47fd 45be 7e3f 5fbe 6fdc 29be ac8f 90bd
000002e0: d4e2 b3bd 5780 2abe 1d83 0fbe 15dc 86bd
000002f0: 99d8 1dbd 9a9c c9bd c590 17bd 4b9a 81bd
00000300: 669c 78bd cebb 0abd bb71 debc 7db8 683e
00000310: ffb2 1a3e 3721 4c3d 071b 043d 0bd0 973d
00000320: 0504 37bc 5f3a c3bd df8a 3ebd ecf0 bf3d
00000330: 2b75 ff3d c8c8 c3bd 8aba d7bd 7032 0ebd
00000340: 0cd7 c63d c86c db3d f6d1 f5bd f653 cabd
00000350: 840d aebc a3a0 803d 8b0e 3c3d 25b7 e3bd
00000360: 1caf d3bd 9d44 90bd 79d5 3f3c 8f98 433d
00000370: 93c5 b03d 018c 203d fe8c 0bbc 6df2 8d3c
00000380: dd02 943d 5472 243e 74f2 86bd ed89 cc39
00000390: df13 423e 1347 b23d 06f9 273e 8ee2 6cbe
000003a0: 9a68 e6bd cbfa 673e d212 963d c32e 3d3e
000003b0: 2669 8dbe 77fe 4ebe 0e5c 723e 8cab c03d
000003c0: 70ac 9b3d 6008 2cbe 602f 46be d058 283e
000003d0: 55d5 4d3d 0089 8c3d 6a30 bdbd c444 17be
000003e0: 50a0 953d 8346 a43c 05bc b33d 4ed0 8bbe
000003f0: f720 67be 642d a83d 0a8d 8cbc 4be5 503e
0.11577429 0.46489254 0.034857653 -0.075310394 0.064268775 0.092162244 0.14695741 0.4933653
0.15598834 -0.17081374 -0.30544537 -0.24861546 -0.12418126 0.12673324 -0.013133411 -0.33593607
-0.41669226 -0.24047574 -0.15131465 0.05262089 0.15134786 -0.028484127 -0.1393711 -0.109986
0.041294344 0.1887332 0.4079074 0.10913607 -0.027388304 0.022071684 -0.08038919 0.30435893
0.26738366 0.08310562 -0.013233019 -0.52680904 -0.33561945 -0.09125096 0.13572617 0.1480264
-0.1482585 -0.27266747 -0.23773032 -0.057791118 0.26738665 0.27226833 0.14178841 0.08221743
-0.19032544 -0.049789228 0.0535171 0.17912711 -0.14943668 -0.060180917 -0.04985773 -0.026611187
0.13318852 0.16447389 0.04160328 0.0013718378 -0.21937646 -0.39517987 0.020116959 0.033916943
-0.1325708 -0.11120906 -0.19543858 -0.13137372 -0.11365093 0.19977663 0.460074 0.16346271
0.03983954 -0.11870057 0.05304912 0.059008732 -0.006345666 -0.010880644 -0.008868621 0.0993938
-0.118316054 -0.22813441 -0.14406975 -0.19001575 -0.16466737 0.009160559 0.051177133 -0.01901402
-0.271497 -0.014124284 0.055352043 -0.24144594 -0.33174857 -0.21779086 -0.2579152 -0.0978532
-0.087368324 -0.22577696 -0.12045956 -0.1191505 -0.015790561 0.049195252 0.05886518 -0.13133807
-0.15698653 -0.14978898 -0.060395256 -0.057854872 0.047045797 0.005029158 -0.1404392 0.06989077
0.0937841 0.15230186 0.08241702 -0.14955148 -0.005487675 0.12585466 -0.05526154 -0.07371593
-0.0005559367 -0.0418681 -0.14048223 -0.19744521 -0.09968837 0.008789447 0.15991317 0.13810048
0.100667074 0.012685985 0.105581574 0.21830323 0.19272014 0.20956632 0.06878649 0.18715991
0.17463954 0.3493791 0.43100926 0.17644835 0.062223624 0.2841746 0.29035735 0.1769355
0.13824569 0.021422751 0.11415073 0.2504663 0.17966245 0.065865956 0.10436417 -0.08273003
-0.12307122 0.018066546 0.07013561 -0.096069574 -0.14383747 -0.109483615 -0.016040554 -0.020836363
-0.19928391 -0.18562026 -0.09567358 -0.0694015 -0.1258411 -0.087404355 -0.14096157 -0.13979009
-0.123917535 -0.11384937 0.17026913 0.06200402 -0.06137224 -0.09390208 -0.054043494 -0.07178272
-0.22505446 -0.21698336 -0.08046929 -0.04203858 -0.19334899 -0.21801564 -0.16587995 -0.07058653
-0.087834984 -0.1665052 -0.1401486 -0.06584946 -0.03853664 -0.098443225 -0.037003297 -0.06328257
-0.06069603 -0.03387051 -0.02715384 0.22726627 0.15107344 0.049836364 0.032252338 0.07412728
-0.011170392 -0.09532618 -0.046519157 0.09372124 0.1247352 -0.0955978 -0.105336264 -0.03471607
0.09708986 0.10714108 -0.120029375 -0.098792955 -0.02124668 0.06280639 0.045912307 -0.111189164
-0.10336134 -0.07044337 0.011708611 0.047752913 0.08631434 0.039196018 -0.008517502 0.017327512
0.07227109 0.16059238 -0.06589213 0.00039012675 0.18952893 0.087049626 0.16403589 -0.23133299
-0.1125042 0.22654264 0.073278084 0.1847487 -0.27619284 -0.20214258 0.23667929 0.0940772
0.07601249 -0.1680007 -0.1935401 0.1644013 0.050252277 0.06862068 -0.0923775 -0.14772326
0.07305968 0.020053154 0.08776096 -0.2730736 -0.22571169 0.082117826 -0.017157096 0.20399968

conv1.bias f4 [6]
00000000: 79fe 12be 304c 0fbe 99af f53e e67c 18bd
00000010: 660e 843d 90da adbd
-0.14354886 -0.13993907 0.47985533 -0.037228487 0.06448059 -0.08488953

conv2.weight f4 [16, 6, 5, 5]
00000000: a04e 303e b95c 913d e176 dcbc 709b 6c3b
00000010: 04f6 123e 69a7 773e fbe7 c93d 4e71 443e
00000020: c4c8 8f3d cbf5 1dbc 5117 633d 5ebe edbd
00000030: b602 6abe 5f18 a2be f09e 83be 0d40 5c3c
00000040: 0b16 8e3d a32f 193d 5225 003d 07f7 033e
00000050: f45b cc3d 68ed 963d a816 8c3d 9d58 183e
00000060: 0f9b c83d 96bd 8f3e af7c 5a3e 060e 903e
00000070: 5f68 b83d 5d83 ccbd 64c7 e2bc 047b a6bd
00000080: 7792 29bc 7415 9fbd 9ad0 263d 3069 3cbe
00000090: 49f8 25be 1762 56bd 7730 febd bfd1 8bbd
000000a0: f3d4 20be e848 473d 237a 883c c1ca 013d
000000b0: 1eeb 8cbd ef1d b0bd 1581 973d fb93 543d
000000c0: 4013 723d 16dd 7cbd 8324 2abd ea67 6a3c
000000d0: 4f9f 6cbd 04da 3abe 5b17 03be 7312 91bd
000000e0: 4725 143d 8887 61bd 49f5 b73c aaf7 ea3c
000000f0: e3b9 71be 56b2 84bd d032 18bd b9e7 e7bd
00000100: 36c7 1ebd 1c20 ecbd 09f2 e9bc 95de d53d
00000110: 7ea0 84bd 9761 f7bd af0b e1bd b889 ec3b
00000120: 1f6f 0e3e 22a0 9dbc 3120 18be cf12 f3bd
00000130: 61e4 9bbe 31e8 fbbd af23 a1be 4520 8cbe
00000140: 3196 dc3c 0e60 83bd da9c 69bc 7665 aabd
00000150: c99d 96bc 8cfb 6f3d bb44 85bd 943e 8e3d
00000160: 5ef4 963c 9889 133e 7ac6 af3d d4c5 e03c
00000170: 40ed 0f3e 49e5 aebd 6478 173e 9be1 b93d
00000180: 25cd 0a3c 9f34 123e fc63 31be e486 183e
00000190: 839f 423e 7d92 893e e471 843e ac30 6a3e
000001a0: af98 8f3d 6e2d e9bc 9ce4 dfbd c723 dfbd
000001b0: 233f f9bc 494a 1f3c cdc6 bcbd 278a 08be
000001c0: 3392 99bd b2c3 b3bd cddf 95bb daa1 80bd
000001d0: 3a58 41be e2cd 14be 2c45 b8bc 8677 b8bd
000001e0: 567e 41bd 4ef1 81bd 8726 32bd e497 7ebd
000001f0: c2f4 2b3b 7fa2 833e 23e9 353e abc0 673e
00000200: 0c0e 8c3e 1255 933e ad72 4ebd 188b 47be
00000210: 91e5 ebbc 50e3 eabc df12 9c3d 5757 33be
00000220: 9e56 e5bd e757 96bc 80e0 42bd a19d df3c
00000230: d9dc f9bd 6c52 12be f365 9cbd bd8b 21bd
00000240: 93f4 503c a377 a3bd 46ef b9bd 729b 94bc
00000250: 6476 883d 421b 723d f73b 1db5 e850 c5b4
00000260: a82f 52b5 a5f0 91b7 3df8 ffb8 4215 12b6
00000270: e3d7 73b5 10bd 4db4 40d9 76b5 1eaf fcb6
00000280: 12ad 02b8 cfcb fdb7 921f 38b8 eab6 0db8
00000290: 8485 55b6 3f7d 4bb6 1aa4 2cb6 53c9 05b6
000002a0: defe 0cb7 164e ecb7 6971 93b3 e0dd 2db5
000002b0: 3038 5fb3 e924 97b3 195c 97b5 3d9c 36b8
000002c0: 709b 4db8 0fab 2ab8 6630 28b8 6c7c 0ab8
000002d0: 5386 02b8 428a 71b8 b058 1ab8 c543 feb7
000002e0: 25e8 b9b7 9ea0 13b8 c357 75b8 9620 26b8
000002f0: be77 20b8 6523 e8b7 0d77 c1b7 2e54 f3b7
00000300: 8988 19b8 460b 2ab8 ef4c 1eb8 84b3 95b7
00000310: f79c 03b8 f7fd 16b8 42da 1db8 f4fb 32b8
00000320: d870 58b0 c7d2 0db1 a9b3 3ab1 3b3a f3b0
00000330: ff1b b82e 15e2 dcb0 e411 56b0 820c 83b0
00000340: f6fc ceb0 8ffd a8b0 e898 83b0 7331 1db0
00000350: c3d5 9cae 94b7 0431 5b81 0731 edfd 59b0
00000360: 4c19 3eaf 5c4e de2e 6332 2b31 2e86 b531
00000370: 2545 fbaf d9d2 d8ae 5f5a 92ad 00db 682e
00000380: 407d 362f 65f8 26b4 4004 11af 8046 c9b2
00000390: 4196 12b4 2de2 7ab5 a94e a0b4 627e 66ad
000003a0: 4ebe 5ab1 b317 57b4 2761 9db6 6b73 a2b5
000003b0: cf7b 23ad 56c0 76b1 5a37 97b4 2a4a 7b35
000003c0: 5041 afb5 8453 71ae b874 06b0 ff81 feb5
000003d0: 57fc 2736 1e51 20b5 cc75 55b1 a1dc 86b0
000003e0: 217f 83b3 1577 0a36 708b 95ba 44b4 b7ba
000003f0: c182 f6ba 2999 f7ba 6c3e 31bb 6f4f 84ba
0.17217493 0.070977636 -0.026912155 0.003610339 0.1435166 0.24184956 0.098587 0.19183847
0.07020715 -0.009641121 0.055442158 -0.11608575 -0.22852597 -0.3165922 -0.25707197 0.013443005
0.06937798 0.037398946 0.03128559 0.12887202 0.09978476 0.073695004 0.06840259 0.14877553
0.097952 0.2807433 0.21336626 0.281357 0.09004282 -0.09985993 -0.027682967 -0.08128932
-0.010349861 -0.07767764 0.04072628 -0.18399501 -0.16207995 -0.05233964 -0.12411588 -0.06827115
-0.15706234 0.048653513 0.016659802 0.0316875 -0.068807825 -0.085994594 0.07397667 0.051898938
0.05910039 -0.06173428 -0.041538727 0.014307002 -0.057769116 -0.18247229 -0.12801878 -0.07083597
0.036168363 -0.055060893 0.022455828 0.028682549 -0.23606066 -0.064793274 -0.037157834 -0.113234945
-0.0387642 -0.11529562 -0.028557794 0.10442845 -0.06475924 -0.12079161 -0.109885566 0.007218566
0.13909577 -0.019241396 -0.1485603 -0.11868822 -0.30447677 -0.12300146 -0.31472537 -0.2736837
0.026927086 -0.06414805 -0.014258588 -0.083201334 -0.018385785 0.058589503 -0.0650725 0.069455296
0.01842707 0.14407957 0.08582778 0.027438082 0.14055347 -0.085398264 0.14792019 0.09076234
0.008471762 0.14277886 -0.17323297 0.14895207 0.19006161 0.26869574 0.25868142 0.2287013
0.07011544 -0.028464045 -0.10932276 -0.10895496 -0.030425614 0.009722301 -0.09217606 -0.13333951
-0.074985884 -0.0877756 -0.0045737983 -0.06280871 -0.18881312 -0.14531663 -0.022493921 -0.09007172
-0.047239624 -0.06344853 -0.043493774 -0.062156573 0.0026238416 0.25709912 0.17764716 0.22632091
0.27354467 0.2877584 -0.050402332 -0.19486654 -0.02879599 -0.028672844 0.07620787 -0.17513786
-0.111981615 -0.018352462 -0.04757738 0.027296843 -0.122003265 -0.14289254 -0.07636633 -0.039439905
0.012753624 -0.07981803 -0.09078841 -0.018140528 0.06663206 0.059108026 -5.857432e-07 -3.6752976e-07
-7.8300445e-07 -1.7397406e-05 -0.000122055855 -2.176807e-06 -9.083871e-07 -1.9160893e-07 -9.195828e-07 -7.5305716e-06
-3.11556e-05 -3.0254856e-05 -4.389842e-05 -3.378737e-05 -3.181719e-06 -3.032226e-06 -2.5725517e-06 -1.993573e-06
-8.403991e-06 -2.8169754e-05 -6.86585e-08 -6.477039e-07 -5.1972336e-08 -7.0381994e-08 -1.1277181e-06 -4.353769e-05
-4.902057e-05 -4.069047e-05 -4.0099396e-05 -3.301764e-05 -3.1119514e-05 -5.758764e-05 -3.6799058e-05 -3.0310717e-05
-2.216182e-05 -3.5197118e-05 -5.8494286e-05 -3.9607832e-05 -3.825849e-05 -2.7673037e-05 -2.306283e-05 -2.9007057e-05
-3.66052e-05 -4.0541658e-05 -3.7741785e-05 -1.7845778e-05 -3.137902e-05 -3.599931e-05 -3.7634985e-05 -4.2673157e-05
-7.8740703e-10 -2.0638014e-09 -2.7168687e-09 -1.7697127e-09 8.3723244e-11 -1.6071363e-09 -7.787817e-10 -9.535059e-10
-1.5060369e-09 -1.2295674e-09 -9.574963e-10 -5.718654e-10 -7.1320304e-11 1.931288e-09 1.9718616e-09 -7.930499e-10
-1.7289387e-10 1.01093106e-10 2.4912417e-09 5.2830478e-09 -4.5705764e-10 -9.859997e-11 -1.6638411e-11 5.2945204e-11
1.6597301e-10 -1.555032e-07 -1.3189183e-10 -2.343154e-08 -1.3651972e-07 -9.3461387e-07 -2.9859555e-07 -1.3102049e-11
-3.183135e-09 -2.0032057e-07 -4.6902746e-06 -1.2103532e-06 -9.292968e-12 -3.5907042e-09 -2.8166215e-07 9.361271e-07
-1.3057524e-06 -5.4871233e-11 -4.8914783e-10 -1.8962309e-06 2.503182e-06 -5.9722686e-07 -3.106254e-09 -9.81249e-10
-6.1232875e-08 2.0632917e-06 -0.0011409353 -0.0014015515 -0.0018807278 -0.001889025 -0.0027045263 -0.0010094474
