saves/lenet5/cifar10/hyperSearch/logs_regular_pp0x1_seed0_co2False_lr0.01_wd1e-06.pt (torch, 758891 bytes, 30 tensors)

conv1.weight f4 [6, 3, 5, 5]
0	0xbdb28a62	-0.08717801
1	0xbd2441d4	-0.04010184
2	0xbe7f3f1c	-0.24926418
3	0x3c6043e9	0.013688066
4	0xbc3ab3bf	-0.011395394
5	0xbd5fe017	-0.054657068
6	0xbd70877c	-0.058722958
7	0xbcfda11d	-0.030960614
8	0xbdcf7afb	-0.101308785
9	0xbd0c3caa	-0.03423754
10	0xbe21544d	-0.15754814
11	0x3e5ab859	0.21359386
12	0x3cf0bac0	0.029385924
13	0xbc8e4220	-0.017365515
14	0x3df86f32	0.12130584
15	0x3de43855	0.11143557
16	0xbc4444b3	-0.01197927
17	0x3deaf757	0.114729576
18	0x3e0a922f	0.13532327
19	0x3dccc2ef	0.09998118
20	0xbd3ed237	-0.046587195
21	0xbe0983d3	-0.13429193
22	0xbd8be10c	-0.06830034
23	0xbdfa7cae	-0.12230812
24	0x3bd74cb3	0.0065704226
25	0xba370e01	-0.0006982983
26	0x3e372368	0.178846
27	0x3d84cd1e	0.064844355
28	0xbbf0d001	-0.0073490147
29	0xbda1ab0a	-0.07893951
30	0x3e026577	0.12734018
31	0xbcde5fe4	-0.027145334
32	0xbd665d81	-0.056241516
33	0xbcfd87ea	-0.030948598
34	0xbdaf70a7	-0.085664086
35	0xbd9b9dc0	-0.07598448
36	0xbd8f035d	-0.06983063
37	0xbb9ba927	-0.004750389
38	0x3d51e07f	0.051239487
39	0x3e124392	0.14283589
40	0x3aae7f3c	0.0013313065
41	0x3d2f03c9	0.04272822
42	0x3e1dd71f	0.15414093
43	0x3d898dce	0.067165
44	0xbc8b7629	-0.017024117
45	0x3dc5f51a	0.0966589
46	0xbe0d2958	-0.13785303
47	0xbd91daef	-0.071218364
48	0xbc8dd565	-0.017313669
49	0x3d13ab26	0.03605189
50	0x3d174ad5	0.0369366
51	0xbc003228	-0.007824458
52	0x3dad391a	0.08458157
53	0xbdd6c3a2	-0.10486533
54	0x3c2c7597	0.0105260825
55	0x3d3bc9b7	0.045846667
56	0xbd545f31	-0.051848594
57	0xbcf98994	-0.03046111
58	0xbd5331b9	-0.05156109
59	0x3daeb8ad	0.08531318
60	0x3cdb1abc	0.026746146
61	0x3c3af5f4	0.011411179
62	0x3d36a635	0.0445921
63	0xbdd0f9a2	-0.10203864
64	0xbb4ea7ff	-0.003153324
65	0xbdbbf552	-0.091776505
66	0x3db893a0	0.09012532
67	0xbde3bcc6	-0.1111999
68	0xbdc25313	-0.094885014
69	0x3c332c48	0.01093585
70	0x3d844bf5	0.064598
71	0xbd1f414a	-0.038880624
72	0xbd821ae8	-0.06352788
73	0xbd50b4b3	-0.05095358
74	0x3d853371	0.06503952
75	0xbe15ce08	-0.14629376
76	0x3d12f30b	0.035876315
77	0xbb86a3c1	-0.0041088765
78	0x3d0aec04	0.03391649
79	0xbd42bb4e	-0.04754191
80	0xbcefd55f	-0.029276548
81	0x3d939664	0.07206419
82	0xbe971514	-0.2950827
83	0x3d06ef49	0.032943044
84	0xbb2a9bca	-0.00260328
85	0x3e0b7cf5	0.13621886
86	0xb988f494	-0.00026122166
87	0x3c92ac00	0.017904282
88	0x3cad1e56	0.02113263
89	0xbcb3ccc7	-0.021948231
90	0x3dbb8f5c	0.09158203
91	0x3e21ef48	0.15813935
92	0x3c4fb59d	0.012677577
93	0x3d4a9788	0.049460918
94	0x3de1e65a	0.11030264
95	0xbdb88770	-0.09010208
96	0xbc046094	-0.008079667
97	0xbe1096cf	-0.14120029
98	0xbdaf32ff	-0.085546486
99	0xbd2eb814	-0.04265602
100	0x3bcc6ef1	0.006238811
101	0xbb6d254a	-0.0036185556
102	0x3d6183e8	0.055057436
103	0x3daacb39	0.08339543
104	0xbe1be5c2	-0.15224364
105	0x3d2d322c	0.042284176
106	0x3d8dbd31	0.06920851
107	0xbda34b13	-0.07973304
108	0x3d7e6153	0.062104534
109	0xbd093fc5	-0.03350808
110	0xbe3876f1	-0.18014123
111	0xbc8223fb	-0.015886297
112	0x3e37229b	0.17884295
113	0x3d4637d1	0.048393074
114	0x3dd46d0b	0.10372361
115	0xbe06486f	-0.13113569
116	0xbccabbf1	-0.02474782
117	0xbe0b4e6e	-0.13604137
118	0x3e151e3b	0.14562313
119	0x3a9692fa	0.0011487894
120	0x3e4ef4b2	0.20210531
121	0xbdb2e126	-0.0873435
122	0x3e233f07	0.15942012
123	0xbcc503b0	-0.02404961
124	0xbdae2fa9	-0.08505184
125	0xbca45e1c	-0.020064406
126	0xbd000277	-0.03125235
127	0xbc9c3719	-0.019069241
128	0xbddd1cbb	-0.107964955
129	0xbd5cae8b	-0.053877395
130	0xbd7b66e3	-0.061377417
131	0x3e489093	0.195864
132	0xbe077982	-0.13229945
133	0x3df734fc	0.12070653
134	0xbe4ceb54	-0.20011646
135	0xbdae47cf	-0.0850979
136	0x3cce1ee4	0.025161214
137	0xbd9557fc	-0.07292172
138	0xbc96f6f7	-0.018428309
139	0xbd091b9c	-0.033473596
140	0x3d034fa7	0.032058384
141	0xbc595eb8	-0.013267212
142	0x3d07ac3d	0.033123244
143	0xbdbd5b3e	-0.09245919
144	0xbd17a825	-0.03702559
145	0x3d58d578	0.052937955
146	0x3b9cdfa3	0.0047874018
147	0x3e19481a	0.14968911
148	0xbd1bfebf	-0.03808474
149	0xbcad62c5	-0.021165261
150	0xbc87a042	-0.016555909
151	0x3c6a5dc2	0.01430458
152	0x3bbd8229	0.0057833386
153	0xbe06f566	-0.1317955
154	0xbb525259	-0.003209254
155	0xbcb9f0ce	-0.022697832
156	0x3dca24e7	0.0987032
157	0x3df8365f	0.121197455
158	0x3d92339f	0.07138752
159	0xbda083eb	-0.07837661
160	0x3d1ae82b	0.03781907
161	0xbd39e1b2	-0.045381255
162	0xbdbe3e7d	-0.092892624
163	0x3db523af	0.08844697
164	0x3d0dddb2	0.034635253
165	0xbd348dce	-0.044080548
166	0xbe17e3a5	-0.14832933
167	0x3dc87a63	0.097889684
168	0xbd5d60ca	-0.054047383
169	0x3cd472a1	0.025933566
170	0xbcd4b673	-0.025965905
171	0x3c762e5c	0.015025701
172	0xbe59db0a	-0.21274963
173	0x3d4fffc2	0.05078102
174	0xbdedc408	-0.116096556
175	0x3e150c38	0.14555442
176	0x3c2204ca	0.009888837
177	0xbd32a7ca	-0.043617047
178	0x3d3353bf	0.04378104
179	0x3c67bb90	0.0141438395
180	0xbe05518e	-0.13019392
181	0x3e35f542	0.1776934
182	0xbdd46e33	-0.10372581
183	0x3cd53bd2	0.026029501
184	0xbd8443c6	-0.06458239
185	0x3d7e964f	0.062155064
186	0xbd9de719	-0.07710094
187	0xbc102b50	-0.008799389
188	0x3c941fd8	0.01808159
189	0x3ca59e54	0.020217098
190	0xbd8e4afa	-0.069478944
191	0xbd2e615e	-0.042573325
192	0xbc513d11	-0.012770907
193	0xbdfe5166	-0.12417869
194	0xbda8b892	-0.08238329
195	0xbd1db6c3	-0.038504373
196	0x3d0f2062	0.034942992
197	0x3cb1ceca	0.02170505
198	0xbe021880	-0.12704659
199	0xbd4155bd	-0.047200907
200	0xbd1f29d8	-0.038858265
201	0xbe115896	-0.14193949
202	0xbdd8d10d	-0.10586748
203	0xbcc0b14a	-0.023522038
204	0xbd86852d	-0.0656837
205	0xbe53e217	-0.20691715
206	0xbd2c06d9	-0.041998718
207	0x3bb1addd	0.0054223374
208	0x3cd1375e	0.025539096
209	0x3ded55a4	0.115886
210	0xbab686d5	-0.0013925681
211	0x3d17a8b6	0.03702613
212	0xbdf12a0b	-0.11775597
213	0x3e1b18d8	0.15146196
214	0x3d4d26b1	0.050085727
215	0xbdff7cda	-0.124749854
216	0xbe25ccee	-0.16191456
217	0x3db7b42b	0.08969911
218	0xbcae1997	-0.021252437
219	0xbd5bd752	-0.053672142
220	0x3ce6a705	0.028155813
221	0xbd34301f	-0.043991204
222	0x3e60f160	0.21967077
223	0x3d56ebce	0.052470975
224	0x3daf859b	0.08570405
225	0x3ce19b21	0.027539792
226	0xbe5c9784	-0.21542174
227	0x3d22b540	0.039723635
228	0x3dd7be7c	0.10534379
229	0x3d65e2f3	0.05612464
230	0x3cee1aa7	0.029065443
231	0x3df4e505	0.119577445
232	0x3c1f0372	0.009705411
233	0xbe3f4077	-0.18676935
234	0x3d638a97	0.05555209
235	0x3c6f5672	0.0146080125
236	0x3d9bb79f	0.07603382
237	0x3cc0300d	0.023460412
238	0xbd843b11	-0.064565785
239	0xba9232f9	-0.0011154107
240	0xbe6570a1	-0.22406246
241	0x3d003150	0.031297028
242	0x3d015c39	0.03158209
243	0xbbeb00fd	-0.0071717487
244	0x3cae708e	0.021293905
245	0xbe6ccbe0	-0.23124647
246	0x3be45d5d	0.0069691376
247	0xbe3e0c84	-0.18559462
248	0x3de037a3	0.10948112
249	0xbd4e0fec	-0.050308153
250	0x3dff6aeb	0.12471565
251	0xbe25088e	-0.16116545
252	0xbdd609c8	-0.104510844
253	0x3e01889b	0.12649767
254	0x3ea00d67	0.31260225
255	0xbda37ab8	-0.07982391

conv1.bias f4 [6]
0	0x3e392a68	0.18082583
1	0xbf0d6118	-0.5522628
2	0x3f6c7f08	0.92381334
3	0xbf3c2706	-0.73497045
4	0x3fb0a3aa	1.3799946
5	0x3f5e1d0b	0.86763066

conv2.weight f4 [16, 6, 5, 5]
0	0x3e1d18c7	0.15341483
1	0xbd30efd3	-0.043197464
2	0xbcf3b8ed	-0.029751265
3	0x3bfa60cc	0.0076409336
4	0x3bc8476e	0.0061120307
5	0xbcc757f2	-0.024333928
6	0x3d5edb2f	0.05440825
7	0x3d480d15	0.0488406
8	0xbd2a073d	-0.04151081
9	0x3c0798ae	0.008276148
10	0x3d8028ea	0.06257804
11	0x3bb6de62	0.0055807093
12	0xbcb956a8	-0.022624329
13	0xbbb37435	-0.0054764994
14	0x3dfee3f6	0.12445824
15	0xbde0521e	-0.109531626
16	0xbc864ede	-0.016395029
17	0x3c8ae014	0.016952552
18	0xbd806bdd	-0.06270573
19	0x3d3fccf0	0.046826303
20	0x3d59b59f	0.053151723
21	0x3b2f63b1	0.0026762302
22	0xbdb7a620	-0.08967233
23	0x3d8bfa36	0.06834833
24	0x3da3dcd5	0.08001105
25	0xbd9bcd99	-0.07607574
26	0x3d6aabce	0.057292752
27	0xbd21f964	-0.039544478
28	0x3d60b67b	0.054861527
29	0xbd1b5c24	-0.03792967
30	0xbd22b18a	-0.039720096
31	0x3e008219	0.12549628
32	0x3daec386	0.08533387
33	0xbc98b6f3	-0.018641924
34	0xbc4b0880	-0.012392163
35	0x3dfdf118	0.123995006
36	0xbb41c5a0	-0.0029567257
37	0xbd1d1b7e	-0.038356297
38	0xbd045ef8	-0.03231713
39	0xbc017365	-0.007901047
40	0xbc917e1c	-0.017760329
41	0x3d9799d2	0.07402386
42	0x3d8247c0	0.063613415
43	0x3cb0a30f	0.021562127
44	0x3dca455f	0.09876513
45	0xbc644124	-0.013931546
46	0x3d42b49b	0.04753552
47	0xbb9f71f7	-0.0048658806
48	0xbcc1d9af	-0.02366337
49	0x3d9c8431	0.07642401
50	0x3d80ae71	0.06283272
51	0xbcf4471f	-0.02981907
52	0xbd8fb8b2	-0.0701765
53	0x3dc26269	0.094914265
54	0x3d2fc34d	0.042910863
55	0x3d16c213	0.036806177
56	0x3d9eb790	0.077498555
57	0xbd215c27	-0.039394524
58	0x3d89f641	0.06736422
59	0xbd78a6f2	-0.060706086
60	0x3d9f76f2	0.07786359
61	0x3dc5f2e2	0.09665467
62	0x3c03a1e0	0.0080341995
63	0x3d842e77	0.06454175
64	0xbd89d667	-0.06730347
65	0xbd4f5ed0	-0.05062753
66	0xbe627f90	-0.22118974
67	0x3d4a414e	0.049378686
68	0x3bf8019d	0.0075685517
69	0xbd3df95f	-0.046380397
70	0x3c194c2b	0.009356539
71	0xbd58ea30	-0.052957714
72	0xbce9de1d	-0.028548295
73	0x3d6f596c	0.05843489
74	0xbdf6cf29	-0.120512314
75	0x3bcb9c5a	0.006213707
76	0x3d53ef6f	0.051742014
77	0x3d3c52ee	0.045977525
78	0xbd9b7381	-0.0759039
79	0xbd4a1c1f	-0.049343225
80	0x3dde57a9	0.108565636
81	0xbd436c0d	-0.047710467
82	0x3c4571a4	0.01205102
83	0x3dd135d0	0.10215342
84	0xbd9146de	-0.07093595
85	0x3d249a20	0.040186048
86	0x3d5871fa	0.05284307
87	0xbd9e12f6	-0.0771846
88	0x3d8ef88f	0.069810025
89	0xbdf34554	-0.11878458
90	0x3dffbddd	0.124873854
91	0xbd8aa2e8	-0.06769353
92	0xbbce9741	-0.006304652
93	0xbd7c3fbd	-0.061584223
94	0xbca321e2	-0.019913618
95	0xbd54f830	-0.051994503
96	0x3c7020c9	0.014656254
97	0x3dd50e76	0.10403149
98	0xbdd80a54	-0.10548845
99	0xbde09a8f	-0.1096698
100	0x3d1c24fd	0.038121212
101	0x3d2e910c	0.042618796
102	0x3d3668b5	0.04453345
103	0x3cbb09b8	0.022831783
104	0x3d5c9e3b	0.053861838
105	0xbdc14964	-0.09437826
106	0xba495a8d	-0.00076810346
107	0xbde46e8c	-0.11153898
108	0x3cf6c91a	0.03012519
109	0xbc0a2110	-0.008430734
110	0x3c7b6c0e	0.015345586
111	0x3c34bc7f	0.011031269
112	0xbcbd55fe	-0.023112293
113	0x3d5bf50f	0.053700503
114	0xbc095d63	-0.008384082
115	0x3ddb309f	0.10702633
116	0x3d34730e	0.044055037
117	0xbc5b29a7	-0.01337663
118	0xbca74bc7	-0.020421876
119	0xbd52b536	-0.051442347
120	0xbccab7f6	-0.024745923
121	0xbd252b46	-0.040324472
122	0x3dcb9cbc	0.09942004
123	0x3dbdee67	0.09273987
124	0x3de63339	0.11240239
125	0xbc317cd7	-0.010832987
126	0x3daa7c35	0.08324472
127	0xbc95b9cf	-0.018277077
128	0x3d47e6bf	0.04880404
129	0x3d091f7a	0.033477284
130	0x3cdd5c66	0.027021598
131	0x3daa2864	0.08308485
132	0x3dde3601	0.10850144
133	0xbce300d1	-0.02771035
134	0x3d29707b	0.041367035
135	0xbe08bf05	-0.13354118
136	0xbd982cec	-0.07430443
137	0x3dbb6f22	0.09152056
138	0x3d66f48d	0.056385566
139	0xbd4d06eb	-0.050055426
140	0xbda81683	-0.08207419
141	0x3ccc1338	0.024911508
142	0x3d8c2593	0.06843104
143	0x3d662b32	0.056193538
144	0x3bad03a9	0.0052799773
145	0x3d81b6ee	0.06333719
146	0xbe1b6a65	-0.15177305
147	0xbc9b67ca	-0.018970389
148	0x3daf19cb	0.085498415
149	0x3d180ce1	0.037121657
150	0x3bd8d817	0.006617557
151	0x3dd5dc93	0.10442462
152	0xbd06ebb0	-0.032939613
153	0xbcbf9961	-0.023388566
154	0x3c5de18d	0.013542545
155	0xbd16507f	-0.03669786
156	0x3decca6d	0.11562047
157	0xbc6c3174	-0.014416087
158	0x3df779c8	0.12083775
159	0xbd976d33	-0.07393875
160	0xbc87fcbc	-0.016600005
161	0xbcd1fd6c	-0.025633536
162	0xbd1c44c2	-0.03815151
163	0x3d9313d1	0.07181514
164	0xbca38e8e	-0.019965436
165	0x3e1f99e0	0.15586042
166	0x3cc068c5	0.023487458
167	0x3da03b72	0.07823838
168	0xbbee9836	-0.0072813286
169	0x3d9be303	0.076116584
170	0x3d99e60d	0.07514582
171	0x3ddb400b	0.107055746
172	0x3ca4c0e8	0.020111516
173	0xbd070688	-0.032965213
174	0xbd429018	-0.0475007
175	0xbd67d003	-0.05659486
176	0xbd178425	-0.036991257
177	0x3deea7e3	0.116531156
178	0xbd91773d	-0.07102821
179	0xbd94ffc4	-0.07275346
180	0x3cab65d8	0.020922586
181	0xbcc3ca6f	-0.023900239
182	0xbdd11880	-0.10209751
183	0x3d6aab06	0.057292007
184	0xbd797418	-0.06090173
185	0xbda36604	-0.07978442
186	0xbd057504	-0.032582298
187	0xbc2e41fd	-0.01063585
188	0xbd287930	-0.0411312
189	0x3c2849a9	0.010271468
190	0xbd30070a	-0.042975463
191	0xbc64c5a6	-0.013963139
192	0xbe1d9680	-0.15389442
193	0x3d2c31e1	0.042039756
194	0x3d072bcc	0.033000752
195	0xbd15913f	-0.03651547
196	0x3ce886de	0.028384622
197	0x3e061b3d	0.13096328
198	0x3cef0c39	0.029180633
199	0xbc2d6528	-0.0105832
200	0xbc65496a	-0.013994554
201	0x3dd9fe9c	0.10644266
202	0xbccf708d	-0.025322223
203	0xbd951e3d	-0.07281158
204	0x3d65620c	0.056001708
205	0xbcb28b6b	-0.021794995
206	0x3c9d567e	0.019206282
207	0x3d2d6c37	0.04233953
208	0xb8ccfbd5	-9.7743854e-05
209	0x3cd6004b	0.026123187
210	0xbd47662f	-0.048681434
211	0x3cef913d	0.02924406
212	0xbc68a5f8	-0.014199726
213	0xbd153054	-0.036423042
214	0xbd37d5c8	-0.044881612
215	0x3d54d6e9	0.051962767
216	0x3c4aa916	0.012369415
217	0xbd856637	-0.065136366
218	0x3d6fc47a	0.058536984
219	0x3c837b9f	0.016050158
220	0xbd8abf67	-0.06774788
221	0x3d2cd4eb	0.042195242
222	0x3c3c4a9c	0.011492398
223	0xbc762693	-0.015023845
224	0x3d48248f	0.04886299
225	0xbd843050	-0.064545274
226	0xbc650cfd	-0.013980147
227	0xbbe5b540	-0.007010132
228	0x3e3b262f	0.18276285
229	0x3d168489	0.03674749
230	0x3d1d5ac2	0.03841663
231	0x3d19b2ef	0.03752416
232	0x3d4bc5eb	0.049749296
233	0xbd8e2938	-0.069414556
234	0x3cd0712a	0.025444586
235	0xb981de66	-0.00024770497
236	0x3c9e9546	0.019358288
237	0xbce8bbdf	-0.028409896
238	0xbcc5619a	-0.024094392
239	0x3da48181	0.080325134
240	0x3d7adf1d	0.061247934
241	0x3defbbc4	0.11705735
242	0xbd2a55b3	-0.041585635
243	0xbacef51f	-0.0015789605
244	0xbcbf0815	-0.023319284
245	0xbd083f79	-0.033263657
246	0x3c6a7807	0.014310843
247	0x3d4cd4bc	0.050007567
248	0x3d058d22	0.032605298
249	0xbcc7b04a	-0.024376053
250	0xbc828e60	-0.01593703
251	0xbd842e07	-0.064540915
252	0xbbc6f4a1	-0.0060716425
253	0x3ca468ce	0.020069506
254	0x3c540d17	0.012942574
255	0x3d7b29c9	0.061319146

conv2.bias f4 [16]
0	0x3eb40297	0.35158226
1	0xbfb564e0	-1.417141
2	0xbf55bb2d	-0.8348873
3	0x3e9e8005	0.30957046
4	0xbf50bb90	-0.815362
5	0x3f3a0df5	0.72677547
6	0xbee36ef5	-0.4442059
7	0x3ed2be11	0.41160634
8	0xbe06a073	-0.13147144
9	0xbe7e9d09	-0.24864592
10	0xbf967202	-1.1753542
11	0x3f227f3b	0.6347539
12	0xbec32470	-0.38113737
13	0x3f4ceb36	0.80046403
14	0xbf4df821	-0.8045674
15	0x3f0716ce	0.5276917

fc1.weight f4 [120, 400]
0	0xbcaf5c69	-0.02140637
1	0x3d1f5b58	0.03890547
2	0x3d112f23	0.035445344
3	0xbc9107a6	-0.017703842
4	0x3b18fe62	0.0023344983
5	0xbd82d968	-0.06389123
6	0x3c8e22fb	0.017350664
7	0x3d24aa5d	0.040201534
8	0xbc2aa8e4	-0.010416243
9	0x3db8e3dc	0.09027836
10	0x3cb22cb7	0.021749837
11	0xbc88302e	-0.016624536
12	0xbdcbfd60	-0.09960437
13	0x3c3fe428	0.0117121115
14	0x3dc58b09	0.096456595
15	0x3d5b4431	0.05353183
16	0x3c7f2e14	0.015574951
17	0x3dc64bd2	0.0968243
18	0x3c458a92	0.0120569635
19	0x3d820dfc	0.063503236
20	0x3e30fba4	0.17283493
21	0xbdd6d72b	-0.10490259
22	0xbdc04e52	-0.093899384
23	0xbd6a65a6	-0.057225846
24	0x3d22294a	0.039590158
25	0xbc3653b1	-0.011128352
26	0xbd54af37	-0.05192491
27	0x3cf096fa	0.029368866
28	0xbc30c2e5	-0.010788654
29	0x3cacc350	0.021089226
30	0x3c344856	0.011003574
31	0xbc127832	-0.00893979
32	0x3d542e4d	0.05180197
33	0xbc2ea54b	-0.010659526
34	0xbd36bd91	-0.04461438
35	0x3ad37263	0.0016132112
36	0xbcd2e970	-0.025746077
37	0xbdfb0d3f	-0.12258386
38	0x3c7c34d3	0.015393454
39	0x3d0b40b9	0.03399727
40	0xbd29e5b3	-0.041478824
41	0x3caf81e7	0.021424247
42	0x3db051ba	0.08609338
43	0xbd9e6897	-0.07734793
44	0x3c3207a4	0.0108660795
45	0x3dca77a6	0.098861024
46	0xbd463da4	-0.04839863
47	0x3daf3f62	0.08557011
48	0x3c6f50ba	0.014606649
49	0x3dac7818	0.084213436
50	0xbc8628d5	-0.016376892
51	0x3cfb4b21	0.030675473
52	0xbbefecb9	-0.0073219207
53	0x3d834ea3	0.06411483
54	0xbd42c72a	-0.04755322
55	0xbc59f366	-0.01330266
56	0x3d73d39c	0.05952798
57	0x3da66b11	0.0812589
58	0xbd895ff7	-0.06707757
59	0xbda930e4	-0.08261278
60	0xbc6f56c8	-0.014608093
61	0x3d8d8849	0.0691076
62	0x3e0ea2a6	0.13929233
63	0x3aab245b	0.00130571
64	0x3c5efc6e	0.013609989
65	0xbccdba9e	-0.0251134
66	0xbd96be79	-0.073605485
67	0x3d56eb13	0.052470278
68	0x3da2d09a	0.07949944
69	0xbd079d2b	-0.03310887
70	0x3c85606a	0.016281325
71	0xbd5b4b14	-0.053538397
72	0x3e19e02e	0.15026924
73	0xbd200d51	-0.0390752
74	0x3cb92a21	0.022603096
75	0x3d622a8a	0.05521635
76	0x3c478b7c	0.012179252
77	0x3d800a49	0.06251962
78	0xbe1c220e	-0.15247366
79	0xbcbd3937	-0.023098571
80	0xbdb886dd	-0.09010098
81	0xbb275eee	-0.002553876
82	0x3d1abeab	0.03777949
83	0x3d18c9e3	0.03730191
84	0xbd6084d0	-0.05481416
85	0x3cb51045	0.022102484
86	0x3d212a5a	0.03934703
87	0x3dcd1129	0.10013039
88	0x3cc34fc7	0.023841752
89	0xbdd3adb2	-0.10335864
90	0xbdcfa27d	-0.10138414
91	0xbcc25968	-0.023724273
92	0xbd4fe02d	-0.0507509
93	0x3ddfe610	0.10932553
94	0x3ceb642e	0.028734293
95	0xbb31f2b5	-0.0027152721
96	0x3d509647	0.050924566
97	0xbdc5cbed	-0.096580364
98	0x3d0b1748	0.03395775
99	0xbd8f4247	-0.06995063
100	0x3c413848	0.011793204
101	0x3d49de5d	0.049284328
102	0x3d508056	0.05090364
103	0x3d063064	0.032760993
104	0xbd977fe9	-0.07397444
105	0xbcae97fb	-0.021312704
106	0x3cc3b052	0.023887787
107	0x3d5ccab1	0.05390424
108	0xbdb79ed7	-0.08965843
109	0x3d0b1128	0.03395191
110	0x3c2b632f	0.010460659
111	0xbd1d4503	-0.038395893
112	0xbbcdd40d	-0.006281382
113	0xbb4f83ab	-0.0031664174
114	0x3de196d0	0.11015093
115	0xbdd5747f	-0.104226105
116	0x3d9ad98b	0.07561024
117	0xbc31d117	-0.010853074
118	0xbd89f543	-0.06736233
119	0xbc85c36f	-0.016328542
120	0x3d15be46	0.036558412
121	0x3d1fc76c	0.039008543
122	0x3d1a3ddc	0.03765665
123	0xbc9612c1	-0.01831949
124	0x3d00da9e	0.03145849
125	0xbcbb3621	-0.02285296
126	0xbda86c55	-0.08223788
127	0x3d29abb1	0.041423503
128	0x3a98db3e	0.0011662019
129	0x3af563e6	0.0018721789
130	0xbd801e94	-0.06255832
131	0xbe299c1f	-0.16563462
132	0x3d9d6b7d	0.076865174
133	0x3d20be8b	0.039244216
134	0x3c66540d	0.014058125
135	0xbc8d84a6	-0.017275166
136	0x3ca3aa16	0.019978564
137	0x3d8ae087	0.067811064
138	0xbe09b063	-0.13446192
139	0x3e04bac3	0.12961869
140	0x3d5fbd8c	0.054624125
141	0xbd28831b	-0.041140657
142	0xbcffa4dd	-0.031206543
143	0x3b54ef26	0.0032491176
144	0x3e0f3ad4	0.13987285
145	0x3d2b2352	0.04178173
146	0x3b3c5486	0.0028736903
147	0x3c0f4362	0.008744093
148	0x3cde26cf	0.027118115
149	0x3d8b7740	0.068098545
150	0xbcc0d1dd	-0.02353757
151	0x3d1dfee2	0.038573153
152	0xbe0dbd2d	-0.13841696
153	0x3cac9b52	0.021070156
154	0x3d26b66c	0.040701315
155	0xbd0b195e	-0.03395974
156	0x3d272795	0.040809233
157	0xbc91baac	-0.017789207
158	0xbde4de4c	-0.11175212
159	0xbdc32cc9	-0.095300265
160	0x3b39176a	0.0028242716
161	0xbd3791a5	-0.04481663
162	0xbcc927be	-0.024555083
163	0xbd1badb1	-0.038007442
164	0x3daf7f2c	0.08569178
165	0x3e1e7f6c	0.15478295
166	0x3c19e6e4	0.0093934275
167	0xbd1e78e7	-0.03868952
168	0xbe185387	-0.14875613
169	0x3dc60118	0.09668177
170	0xbbaba25e	-0.0052378615
171	0x3d6ff21c	0.058580503
172	0xbc137f9c	-0.009002592
173	0x3aaa902e	0.001301294
174	0xbd5db3df	-0.054126617
175	0x3bf80375	0.0075687715
176	0x3d3ab416	0.0455819
177	0x3d29336d	0.04130881
178	0xbd13c0ba	-0.03607247
179	0xbb0a637f	-0.0021116433
180	0x3d60cd7b	0.05488346
181	0xbd221bfb	-0.039577466
182	0xbc9f86cb	-0.019473454
183	0x3da53db7	0.08068412
184	0xbd6c75a1	-0.057729367
185	0x3e135f0c	0.14391726
186	0xbcc35d2b	-0.023848137
187	0x3af86671	0.0018951428
188	0x3d1742a1	0.036928777
189	0x3c8e8317	0.017396493
190	0x3b738597	0.0037158483
191	0xbe09aac9	-0.13444056
192	0xbcaeb158	-0.021324798
193	0x3d1fb1ac	0.0389878
194	0xbca40c19	-0.0200253
195	0x3d9c2742	0.07624675
196	0xbd1c143d	-0.03810524
197	0x3caabfc1	0.020843389
198	0x3e092974	0.1339472
199	0x3c5ce004	0.013481144
200	0x3c9700c6	0.018432986
201	0x39afce1a	0.0003353216
202	0x3d792298	0.060824007
203	0xbc38993d	-0.011267004
204	0x3d0a8f73	0.03382821
205	0x3d8a0eef	0.067411296
206	0x3d10601e	0.035247914
207	0x3ceaec09	0.028677003
208	0x3a4cce98	0.0007812767
209	0xbccc8c29	-0.024969177
210	0x3d463e64	0.048399344
211	0x3bdeca2e	0.006799004
212	0x3de23ced	0.11046777
213	0xbcb3da4f	-0.021954684
214	0xbd347075	-0.04405256
215	0xbd82f4aa	-0.06394322
216	0xbd4cf67c	-0.050039753
217	0x3c37c871	0.011217223
218	0xbd415612	-0.047201224
219	0xbcd204f9	-0.025637137
220	0xbd06a6c4	-0.032873884
221	0xbb671d01	-0.003526509
222	0x3deac686	0.114636466
223	0xbd3d014f	-0.046143826
224	0x3d88e4be	0.06684254
225	0x3d4e8565	0.050420184
226	0x3d80dbaa	0.062918976
227	0x3d4bcf00	0.049757957
228	0xbd8348fa	-0.064104035
229	0xbdb59e33	-0.08868065
230	0xbc278b6e	-0.010226114
231	0xbd482141	-0.04885984
232	0xbdbf7bc9	-0.09349782
233	0x3c2b8b78	0.010470264
234	0xbd619a9b	-0.055079084
235	0xbdc08805	-0.09400944
236	0x3ddee0b7	0.10882705
237	0xbc57a221	-0.013161213
238	0x3d975019	0.07388324
239	0x3de1296f	0.10994231
240	0x3ca07e4d	0.019591475
241	0x3d15391b	0.036431413
242	0xbcf0d584	-0.029398687
243	0xbd8527b7	-0.06501716
244	0xbc0b7241	-0.008511127
245	0xbe048d72	-0.12944582
246	0xbd064fc4	-0.032790914
247	0xbd3cb81c	-0.046074018
248	0xbc1fd219	-0.009754681
249	0x3d477bfd	0.04870223
250	0xbbe25aa4	-0.006907778
251	0x3cf5b7fc	0.029994957
252	0xbd65488c	-0.05597739
253	0xbd941d8e	-0.072321996
254	0x3d2a7889	0.041618858
255	0x3c9b10bb	0.018928876

fc1.bias f4 [120]
0	0x3e6061d9	0.21912326
1	0x3f08c2b9	0.53422123
2	0x3ed52b85	0.41634765
3	0x3fb61d45	1.4227682
4	0xbf58a03b	-0.8461949
5	0x3f5972b1	0.8494063
6	0xbe8f0408	-0.27932763
7	0xbf8fe2bc	-1.1241069
8	0xbfcd5841	-1.6042558
9	0x3e8e279b	0.27764592
10	0xbfb60d45	-1.42228
11	0xbf678026	-0.90429914
12	0x3eee6fb6	0.46569604
13	0x3fa81b2c	1.3133292
14	0x3e1ce1ee	0.1532056
15	0x3f2bc2b4	0.6709397
16	0x3f2b67ed	0.66955453
17	0xc00198a9	-2.0249426
18	0x3ef5a69b	0.47978672
19	0xc01c7d26	-2.4451385
20	0x3e1b004f	0.15136836
21	0xbf141c82	-0.57856
22	0x3ebbfd6b	0.3671678
23	0x3f915c7b	1.1356348
24	0x40240a6c	2.563136
25	0xbfa5edd8	-1.2963209
26	0x3e1bc689	0.15212454
27	0xbff99ac9	-1.9500362
28	0x3f06c858	0.5264945
29	0x3f3292ad	0.6975506
30	0x3ea0ea43	0.31428728
31	0xbfdadbc4	-1.7098317
32	0x3fa9c385	1.3262793
33	0xbe5292ed	-0.2056386
34	0x40250012	2.5781293
35	0x3f25fbac	0.64837146
36	0xbe667114	-0.22504073
37	0xbf5e8259	-0.86917645
38	0x3f3d76d0	0.7400942
39	0x3fabdc4c	1.3426604
40	0xbdf208d2	-0.118180886
41	0xbf402451	-0.75055414
42	0xbfa5144f	-1.2896823
43	0xbff4d02c	-1.9126029
44	0xbf9a131a	-1.2037079
45	0x3e8399fd	0.2570342
46	0x3ec4fef9	0.3847578
47	0x3f96a36c	1.1768622
48	0x3cbd0524	0.02307374
49	0x3f8a55f4	1.0807481
50	0x3f5f22c7	0.8716244
51	0xbe85566b	-0.26042494
52	0x3f7152ad	0.9426678
53	0x3fb13983	1.3845676
54	0xbe5282d3	-0.20557718
55	0x3e3f4a47	0.18680678
56	0x3faaf454	1.3355813
57	0x3e202927	0.15640698
58	0x3edbe1c1	0.42945674
59	0x3face513	1.3507408
60	0xbdf40340	-0.119146824
61	0xbf150292	-0.58207047
62	0x3fb9224a	1.4463589
63	0xc003068e	-2.047275
64	0x3f064035	0.5244172
65	0x3f287ef8	0.6581874
66	0x3fae9791	1.3640004
67	0x401b07fb	2.422362
68	0x3fb780b0	1.4336147
69	0x3e5c2e79	0.21502103
70	0xbcd4bf44	-0.025970109
71	0xbf3c5bd1	-0.735776
72	0xbedc5677	-0.43034717
73	0x3f350358	0.7070823
74	0xbfb0e776	-1.3820636
75	0x4011e86f	2.2798116
76	0x3f39c6db	0.72569054
77	0xbfbf1639	-1.4928657
78	0x3f19e860	0.601202
79	0x3ea490f8	0.32141852
80	0x3e2d2ee6	0.16912422
81	0x3f778251	0.9668322
82	0xbf5363a8	-0.8257394
83	0xbe913768	-0.28362584
84	0xbf4dc431	-0.8037749
85	0xbefb44e7	-0.49076006
86	0x3e984ef2	0.2974773
87	0xbf0f06dc	-0.5586984
88	0xbf3e6653	-0.74374884
89	0xbea3a33d	-0.31960478
90	0xbf8bca3c	-1.0921092
91	0xbee9c115	-0.45655122
92	0x3f8c91a1	1.0981942
93	0x3f71c049	0.9443403
94	0xbe334c18	-0.17509496
95	0xbf4c4261	-0.79788786
96	0xc012af32	-2.291943
97	0x3fdd4999	1.7288085
98	0xbec8e427	-0.39236566
99	0xbf8e4702	-1.111542
100	0xbf81647d	-1.0108792
101	0x3f22dc61	0.6361752
102	0xbf0ca210	-0.5493479
103	0xbe329767	-0.17440568
104	0x3ea0d2ad	0.31410733
105	0xbf07f44c	-0.5310714
106	0xbf61b990	-0.8817377
107	0xbd8f912d	-0.07010112
108	0x3ecaa7f7	0.39581272
109	0xbf0dd27c	-0.553993
110	0x3fb9eaea	1.4524815
111	0x3f99c513	1.2013267
112	0xbf812f84	-1.0092626
113	0x3dc271a0	0.094943285
114	0x3ebce698	0.3689468
115	0x3e3c72b5	0.18403132
116	0x3f37abde	0.71746624
117	0xbde82457	-0.11335056
118	0x3f61d2f5	0.8821252
119	0x3f107f01	0.5644379

fc2.weight f4 [84, 120]
0	0xbd9bdf29	-0.07610924
1	0x3e1fbba6	0.15598926
2	0xbd8d8c6b	-0.06911548
3	0x3e20f8b8	0.15719879
4	0x3d16d639	0.036825392
5	0xbce33173	-0.02773354
6	0xbe06a3cd	-0.13148423
7	0x3c4e4480	0.012589574
8	0xbc9fec1a	-0.019521762
9	0x3dc7308d	0.09726057
10	0xbd882b58	-0.06648892
11	0xbe43448f	-0.19069122
12	0x3e3690b4	0.17828637
13	0xbb033a7b	-0.002002387
14	0xbd9e98c2	-0.0774398
15	0x3e02f627	0.12789212
16	0xbdbd9b19	-0.09258098
17	0x3e34ba2f	0.17649148
18	0xbd88bc9a	-0.06676598
19	0xbe450dd5	-0.19243558
20	0xbcb19ace	-0.021680262
21	0x3baf9b05	0.005359056
22	0xbe1c0317	-0.15235554
23	0xbd5da606	-0.05411341
24	0xbe5b0d35	-0.21391757
25	0x3df277d4	0.11839262
26	0x3e27ad90	0.16374803
27	0xbd88bd6a	-0.06676753
28	0x3cb64755	0.02225081
29	0xbc174762	-0.009233328
30	0x3deb52ea	0.11490424
31	0xbd1de882	-0.038551815
32	0x3e313d02	0.17308429
33	0x3d9b4f90	0.07583535
34	0x3cbe2040	0.023208737
35	0x3a9114cc	0.001106882
36	0xbbb53c39	-0.0055308607
37	0xbdbcadb6	-0.0921282
38	0xbd46d31e	-0.04854118
39	0xbd84ff6f	-0.064940326
40	0xbd1b21d8	-0.037874073
41	0xbd610556	-0.05493673
42	0x3db8a420	0.09015679
43	0xbcb85320	-0.022500575
44	0x3e2b0e4a	0.1670467
45	0x3b38439d	0.0028116473
46	0xbcc4129a	-0.023934651
47	0xbd4303e2	-0.047611125
48	0xbd1049b1	-0.035226528
49	0xbe5474ce	-0.20747682
50	0xbd33c3fc	-0.043888077
51	0xbc4cbbc3	-0.012495938
52	0xbda572e9	-0.08078558
53	0x3da0d033	0.07852211
54	0xbd36b86e	-0.04460948
55	0xbdc11303	-0.09427454
56	0xbdee52ce	-0.116368875
57	0x3cc4fbc9	0.024045842
58	0x3c60b14c	0.013714146
59	0xbcc0429e	-0.023469266
60	0xbdc98f97	-0.09841841
61	0x3d0c7e21	0.034299973
62	0x3c6f8efa	0.014621491
63	0x3c4c218f	0.012459173
64	0xbd51afc7	-0.051193025
65	0x3ccdf865	0.025142858
66	0x3d223cc5	0.039608736
67	0xbd5b0b9b	-0.053477865
68	0xbd9fe680	-0.07807636
69	0x3c6deaaa	0.01452128
70	0xbd262175	-0.04055925
71	0x3ce4b472	0.027918074
72	0x3e127908	0.14303982
73	0x3b903528	0.004400868
74	0xbd14c02c	-0.036316082
75	0x3e641577	0.22273813
76	0xbd380052	-0.04492218
77	0xbd844dcc	-0.06460151
78	0x3e3952ed	0.1809804
79	0xbcc685b7	-0.024233682
80	0x3cf9335f	0.030420003
81	0xbba6a561	-0.0050856327
82	0x3c2c9654	0.010533888
83	0x3dab4925	0.083635606
84	0x3e271dc7	0.16319953
85	0xbdb775b3	-0.08957996
86	0xbd0f70eb	-0.035019796
87	0x3d4f3645	0.050588865
88	0x3bf2d673	0.0074108182
89	0xbcfc85d7	-0.030825539
90	0x3cdf055f	0.02722424
91	0x3e21a626	0.15786037
92	0x3e0a9648	0.1353389
93	0x3c202bcc	0.009776067
94	0x3b8c757c	0.004286466
95	0xbca83d35	-0.020536998
96	0x3bdd8dbe	0.0067612818
97	0xbd73bf19	-0.059508417
98	0x3c06b3c5	0.008221571
99	0x3cd6d8ac	0.026226364
100	0xbd85afe7	-0.06527691
101	0xbcafde34	-0.02146826
102	0xbc0c68de	-0.008569924
103	0xbd8a9b91	-0.06767953
104	0xbdc3a131	-0.09552229
105	0xbe835887	-0.25653479
106	0xbda5ca9c	-0.08095285
107	0xbd3b617a	-0.045747258
108	0xbe3ab09b	-0.18231432
109	0xbd907f25	-0.07055501
110	0xbba90a66	-0.0051587103
111	0xbd6c6bdd	-0.057720054
112	0x3de1efcf	0.11032068
113	0x3c9a5890	0.018841058
114	0x3ddcaf9f	0.107756846
115	0x3a058fa3	0.0005094951
116	0x3dd361e3	0.10321405
117	0x3e0a3d0f	0.13499855
118	0xbcddfbb7	-0.027097566
119	0xbd3ccfb3	-0.046096515
120	0xbb3330d7	-0.0027342343
121	0x3e08655c	0.13319916
122	0x3da01461	0.07816387
123	0xbacf86db	-0.0015833037
124	0x3d22e826	0.039772175
125	0x3d93529f	0.07193493
126	0x3d72ce61	0.05927885
127	0x3c58e998	0.013239287
128	0xbd19d81f	-0.037559625
129	0xbda99b34	-0.08281556
130	0x3b59bdf0	0.0033224784
131	0x3e14aca4	0.14518982
132	0xbb1dbb22	-0.0024067839
133	0x3db6d121	0.08926607
134	0xbd7ae6c5	-0.061255235
135	0x3da4a925	0.08040074
136	0x3ca75ef1	0.020431014
137	0xbd9a0f25	-0.0752242
138	0xbd8e70b3	-0.069550894
139	0xbd2cafc7	-0.04215982
140	0x3c8657de	0.01639932
141	0x39352eda	0.00017278959
142	0xbc722893	-0.014780181
143	0x3dae6bb4	0.085166365
144	0xbd8eacf6	-0.069665834
145	0xbc145d3c	-0.009055432
146	0x3e13cb2b	0.14432971
147	0xbdd8385f	-0.10557627
148	0x3e019206	0.1265336
149	0xbcf4811f	-0.029846726
150	0x3d0ae894	0.03391321
151	0x3daead99	0.08529205
152	0xbdb78b9c	-0.08962175
153	0x3d0a392f	0.03374594
154	0xbdc13fb5	-0.09435979
155	0xbd3f2558	-0.046666473
156	0x3e14af55	0.14520009
157	0xbd803eb2	-0.06261958
158	0x3d6f8de6	0.058484934
159	0x3de33452	0.11093964
160	0xbd302aba	-0.043009497
161	0x3cb17c84	0.021665819
162	0x3d3cf5df	0.04613292
163	0x3da07edb	0.07836696
164	0xbe32928e	-0.17438719
165	0xbdee1daa	-0.11626752
166	0x3e02c946	0.12772092
167	0xbe0ca4f1	-0.13734795
168	0x3d72f247	0.059313085
169	0x3cd6d84e	0.026226189
170	0x3c595dbd	0.013266978
171	0x3b48a4c7	0.0030615793
172	0xbd50fffd	-0.05102538
173	0xbe72ac99	-0.23698653
174	0xbe0e0738	-0.13869941
175	0x3d472152	0.04861576
176	0xbb9f4a49	-0.0048611504
177	0x3df84cbe	0.121240124
178	0xbd681644	-0.05666186
179	0xbd9b78ec	-0.075914234
180	0x3dd58597	0.10425871
181	0x3d52abcf	0.05143338
182	0x3df1bb6a	0.118033245
183	0x3dd9045b	0.10596534
184	0x3e317fba	0.1733388
185	0xbde64371	-0.11243332
186	0x3e3e500b	0.18585221
187	0xbd7bf030	-0.061508358
188	0xbdd43abb	-0.103627644
189	0x3d6bd104	0.05757238
190	0xbd6c671c	-0.05771552
191	0xbda842d4	-0.082158715
192	0x3cf9244e	0.03041282
193	0xbd6a1ca8	-0.057156235
194	0xbe0a077e	-0.1347942
195	0xbe871ed1	-0.263907
196	0x3d607c20	0.054805875
197	0x3e11c36a	0.14234701
198	0xbd741fb6	-0.059600554
199	0x3db28ca6	0.08718233
200	0x3c7eb4a3	0.015545997
201	0x3ddfbb3a	0.109243825
202	0xbe5d0be7	-0.21586572
203	0x3d8137ef	0.063094966
204	0x3e0df0a8	0.13861334
205	0xbe139b98	-0.14414823
206	0x3d183405	0.037158985
207	0xbc9117f6	-0.01771162
208	0x3d3c7c39	0.046016905
209	0x3d64a260	0.055818915
210	0x3b8cdb7f	0.004298627
211	0xbd63c546	-0.055608056
212	0x3c1092fd	0.008824107
213	0x3d2d1c2e	0.042263202
214	0xbe2d3e33	-0.16918258
215	0xbdd8b8e0	-0.10582137
216	0xbc4ba496	-0.012429377
217	0xbce4a620	-0.027911246
218	0x3d0f528c	0.034990832
219	0xbc376acf	-0.011194899
220	0xbc802f9c	-0.015647702
221	0x3e6e3196	0.23261103
222	0x3d577751	0.052604023
223	0x3e5a279d	0.21304174
224	0xbe61aae0	-0.2203784
225	0xbd403f48	-0.04693535
226	0xbda1c0a6	-0.07898073
227	0x3db747db	0.08949252
228	0x3e0dd1b6	0.1384953
229	0xbdee6f64	-0.1164234
230	0xbcb915ba	-0.022593368
231	0xbe850f02	-0.25988013
232	0xbe045392	-0.12922505
233	0xbde88346	-0.113531634
234	0x3d059ffe	0.032623284
235	0x3b040ca7	0.0020149143
236	0xbdefea4b	-0.1171461
237	0xbd07bf2f	-0.03314131
238	0xbd5f790f	-0.05455881
239	0xbc8e234b	-0.017350813
240	0xbca32b47	-0.019918097
241	0x3dacbaaa	0.08434041
242	0x3cf89d5f	0.030348478
243	0xbc20f012	-0.009822862
244	0x3cb5c1c0	0.022187114
245	0xbd8a57dd	-0.0675504
246	0xbd3f9766	-0.046775244
247	0x3d329169	0.043595705
248	0xbe311b4b	-0.17295568
249	0x3b1e9fab	0.0024204056
250	0x3d86201d	0.06549094
251	0xbb9d74d3	-0.0048051863
252	0xbb3e567f	-0.0029043255
253	0x3c17ae88	0.00925792
254	0xbe0acd7a	-0.13554946
255	0x3e065eea	0.13122144

fc2.bias f4 [84]
0	0x3e770b8a	0.24125496
1	0x3f0e8148	0.5566602
2	0xbf55e56a	-0.83553183
3	0x3f10895f	0.5645961
4	0xbfab4dae	-1.3383081
5	0xbe8ecf2a	-0.2789243
6	0x3eb6f361	0.35732558
7	0xbfdf6c07	-1.7454842
8	0x3e8deb10	0.277184
9	0x3dcfb2c3	0.10141518
10	0xbc98ad6c	-0.018637381
11	0xbf06b445	-0.5261882
12	0xbc3fa7cd	-0.011697722
13	0xc0165cc2	-2.3494115
14	0x3e538948	0.20657837
15	0x3eb721c3	0.35767946
16	0x3f919ca8	1.1375933
17	0x3ea20d80	0.31650925
18	0xbfbc9c87	-1.4735268
19	0xbf8cc54c	-1.099771
20	0xbeb9ecde	-0.36313528
21	0x3ecbeb1f	0.3982782
22	0x3c9ed81f	0.019390164
23	0x400afc29	2.1716406
24	0xbe7a4d91	-0.24443652
25	0x3d8f0721	0.069837816
26	0x3fb5f7b3	1.4216217
27	0x3fd4bfa5	1.6620985
28	0xbfd50332	-1.66416
29	0x3f178716	0.591905
30	0x3d61cd8b	0.05512766
31	0x3e841a60	0.25801373
32	0x3f019f61	0.5063382
33	0x3f820de2	1.0160487
34	0xbe8ba414	-0.2727362
35	0xbfb9f3a4	-1.4527478
36	0xbf3dc216	-0.74124277
37	0x3f0461ea	0.51711905
38	0xbfa11c49	-1.2586757
39	0x3fba4fb3	1.4555572
40	0xbc5a2c3c	-0.01331621
41	0x3f2f7207	0.68533367
42	0xbfe96881	-1.8235017
43	0x3fa7ddf8	1.3114614
44	0x3e1b2692	0.15151432
45	0xbfdb5b99	-1.7137328
46	0x3fd9ca8c	1.7014937
47	0x3e7430d4	0.23846751
48	0xbefe3a55	-0.4965388
49	0x3f85cc94	1.0453057
50	0xbeead4a1	-0.45865348
51	0x3ea6e7c1	0.3259869
52	0x3f9c06d0	1.2189579
53	0xbf0b6613	-0.5445263
54	0x3f12be12	0.57321274
55	0x3f0813f3	0.5315544
56	0x3faaa5b3	1.3331817
57	0xbf169bd9	-0.58831555
58	0xbf86c5f7	-1.0529164
59	0xbf4bed97	-0.7965941
60	0x3f0f26dc	0.5591867
61	0xbfe67bf4	-1.8006577
62	0x3f732ea4	0.9499304
63	0x3f17a38d	0.59233934
64	0x3db89665	0.090130605
65	0x40183024	2.3779383
66	0x3d8c2469	0.06842882
67	0xbf886222	-1.0654948
68	0x400a9f0d	2.1659577
69	0x3ec65402	0.38735968
70	0xbeada3ee	-0.3391413
71	0x3db3bac3	0.08775856
72	0x3ea3d155	0.31995645
73	0xbda79ced	-0.08184228
74	0x3ebbb4a5	0.36661258
75	0xbf36ae06	-0.7135929
76	0xbe007c2c	-0.12547368
77	0xc00bae9d	-2.1825325
78	0xbd6c8c1b	-0.057750802
79	0x3e8b3c48	0.27194428
80	0xbf3e1347	-0.74248165
81	0x3f774c2a	0.9660059
82	0xbe81eeb7	-0.25377437
83	0x3fa2a751	1.2707311

fc3.weight f4 [10, 84]
0	0xbe3277d4	-0.17428523
1	0x3cf9e9e5	0.030507037
2	0xbdca4ef7	-0.098783426
3	0xbda381cb	-0.079837404
4	0x3e3e8b29	0.18607773
5	0xbe243d39	-0.1603898
6	0x3d8cad6d	0.06869016
7	0x3d2f994f	0.042870816
8	0xbe236ff6	-0.15960678
9	0x3eaf8520	0.34281254
10	0xbe740774	-0.23830968
11	0x3d149ed7	0.036284294
12	0xbcd74901	-0.026279928
13	0x3d5a2781	0.05326033
14	0xbda603ae	-0.081061706
15	0x3e89a590	0.26884127
16	0xbe0589e1	-0.13040878
17	0x3ddf1ee4	0.10894564
18	0xbcff3a9c	-0.031155877
19	0xbd08f94e	-0.03344088
20	0xbe8b2787	-0.27178594
21	0xbe1e39ea	-0.1545178
22	0xbd3f5326	-0.046710156
23	0x3da7b48a	0.08188732
24	0x3ce5906a	0.028022964
25	0xbe797802	-0.24362186
26	0xbe308eba	-0.17241946
27	0xbdddfd54	-0.10839334
28	0x3e2d9c59	0.16954173
29	0xbe17e81c	-0.14834636
30	0x3b7ad83f	0.0038275865
31	0x3e61e882	0.22061351
32	0x3e715f3c	0.23571485
33	0x3eccb39e	0.39980787
34	0xbd6762e1	-0.056490783
35	0xbbc440d2	-0.0059891725
36	0xbebcd783	-0.36883172
37	0x3ca41244	0.020028241
38	0x3d52b78f	0.051444586
39	0xbd9fe3c8	-0.07807118
40	0x3e8fd224	0.28090012
41	0x3e2d8413	0.16944914
42	0x3dc1aada	0.094564155
43	0x3dcb8805	0.09938053
44	0xbe84a2e5	-0.2590553
45	0x3dbcd615	0.092205204
46	0x3cd86097	0.026413245
47	0x3e0e9285	0.1392308
48	0x3d854624	0.06507519
49	0x3d346b7b	0.044047814
50	0x3eafa671	0.34306672
51	0x3d0e3b47	0.0347245
52	0x3cab4986	0.020909082
53	0x3d830094	0.06396595
54	0xbc006f7e	-0.007839082
55	0xbd3a16be	-0.045431845
56	0xbcfae6d5	-0.030627647
57	0x3d6d600b	0.05795292
58	0xbd82b2ae	-0.06381737
59	0x3ca1057c	0.019655935
60	0x3ddcc112	0.10779013
61	0x3d3e130f	0.046404894
62	0xbc5465fb	-0.012963767
63	0x3ea73acf	0.32662055
64	0x3e030312	0.1279414
65	0xbe1f898f	-0.15579818
66	0x3de04745	0.109510936
67	0x3e867193	0.26258525
68	0xbccf493f	-0.025303481
69	0xbe28852a	-0.16457048
70	0x3d13975e	0.036033027
71	0x3e851802	0.2599488
72	0x3db8453b	0.0899758
73	0xbe03bd6f	-0.12865232
74	0xbddee387	-0.10883241
75	0xbe4e5f2e	-0.20153496
76	0x3e029cc2	0.12755111
77	0x3e0025a8	0.12514365
78	0x3dac6504	0.08417705
79	0xbe67b4ca	-0.2262756
80	0xbdbdc432	-0.09265937
81	0x3d81ef9c	0.0634453
82	0xbe350b98	-0.17680204
83	0x3e11d44f	0.14241146
84	0xbed0114c	-0.40638196
85	0x3d9854a3	0.07438018
86	0x3d0f4980	0.034982204
87	0xbdba314c	-0.09091434
88	0x3a631bba	0.00086634944
89	0xbd5a5912	-0.0533076
90	0xbd923c87	-0.07140451
91	0xbe346ce6	-0.17619666
92	0xbea195c3	-0.31559572
93	0xbe2979ae	-0.16550323
94	0xbd79a3ee	-0.06094735
95	0xbd9de53a	-0.07709737
96	0x3e2ef6a3	0.17086272
97	0xbccfbd32	-0.02535877
98	0x3e82ccd3	0.25546893
99	0xbef92c60	-0.48666668
100	0x3e792b58	0.2433294
101	0xbde6cb90	-0.11269295
102	0xbdd3bd14	-0.10338798
103	0xbc35376a	-0.011060575
104	0x3da373ec	0.07981095
105	0xbe451452	-0.19246033
106	0x3e215ef9	0.15758885
107	0x3e3a3840	0.1818552
108	0xbd99c7a7	-0.07508784
109	0xbe7a76ba	-0.24459353
110	0xbe983ef0	-0.29735518
111	0xbd5b219e	-0.053498857
112	0xbd0a7525	-0.033803124
113	0x3e039a37	0.12851797
114	0x3e084f58	0.13311517
115	0x3de67fdd	0.11254857
116	0x3cca7254	0.024712719
117	0xbdd5d140	-0.10440302
118	0xbdf90e07	-0.12160879
119	0x3e45b5a7	0.19307576
120	0x3e4a560e	0.1975939
121	0x3da3aaa7	0.07991534
122	0xbd628da3	-0.055310857
123	0xbe402ae0	-0.18766356
124	0x3d4693a5	0.04848065
125	0x3e2fb18e	0.17157575
126	0xbca7241f	-0.020402966
127	0xbdd7147a	-0.105019525
128	0x3e83ce2e	0.2574324
129	0xbdeafc59	-0.11473913
130	0xbde220ef	-0.11041438
131	0x3e482043	0.19543557
132	0x3d739116	0.059464537
133	0x3e2b01ac	0.16699857
134	0xbcefa3fd	-0.029253
135	0x3e77aac2	0.24186233
136	0x3df9d76c	0.121992916
137	0x3db839d9	0.089954086
138	0xbc8dcf11	-0.017310651
139	0x3d357ca1	0.04430831
140	0x3d7350cb	0.059403222
141	0x3d920a8b	0.07130917
142	0xbee65f7d	-0.44994727
143	0xbda3c45b	-0.07996436
144	0x3e24063f	0.16018008
145	0x3e5b121d	0.21393628
146	0x3df0c943	0.117571376
147	0x3eb6c3d6	0.35696286
148	0x3e0a0107	0.13476954
149	0x3e2e1137	0.16998754
150	0x3cd246bc	0.025668494
151	0x3c2cf542	0.010556521
152	0x3e2374c7	0.15962516
153	0xbe26625a	-0.16248456
154	0xbdd1f17d	-0.10251138
155	0xbcbfdc8d	-0.023420596
156	0x3e63eff9	0.22259511
157	0x3de85b3c	0.113455266
158	0x3dbfc1aa	0.0936311
159	0x3d18bb76	0.03728815
160	0x3d330efc	0.043715462
161	0xbd7f347f	-0.062305924
162	0xbd45f88f	-0.048332747
163	0xbd11cf44	-0.035598055
164	0xbdd67437	-0.10471385
165	0xbe3c3b4b	-0.18381993
166	0xbe29bba8	-0.16575491
167	0x3d8924c1	0.066964634
168	0xbd9991b1	-0.074984916
169	0x3db347a8	0.08753902
170	0xbb80241d	-0.003910555
171	0x3843e620	4.6705944e-05
172	0x3e26d40e	0.1629183
173	0xbe4d459c	-0.20046085
174	0x3e993227	0.29921076
175	0x3e402e2e	0.18767616
176	0x3d1d40b9	0.038391802
177	0xbc9d1347	-0.019174231
178	0x3d83d09f	0.06436276
179	0xbdd04b28	-0.10170585
180	0x3db74a04	0.08949664
181	0x3ba7e19a	0.0051233293
182	0xbe49bf88	-0.1970197
183	0x3e03144f	0.12800716
184	0xbdebc1e7	-0.11511593
185	0x3c848017	0.01617436
186	0xbe7f9c40	-0.24961948
187	0x3e22569e	0.15853354
188	0x3e726608	0.23671734
189	0x3e5a06a4	0.21291596
190	0x3e2dcd8e	0.16972944
191	0xbe21d5d9	-0.15804233
192	0x3d931df5	0.07183448
193	0x3df2eb77	0.118613176
194	0x3e357427	0.1772009
195	0xbd0e8ff8	-0.034805268
196	0xbe1a8d87	-0.15093051
197	0x3ea4c659	0.32182577
198	0x3eb9a6b0	0.36259985
199	0xbe21acac	-0.15788525
200	0x3e1525ca	0.14565197
201	0x3e3ca1c0	0.18421078
202	0x3e3ca828	0.18423522
203	0x3c137f8d	0.009002578
204	0x3e31dd5a	0.17369595
205	0xbe5cce18	-0.21562994
206	0x3ce4d00d	0.027931238
207	0xbe0d9e0f	-0.13829826
208	0x3e071124	0.13190132
209	0xbdf30184	-0.118655235
210	0xbdbef9c6	-0.09324984
211	0x3df7dd7a	0.1210279
212	0x3be32b70	0.0069326684
213	0x3ebd01ae	0.36915344
214	0xbd233564	-0.03984584
215	0xbe708098	-0.23486555
216	0xbb54f43c	-0.0032494208
217	0x3e657144	0.22406489
218	0xbe69b26a	-0.22821966
219	0x3d89ee94	0.06734958
220	0x3d8e598d	0.06950674
221	0xbeaae484	-0.3337747
222	0xbe676979	-0.22598828
223	0xbe172479	-0.14760007
224	0x3d8ecd14	0.06972709
225	0x3d3b77f9	0.04576871
226	0x3d9f2a3a	0.07771726
227	0x3dc380bc	0.095460385
228	0x3e261638	0.16219413
229	0xbc74de2e	-0.01494555
230	0x3c815e65	0.015792081
231	0x3db31ed9	0.08746118
232	0x3e0821f0	0.13294196
233	0xbdda43dc	-0.106574744
234	0x3dcf80d1	0.10131992
235	0x3c6c9e50	0.0144420415
236	0x3df55815	0.11979691
237	0x3cc55f3c	0.024093263
238	0x3e1b1681	0.15145303
239	0x3dc37db7	0.095454626
240	0x3c3f6c73	0.011683571
241	0x3e471ec5	0.19445331
242	0x3c4a6795	0.012353797
243	0xbe2836f1	-0.16427208
244	0x3dbeb150	0.093111634
245	0xbe52e306	-0.20594415
246	0x3d88a2a4	0.06671646
247	0x3dea0f59	0.114287086
248	0xbe23aadf	-0.15983151
249	0xbda04e11	-0.0782739
250	0xbd0efd89	-0.03490976
251	0x3daee5d6	0.085399315
252	0x3d1c663b	0.038183432
253	0x3d56c89a	0.052437402
254	0xbea58b44	-0.32332814
255	0x3cc5409a	0.024078656

fc3.bias f4 [10]
0	0x3f64877b	0.89269227
1	0xbef1ae48	-0.4720328
2	0xbed89f40	-0.42308998
3	0x3fa37404	1.276978
4	0x3e83a517	0.2571189
5	0xbfaeefb3	-1.36669
6	0x3fc6bac9	1.5525752
7	0x3ee1f71a	0.44133836
8	0xbd07c919	-0.033150766
9	0xbd736a3a	-0.059427477

conv1.weight f4 [6, 3, 5, 5]
0	0x3eb30a20	0.34968662
1	0x3eda09a9	0.42585495
2	0xbed11aec	-0.40840852
3	0xbeec5ada	-0.46163064
4	0xbda681fe	-0.08130263
5	0x3edf85c6	0.4365675
6	0xbe9c726f	-0.30556056
7	0xbecf711d	-0.40515986
8	0xbe792764	-0.24331433
9	0xbef88d3b	-0.4854525
10	0xbe734833	-0.2375801
11	0x3e991e1a	0.29905778
12	0xbe720765	-0.23635633
13	0xbec8afd8	-0.39196658
14	0xbee9f8c4	-0.45697606
15	0xbe41b99a	-0.18918458
16	0x3e50af00	0.20379257
17	0x3ddb6f8f	0.107146375
18	0xbe0a35b2	-0.13497046
19	0xbeba3699	-0.3636978
20	0xbf230391	-0.63677317
21	0xbed693ad	-0.41909543
22	0xbf33df5b	-0.7026269
23	0xbf266552	-0.6499835
24	0xbf61d50b	-0.882157
25	0xbe607393	-0.21919088
26	0x3e8883e3	0.26663122
27	0x3c2e9e6b	0.010657887
28	0xbe872f06	-0.26403064
29	0xbec0e89e	-0.37677473
30	0x3eb78893	0.35846385
31	0xbefd4d32	-0.49472958
32	0xbee53e0f	-0.4477391
33	0xbe394bcc	-0.1809532
34	0xbe8cd5b7	-0.275068
35	0xbef35d2d	-0.47532025
36	0xbe2ae697	-0.16689526
37	0xbea54829	-0.32281616
38	0xbea478b8	-0.3212335
39	0x3c996b00	0.01872778
40	0xbe141ac1	-0.14463331
41	0x3f04b806	0.518433
42	0x3f06704a	0.5251509
43	0x3eb01626	0.34391898
44	0x3e0da3a4	0.13831955
45	0x3b7ca548	0.0038550664
46	0x3e6ddf40	0.23229694
47	0xbe26364d	-0.16231652
48	0x3d907968	0.070544064
49	0xbe725296	-0.23664317
50	0xbf511e70	-0.8168707
51	0xbe1a14bc	-0.15046972
52	0x3e20e310	0.15711617
53	0xbe506777	-0.20351969
54	0xbe9e04fe	-0.30863184
55	0x3e67a3f5	0.22621138
56	0xbda547bd	-0.080703236
57	0xbe0b3b8f	-0.13596939
58	0x3da68cb6	0.08132307
59	0x3dfaad80	0.12240124
60	0xbe97e4b4	-0.29666674
61	0x3e5ec67d	0.21755405
62	0xbee97797	-0.45599052
63	0xbf1e355a	-0.6180016
64	0xbe978f42	-0.29601485
65	0xbef2ca75	-0.47420087
66	0x3f56a616	0.8384718
67	0x3ee975af	0.45597598
68	0x3e8263ac	0.2546667
69	0x3e096ac0	0.13419628
70	0xbf0b0285	-0.5430072
71	0x3c281464	0.010258768
72	0xbe1bbf6e	-0.15209743
73	0x3e1afaec	0.15134782
74	0x3dde9d74	0.108698756
75	0x3f867562	1.0504572
76	0x3f146aa1	0.579752
77	0xbe0537da	-0.13009587
78	0xbca07e59	-0.019591497
79	0x3e7c986e	0.24667522
80	0xbe201220	-0.15631914
81	0xbe0a9697	-0.13534008
82	0xbe92f83c	-0.28705013
83	0xbe46644e	-0.193742
84	0xbe76c9a7	-0.24100362
85	0xbf009c1f	-0.5023822
86	0xbf576722	-0.84141743
87	0xbe0a0038	-0.13476646
88	0xbef19909	-0.4718707
89	0xbe16096e	-0.14652035
90	0x3f936945	1.1516501
91	0xbf2ce9e5	-0.67544395
92	0xbf5439f0	-0.82900906
93	0xbeddd1eb	-0.43324217
94	0xbd43a025	-0.047760148
95	0x3f9fa9bc	1.2473674
96	0xbe8048a7	-0.2505543
97	0xbfe2971e	-1.7702367
98	0xbe94fff1	-0.29101518
99	0x3faff1ff	1.3745726
100	0xbf4d2466	-0.80133665
101	0xbed34af1	-0.41268113
102	0xbf35a79e	-0.7095889
103	0xbf5644e6	-0.8369888
104	0xbed292ee	-0.41127723
105	0xbf899a53	-1.0750221
106	0xbea07380	-0.3133812
107	0xbd981bb8	-0.07427162
108	0xbee1bbb2	-0.44088513
109	0xbed37f14	-0.4130789
110	0xbf9f398f	-1.243944
111	0xbf99e6b6	-1.2023532
112	0xbdbc422d	-0.091923095
113	0xbeac9512	-0.33707482
114	0xbce68a9a	-0.028142262
115	0x3f6343af	0.8877515
116	0xbf9bdad4	-1.2176156
117	0xbfaac009	-1.3339854
118	0xbe3ea673	-0.18618183
119	0x3e87cd03	0.265236
120	0x3fe3f491	1.7809011
121	0xbecd5d1d	-0.40110102
122	0xbffe7937	-1.9880742
123	0xbe81cc5e	-0.25351232
124	0x3fda23a5	1.7042128
125	0xbf50e96d	-0.8160618
126	0xbf0436fd	-0.51646405
127	0xbeae6e65	-0.340686
128	0xbf7524f3	-0.95759505
129	0xbf5dc069	-0.8662172
130	0xbf2b4fc4	-0.6691859
131	0x3ea0791d	0.31342402
132	0x3f5bb6dd	0.858259
133	0x3eaf533d	0.34243193
134	0xbf4678c9	-0.77528054
135	0xbf84e2d5	-1.0381724
136	0xbed7e19f	-0.42164323
137	0x3f9402af	1.1563319
138	0x3ecc91fa	0.3995512
139	0xbf2d31ea	-0.6765429
140	0x3f047411	0.51739603
141	0xbf200a3a	-0.62515604
142	0x3eea580a	0.45770293
143	0x3e7fcd3b	0.24980633
144	0xbf1cf09d	-0.61304647
145	0x3f3a0f66	0.72679746
146	0xbe065153	-0.1311696
147	0xbf577843	-0.8416788
148	0xbe84623f	-0.25856206
149	0x3f0463bc	0.5171468
150	0x3ec2c842	0.3804341
151	0x3f92391d	1.142368
152	0x3fd1007f	1.6328276
153	0x3fa37d4a	1.277261
154	0x3f5903c6	0.8477138
155	0x3ddb5e9b	0.10711404
156	0x3f703139	0.9382511
157	0x3faaa591	1.3331777
158	0x3f2c3824	0.67273164
159	0x3e4e74db	0.20161764
160	0xbe8662cf	-0.2624726
161	0x3eccfa45	0.4003469
162	0x3f56e9a3	0.8395025
163	0x3ea9eeec	0.33190095
164	0xbd200eb8	-0.039076537
165	0xbf5eef01	-0.8708344
166	0xbe945d72	-0.28977543
167	0x3ebf563a	0.37370473
168	0xbe472527	-0.19447766
169	0xbeacb768	-0.33733678
170	0xbf9021eb	-1.1260351
171	0xbf1f29cf	-0.6217317
172	0xbe1fdd67	-0.15611802
173	0x3d9364c8	0.07196957
174	0xbeeeae1a	-0.46617204
175	0xbe714c68	-0.23564303
176	0xbead9a3a	-0.33906728
177	0xbe76ff53	-0.24120836
178	0xbf1bea39	-0.6090427
179	0xbf83f5b0	-1.0309353
180	0xbea99613	-0.3312231
181	0x3da76470	0.08173454
182	0xbcc190f2	-0.023628686
183	0xbf14108c	-0.5783775
184	0xbf2ff679	-0.6873546
185	0xbdb8e02b	-0.09027132
186	0x3d24f6b8	0.04027435
187	0x3f220bc1	0.63299185
188	0x3e417c84	0.18895155
189	0xbd15998a	-0.03652338
190	0xbf0023ee	-0.50054824
191	0xbf4fe5fa	-0.8121029
192	0xbf289414	-0.6585095
193	0xbf37490f	-0.71595854
194	0xbf012f58	-0.50462866
195	0xbe90ea34	-0.28303683
196	0xbef14d30	-0.47129202
197	0xbeb758a5	-0.35809818
198	0xbee9926f	-0.45619532
199	0xbf27fcec	-0.65620303
200	0xbd5b6761	-0.053565387
201	0xc005ebd9	-2.09252
202	0xbfda3812	-1.7048361
203	0xbf1b2952	-0.60609925
204	0x3edbe8a8	0.4295094
205	0xbd3a2500	-0.045445442
206	0xbff3b91e	-1.9040868
207	0xbff8e824	-1.9445844
208	0xbfbf512e	-1.4946649
209	0x3e0f790e	0.14011022
210	0x3f039859	0.5140434
211	0xbf0cd18b	-0.5500724
212	0xbf0d0d3a	-0.5509831
213	0xbedbda86	-0.42940158
214	0x3e9f90ea	0.31165248
215	0x3f123fb1	0.57128435
216	0xbe9a9333	-0.3019043
217	0xbe98e956	-0.2986552
218	0xbef7e30d	-0.48415413
219	0x3f391f52	0.72313416
220	0x3f8b6355	1.0889689
221	0x3ee37192	0.44422585
222	0x3f13a4ec	0.57673526
223	0x3ef82523	0.48465833
224	0x3fa36e2c	1.2767997
225	0xb31334d7	-3.4274162e-08
226	0xb2fe4352	-2.9600105e-08
227	0xb41d0a57	-1.4625526e-07
228	0xb42c5155	-1.6048337e-07
229	0xb38df223	-6.6098686e-08
230	0xb4d86f59	-4.031415e-07
231	0x343844a7	1.7161311e-07
232	0xb3fe64ac	-1.1846109e-07
233	0x343cf2e1	1.7597223e-07
234	0x33b1c1f4	8.277485e-08
235	0xb59c137d	-1.1628578e-06
236	0x34e1e24a	4.2074163e-07
237	0xb3fb2e2b	-1.1696496e-07
238	0x3399dd40	7.164863e-08
239	0x32e96cd3	2.7174258e-08
240	0xb608e693	-2.039979e-06
241	0x354ecb33	7.7036674e-07
242	0xb51e9001	-5.906914e-07
243	0x31e6128b	6.695989e-09
244	0xb3a51313	-7.686881e-08
245	0xb50de09d	-5.285345e-07
246	0xb613dc67	-2.2032998e-06
247	0xb5a27f30	-1.2106957e-06
248	0xb5182e1b	-5.6691505e-07
249	0xb4fbe5ad	-4.6919504e-07
250	0xb08fd670	-1.0465566e-09
251	0x32164d0f	8.74867e-09
252	0x328bb65f	1.6264663e-08
253	0xb2030515	-7.626359e-09
254	0xb1db3f4e	-6.380936e-09
255	0x32f668dc	2.8685854e-08

conv1.bias f4 [6]
0	0xc0984508	-4.7584267
1	0xc09c5e40	-4.886505
2	0xbfb887ff	-1.4416503
3	0xbbd887e8	-0.006607998
4	0x3f7590ad	0.9592388
5	0xbde1e0c0	-0.11029196
